hw2/ensemble/nn-epoch54ensemble-4.pt (torch_old, 39843 bytes, 14 tensors)

fc.0.weight f4 [64, 106]
-0.04814915 0.07968764 0.06492241 -0.1108584 -0.110344194 -0.030109385 -0.0683529 -0.12001863
-0.016383568 -0.016461847 -0.05906459 0.14605306 -0.09787462 -0.014468513 0.17606513 -0.09680227
-0.0100578815 -0.03127227 -0.07712604 -0.100548215 -0.08796832 -0.06670614 0.06502229 0.08042719
0.015685456 -0.024682056 -0.08130035 -0.007625852 0.0625897 0.09771083 0.032107756 0.047511075
0.09378176 0.038284216 0.014141989 0.005337526 -0.050623585 0.090467036 -0.01125685 0.09922612
-0.014128534 -0.08154877 0.014322397 0.073451705 -0.16055648 0.008234389 -0.11376572 0.03663655
0.009134676 -0.23558287 0.05979202 0.012880155 -0.06325977 -0.10677713 -0.03764853 -0.0886767
0.0105351275 -0.055674482 -0.084914215 -0.06377535 0.10226516 -0.02911781 -0.18126601 0.06638998
-0.22318335 0.014373733 0.3269663 -0.045110624 0.070161715 -0.0455355 -0.03560245 -0.043731466
-0.003882232 -0.018954448 -0.048287157 -0.1377046 -0.0016834558 -0.0057032066 -0.1117258 -0.009853061
-0.1289753 0.05279967 0.058364544 -0.15658158 0.14638825 0.10906727 -0.07827737 -0.13602763
-0.041265037 0.0058995923 -0.08942209 -0.04013215 -0.13256024 0.018739369 -0.1148997 -0.056492187
0.1918194 0.065421335 -0.05183535 0.004757118 -0.047854792 0.015003865 0.02725074 0.076340705
0.01885219 -0.0022302635 -0.039991904 -0.06567476 0.07253285 -0.041250065 -0.036966007 0.12560868
-0.115875624 0.023919981 0.005144656 -0.010252365 -0.08265854 0.033097338 0.035451602 0.02103273
-0.0439916 -0.08524056 -0.10858596 6.453531e-05 -0.034508623 -0.04688269 0.09172913 -0.005566257
0.005307175 -0.019582793 0.032130286 0.11752331 0.0010339567 0.124742225 -0.13087767 -0.0034879006
-0.09010619 -0.069310725 0.011040083 0.036269885 0.02060607 0.07291072 -0.04829093 0.0020491108
0.01997872 0.025514642 -0.014991606 -0.1022525 0.07793962 0.11900375 -0.030995082 0.08093221
0.08148504 0.084363975 0.017461319 -0.2603492 0.13080962 -0.00013370282 0.07809045 0.021815296
0.04513008 -0.08792999 -0.14138208 -0.09947057 -0.05681102 -0.12711458 -0.051137395 0.018895317
0.0861664 0.077490576 0.05532833 0.06861338 0.020426909 -0.018747278 -0.27197364 -0.06737219
-0.19660057 -0.006413393 -0.067025684 -0.08982933 -0.021965126 -0.14149562 0.020100677 0.022576109
0.024265667 -0.11323148 -0.011928088 -0.15954262 -0.039151296 -0.21372898 0.062371057 -0.09387796
0.02978345 -0.053748697 -0.010057841 -0.009387933 -0.011663097 -0.19952333 -0.102613874 -0.021835476
-0.04611986 -0.056972723 0.006679397 -0.010283126 -0.04283146 -0.0045129107 -0.10181283 -0.00011047885
-0.025796577 0.059673414 0.00014647935 -0.036149327 -0.06683365 0.012254801 0.06596899 -0.08270662
0.01617213 -0.12874387 -0.07731457 -0.071196 -0.0072291787 -0.035139915 -0.15882818 -0.09681226
0.20601466 0.06393503 -0.0059261033 0.1336711 0.13847475 0.14095488 0.16219865 0.0631081
0.07639631 -0.050387327 0.062348403 -0.27211207 -0.2126395 -0.01761667 -0.039820366 0.02959667
0.11925651 -0.035913352 0.080677696 0.109792665 -0.021401463 -0.09622568 -0.17315432 -0.105227195
0.034025684 0.068398446 0.03479754 0.021731056 -0.088433646 0.0994885 0.032429148 0.04103358
00000000: 0b38 45bd 4633 a33d 0af6 843d bb09 e3bd
00000010: 23fc e1bd f5a7 f6bc 9bfc 8bbd 54cc f5bd
00000020: d536 86bc ffda 86bc b6ed 71bd ef8e 153e
00000030: 7d72 c8bd 580d 6dbc 6b4a 343e 4540 c6bd
00000040: d0c9 24bc 5a17 00bd 42f4 9dbd 39ec cdbd
00000050: bc28 b4bd 3b9d 88bd 682a 853d 03b7 a43d
00000060: c97e 803c 0632 cabc cc80 a6bd 48e2 f9bb
00000070: 072f 803d 9e1c c83d 6c83 033d f99a 423d
00000080: a710 c03d e9cf 1c3d cdb3 673c 6ae6 ae3b
00000090: ad5a 4fbd c846 b93d a76e 38bc 1037 cb3d
000000a0: 5e7b 67bc 0b03 a7bd 7da8 6a3c d96d 963d
000000b0: eb68 24be 88e9 063c 00fe e8bd 3510 163d
000000c0: 9ca9 153c a33c 71be 7ae8 743d 4907 533c
000000d0: 578e 81bd f8ad dabd 5835 1abd 219c b5bd
000000e0: 879b 2c3c ed0a 64bd 81e7 adbd a79c 82bd
000000f0: 6570 d13d 7988 eebc cc9d 39be 78f7 873d
00000100: 2d8a 64be ce7f 6b3c 2068 a73e ebc5 38bd
00000110: f2b0 8f3d 6f83 3abd e0d3 11bd c41f 33bd
00000120: 0b6d 7ebb 5c46 9bbc c1c8 45bd 6f02 0dbe
00000130: 67a7 dcba f7e1 babb 7fd0 e4bd bc6e 21bc
00000140: 1a12 04be 7744 583d a90f 6f3d ec56 20be
00000150: cde6 153e a95e df3d e34f a0bd d44a 0bbe
00000160: 8705 29bd 5e51 c13b ee22 b7bd 9c61 24bd
00000170: dfbd 07be 4e83 993c 8950 ebbd 5a64 67bd
00000180: 4e6c 443e 9ffb 853d 4e51 54bd 99e1 9b3b
00000190: 6303 44bd c5d2 753c f23c df3c 8458 9c3d
000001a0: e86f 9a3c 9d29 12bb 8dce 23bd 7d80 86bd
000001b0: 1a8c 943d d4f5 28bd ab69 17bd 909f 003e
000001c0: 3350 edbd d6f3 c33c 8194 a83b 89f9 27bc
000001d0: e148 a9bd 1391 073d b335 113d d54c ac3c
000001e0: 8930 34bd 9a92 aebd 5162 debd 2157 8738
000001f0: ea58 0dbd 1008 40bd 7bdc bb3d 2665 b6bb
00000200: d0e7 ad3b 186c a0bc 0c9b 033d 10b0 f03d
00000210: d485 873a da78 ff3d cc04 06be 4395 64bb
00000220: 9889 b8bd c8f2 8dbd 77e1 343c bb8f 143d
00000230: 10ce a83c 3752 953d b6cc 45bd 604a 063b
00000240: 6aaa a33c 1504 d13c 5a9f 75bc c269 d1bd
00000250: cf9e 9f3d 3db8 f33d 66e9 fdbc c9bf a53d
00000260: a1e1 a63d 05c7 ac3d 0a0b 8f3c 7e4c 85be
00000270: f5f2 053e 9432 0cb9 e3ed 9f3d feb5 b23c
00000280: 52da 383d a314 b4bd 77c6 10be 3ab7 cbbd
00000290: acb2 68bd 532a 02be 7275 51bd 5aca 9a3c
000002a0: 0278 b03d 61b3 9e3d f59f 623d 2c85 8c3d
000002b0: 5556 a73c e493 99bc 2140 8bbe 6efa 89bd
000002c0: a951 49be 7127 d2bb c344 89bd 71f8 b7bd
000002d0: 35f0 b3bc 3ae4 10be 2daa a43c 88f1 b83c
000002e0: cbc8 c63c e8e5 e7bd 076e 43bc 245f 23be
000002f0: 1c5d 20bd c5db 5abe cb78 7f3d 1743 c0bd
00000300: 6cfc f33c 9827 5cbd a5c9 24bc d8cf 19bc
00000310: 9316 3fbc d84f 4cbe 3927 d2bd 50e0 b2bc
00000320: 2ee8 3cbd 3b5c 69bd d8de da3b 8e7a 28bc
00000330: 0a70 2fbd 0ae1 93bb 3f83 d0bd e2b0 e7b8
00000340: 5853 d3bc 1c6c 743d 4098 1939 5111 14bd
00000350: 15e0 88bd 5cc8 483c c01a 873d 1762 a9bd
00000360: 6a7b 843c 6fd5 03be 1a57 9ebd 35cf 91bd
00000370: bfe2 ecbb dfee 0fbd dba3 22be 8245 c6bd
00000380: 82f5 523e 5ef0 823d c22f c2bb 14e1 083e
00000390: 53cc 0d3e 7a56 103e 6717 263e d23e 813d
000003a0: ab75 9c3d f162 4ebd 0a61 7f3d 4652 8bbe
000003b0: 2bbe 59be d650 90bc ae1a 23bd b774 f23c
000003c0: c23c f43d e119 13bd 593a a53d fada e03d
000003d0: 1f52 afbc f811 c5bd 5e4f 31be 5b81 d7bd
000003e0: 845e 0b3d 7c14 8c3d de87 0e3d 5405 b23c
000003f0: b31c b5bd a0c0 cb3d 6dd4 043d d412 283d

fc.0.bias f4 [64]
0.01711024 -0.14561035 -0.0037223916 -0.0053626527 -0.07245264 -0.098956525 0.014554927 -0.03062117
0.110128015 0.020839391 0.0069716717 0.01877234 0.0029231985 -0.08062247 -0.0604109 0.0045595346
-0.06585006 -0.005029106 -0.12493926 -0.07530882 -0.0081148045 0.06706352 0.020692276 -0.04550535
-0.09740295 0.09668716 0.038778093 -0.09310021 -0.014883213 0.12049974 0.029530019 0.044654556
-0.0981996 0.0052228216 0.06263404 0.017997632 -0.07934948 0.025927711 -0.014279206 -0.05519172
-0.056083012 -0.08494148 -0.11297188 -0.12059126 -0.012931287 -0.10707505 -0.07002042 0.07056354
0.062045302 -0.069228254 0.018608406 -0.14421494 -0.013218351 0.028983193 -0.01091725 0.059183836
-0.08415377 -0.10738672 -0.05965154 -0.025165642 -0.06434639 -0.025992444 -0.10670748 -0.08069833
00000000: c62a 8c3c e11a 15be 5ef3 73bb 31b9 afbb
00000010: 0d62 94bd b8a9 cabd ca77 6e3c 3fd9 fabc
00000020: cc8a e13d 5fb7 aa3c 9f72 e43b 73c8 993c
00000030: 2293 3f3b 651d a5bd 6b71 77bd 2668 953b
00000040: 65dc 86bd 33cb a4bb 28e0 ffbd 833b 9abd
00000050: f5f3 04bc 9958 893d d982 a93c d163 3abd
00000060: 337b c7bd eb03 c63d c7d5 1e3d 53ab bebd
00000070: b8d8 73bc 91c8 f63d f0e8 f13c b2e7 363d
00000080: df1c c9bd 3424 ab3b 4746 803d c56f 933c
00000090: fb81 a2bd 5a66 d43c 55f3 69bc b710 62bd
000000a0: 4db7 65bd ccf5 adbd cd5d e7bd 8df8 f6bd
000000b0: c0dd 53bc 2a4a dbbd de66 8fbd 9e83 903d
000000c0: 3723 7e3d 8bc7 8dbd a870 983c 15ad 13be
000000d0: c891 58bc 296e ed3c 44de 32bc c06a 723d
000000e0: d058 acbd 92ed dbbd 2c55 74bd 2d28 cebc
000000f0: 0ac8 83bd 1bee d4bc 7489 dabd 2b45 a5bd

fc.2.weight f4 [64]
0.70323133 0.4268405 0.77726537 0.54379374 0.52232546 0.72388846 0.81990373 0.6930293
0.649579 0.34984168 0.70822716 0.47556195 0.46680877 0.37288448 0.811837 0.41279504
0.5168916 0.7141166 0.41193715 0.7422504 0.49732485 0.64242244 0.41655 0.5561644
0.3228957 0.2761756 0.38549307 0.27846193 0.4398656 0.7009698 0.8589335 0.8448135
0.3894151 0.6114932 0.5736247 0.88079876 0.8399753 0.16143957 0.4183674 0.56115854
0.80549556 0.5472073 0.63912445 0.8410744 0.29467925 0.3951943 0.52746236 0.8086852
-0.16593896 0.80458915 0.70831156 0.496112 0.5347122 0.27865392 0.8171797 0.34211037
0.9309118 0.24435043 0.19222477 0.4304849 0.41979593 0.22556417 0.85853356 0.7331044
00000000: f806 343f d78a da3e ddfa 463f 1136 0b3f
00000010: 1fb7 053f c150 393f 36e5 513f 5e6a 313f
00000020: cf4a 263f 731e b33e 604e 353f db7c f33e
00000030: 8f01 ef3e b7ea be3e 8dd4 4f3f df59 d33e
00000040: 0253 043f 58d0 363f 6de9 d23e 1f04 3e3f
00000050: 5da1 fe3e cc75 243f 0b46 d53e ca60 0e3f
00000060: 9652 a53e e366 8d3e 595f c53e 9092 8e3e
00000070: 1036 e13e c272 333f 11e3 5b3f b345 583f
00000080: 6a61 c73e d18a 1c3f 11d9 123f 077c 613f
00000090: 9f08 573f 6a50 253e 4034 d63e 16a8 0f3f
000000a0: f534 4e3f c715 0c3f a99d 233f a750 573f
000000b0: 33e0 963e e856 ca3e c607 073f fe05 4f3f
000000c0: e7eb 29be 8ef9 4d3f e853 353f 6402 fe3e
000000d0: e6e2 083f baab 8e3e b032 513f 1729 af3e
000000e0: 3c50 6e3f 0037 7a3e 92d6 443e 8468 dc3e
000000f0: 7eef d63e 4bfa 663e dbc8 5b3f bbac 3b3f

fc.2.bias f4 [64]
-0.04200405 -0.079755545 -0.043153193 -0.13918406 -0.07137117 -0.09914106 -0.17917176 -0.08577185
-0.058841422 -0.07524942 -0.17472427 0.057014894 -0.08529459 -0.07904104 -0.102977805 -0.073738016
-0.15539098 -0.037093084 -0.16852243 -0.17805889 -0.1871871 -0.10748024 -0.13143496 -0.05582135
-0.003043109 0.0012004514 -0.12297652 -0.051595487 -0.13918683 -0.030846361 -0.08713674 -0.18631858
-0.07075971 -0.16032436 -0.089545876 -0.10668619 -0.15872513 -0.014790742 -0.022891447 -0.11667953
-0.14917104 -0.039515916 -0.17407401 -0.25637844 -0.068089 -0.12086342 -0.023873283 -0.01516581
-0.053463135 -0.114489816 -0.034363996 -0.08408986 -0.1649685 -0.0016348463 -0.12132421 -0.03392884
-0.1493978 0.013019768 -0.04941469 -0.247129 -0.123949625 -0.02290451 -0.11344189 -0.10687153
00000000: 700c 2cbd e056 a3bd 67c1 30bd 4486 0ebe
00000010: 0c2b 92bd 780a cbbd cd78 37be 27a9 afbd
00000020: b403 71bd 5e1c 9abd ebea 32be 7388 693d
00000030: eeae aebd 45e0 a1bd 07e6 d2bd f503 97bd
00000040: d01e 1fbe ebee 17bd 2591 2cbe 1255 36be
00000050: faad 3fbe 9a1e dcbd e396 06be eea4 64bd
00000060: e66e 47bb 7758 9d3a 1ddb fbbd ca55 53bd
00000070: fe86 0ebe 82b1 fcbc bf74 b2bd 4cca 3ebe
00000080: 78ea 90bd 122c 24be d463 b7bd 4a7e dabd
00000090: d788 22be de54 72bc d886 bbbc adf5 eebd
000000a0: 4bc0 18be 71db 21bd 7540 32be 0944 83be
000000b0: 3f72 8bbd 3e87 f7bd e791 c3bc 047a 78bc
000000c0: 29fc 5abd a379 eabd 43c1 0cbd 4e37 acbd
000000d0: 81ed 28be 5748 d6ba d478 f8bd f8f8 0abd
000000e0: bdfb 18be dd50 553c 0f67 4abd 620f 7dbe
000000f0: 4dd9 fdbd 3da2 bbbc 3954 e8bd 76df dabd

fc.2.running_mean f4 [64]
0.079349734 -0.11441204 -0.10394698 -0.19704418 -0.24226703 -0.16905728 -0.03978836 -0.067433715
0.23468897 -0.22890902 -0.057863418 0.023333002 -0.009519175 -0.23191598 -0.14742109 -0.12736577
-0.20346828 -0.14159143 -0.18754399 -0.1671744 -0.11085405 -0.014899671 -0.17015934 0.016028032
-0.070392035 -0.049946077 -0.053623464 0.051741216 -0.2073367 -0.02310129 -0.1415075 -0.07996983
-0.14637513 -0.055365954 -0.15894452 -0.054239403 -0.15853633 -0.17779475 -0.0068235113 -0.122338794
-0.020973427 -0.2462765 -0.20050275 -0.1760282 -0.1194218 -0.19294672 -0.10274455 -0.07260333
0.13835688 -0.022212995 -0.14942332 -0.15280914 -0.15817365 0.164527 -0.15865068 -0.08736209
-0.23895968 -0.13260272 -0.16564023 -0.20764723 -0.09993493 0.0003511829 -0.14783467 -0.17598133
00000000: 1d82 a23d dc50 eabd 27e2 d4bd f3c5 49be
00000010: d914 78be 5a1d 2dbe 1ff9 22bd b01a 8abd
00000020: 4e52 703e 2067 6abe 3102 6dbd da24 bf3c
00000030: 50f6 1bbc 627b 6dbe 8ef5 16be 2c6c 02be
00000040: fd59 50be 58fd 10be 880b 40be c42f 2bbe
00000050: 7307 e3bd c01d 74bc 403e 2ebe 384d 833c
00000060: b329 90bd 4294 4cbd 47a4 5bbd 99ee 533d
00000070: 1250 54be eb3e bdbc 58e7 10be 39c7 a3bd
00000080: 5de3 15be 69c7 62bd 5ac2 22be 232a 5ebd
00000090: 5957 22be d40f 36be c397 dfbb c38c fabd
000000a0: 77d0 abbc e82f 7cbe 9850 4dbe bd40 34be
000000b0: 6b93 f4bd d393 45be bc6b d2bd 0eb1 94bd
000000c0: 6dad 0d3e 07f8 b5bc 6d02 19be 007a 1cbe
000000d0: 46f8 21be c479 283e 5375 22be e5ea b2bd
000000e0: d9b1 74be 02c9 07be 989d 29be 7aa1 54be
000000f0: afaa ccbd f91e b839 f961 17be 7334 34be

fc.2.running_var f4 [64]
0.11692304 0.0733278 0.120401196 0.105215825 0.20037097 0.07771148 0.06452285 0.09011579
0.1149049 0.17848235 0.120764755 0.19104855 0.07316042 0.14149843 0.14151552 0.06083866
0.09827274 0.21534547 0.12740481 0.11482763 0.046096336 0.13291539 0.0959339 0.37139526
0.09878104 0.07542319 0.066264264 0.13892625 0.09461918 0.07619152 0.07589023 0.06705027
0.09311701 0.07016822 0.07588325 0.13762152 0.16198593 0.07861244 0.099079736 0.10845308
0.08649061 0.15900563 0.120520756 0.13393284 0.042950977 0.10908076 0.06282844 0.23342903
0.06833744 0.08918918 0.08566448 0.08527231 0.09312576 0.121918485 0.5010932 0.08225843
0.24685796 0.2301754 0.063825786 0.117656775 0.12794724 0.067623414 0.08369314 0.09393763
00000000: 5975 ef3d e32c 963d e794 f63d 657b d73d
00000010: 0c2e 4d3e 3227 9f3d 8e24 843d a18e b83d
00000020: 4353 eb3d 14c4 363e 8353 f73d 3ba2 433e
00000030: 21d5 953d f7e4 103e 72e9 103e f531 793d
00000040: 3843 c93d 8683 5c3e 6876 023e c02a eb3d
00000050: 83cf 3c3d f91a 083e fe78 c43d 8527 be3e
00000060: b74d ca3d 7977 9a3d 8fb5 873d af42 0e3e
00000070: b3c7 c13d 4d0a 9c3d 566c 9b3d a751 893d
00000080: 22b4 be3d 5bb4 8f3d ad68 9b3d a8ec 0c3e
00000090: a4df 253e 8fff a03d 51ea ca3d a61c de3d
000000a0: fd21 b13d 5fd2 223e 96d3 f63d b125 093e
000000b0: 5ded 2f3d bc65 df3d 32ac 803d 0508 6f3e
000000c0: 80f4 8b3d d1a8 b63d dc70 af3d 40a3 ae3d
000000d0: b8b8 be3d 66b0 f93d a547 003f 1c77 a83d
000000e0: 55c8 7c3e 1ab3 6b3e 18b7 823d 09f6 f03d
000000f0: 9a04 033e 257e 8a3d 4f67 ab3d 5f62 c03d

fc.4.weight f4 [32, 64]
0.011790286 0.0926104 -0.023968145 -0.01269088 0.018305812 -0.04118123 -0.0070875376 -0.06508424
-0.031261243 -0.0857383 -0.00017309401 0.00836694 0.018913263 -0.06552828 -0.08369007 0.09851589
0.0019676862 -0.19082695 -0.051133316 -0.039274324 0.0020628078 0.011941922 0.016802205 0.021915264
0.010554498 0.045445148 -0.03473617 -0.16503656 0.05547422 0.052254975 0.045678355 0.046782475
-0.34507853 -0.01625155 -0.019999128 0.047002427 -0.045999315 -0.099305235 0.07157491 -0.13226616
0.00013208328 0.029629514 -0.09054794 0.041882917 -0.065756395 -0.33930722 -0.04382586 0.00065249845
-0.08876057 -0.037491538 -0.1860681 -0.24992487 -0.046515226 -0.06299527 0.17974001 0.125336
0.026420815 -0.023140294 -0.17984153 -0.10566934 -0.055121288 0.113055415 -0.036206238 0.10212581
-0.0008283553 -0.115485825 0.057459712 0.0451026 0.035883185 0.009163984 0.007950518 0.039072514
-0.029996943 -0.1435246 0.11206265 -0.02378269 -0.022285635 -0.16685498 -0.016118856 -0.032487337
0.0056477133 -0.14375292 0.010436089 -0.07970168 -0.01787116 0.008778421 -0.07772877 0.014506851
0.09559697 0.20894118 -0.11581298 -0.12030214 -0.03984738 -0.023167958 0.062331934 0.08821518
-0.07703121 0.09862752 -0.021356631 0.09818088 -0.0043042554 -0.10959262 0.03569625 0.03921161
-0.04634424 -0.0035758102 -0.091312476 -0.021859027 -0.09642504 -0.20149364 0.027750833 0.03155785
-0.15459967 -0.020815058 -0.060758144 -0.12751153 -0.15659691 0.06860024 0.14672759 -0.05907769
0.040523283 -0.12754706 -0.18850927 0.031570062 -0.028871417 -0.024483059 -0.12537888 -0.15799224
0.10482692 -0.18087873 -0.044688057 -0.03357384 0.006963118 0.08163238 0.09100326 -0.14687496
0.024252689 -0.09526425 -0.11333597 -0.18301667 0.12807898 0.027268257 0.014354203 0.0045404164
-0.045364168 -0.06407799 -0.0703004 0.09125701 0.186257 -0.030589385 -0.0021465158 -0.06831805
-0.09345095 -0.1172479 0.07148083 0.04377627 9.103036e-05 0.06708585 -0.0034545758 -0.00068414817
0.09157367 0.010609654 0.12758364 0.004062383 0.019247007 -0.009777719 0.016152268 -0.06502142
0.073232405 0.11474687 -0.10451833 0.06768934 0.1017928 0.13631828 -0.069814056 -0.04631732
0.23172238 0.1004381 -0.013758402 -0.01673934 0.060554493 -0.108171985 -0.12918495 -0.048884917
-0.06670776 0.09053401 0.17900462 0.087193444 -0.12977025 -0.1823154 0.021763476 -0.003686197
-0.014106852 0.009158491 0.09158692 -0.070591874 -0.19914772 0.019174038 0.076350905 0.022626352
0.03886501 -0.0992999 0.001886514 -0.0070497883 -0.0043016626 -0.10218756 -0.025992138 -0.042046066
-0.17124778 0.049826164 -0.16292775 0.09240142 0.012352349 0.004539512 -0.08963069 -0.00875278
0.05292464 -0.021791069 -0.0012844688 -0.08834671 0.0076867645 0.100748755 -0.17624278 -0.07752343
0.02549048 0.030732762 0.041840877 -0.026335742 -0.060308848 -0.32141986 -0.014232997 0.10623116
0.02818553 0.0028951492 0.015443809 -0.12653236 0.18661658 -0.09064079 -0.019378647 -0.073756374
-0.03378647 0.026355611 0.111291476 -0.03670588 -0.20190558 0.017196346 -0.049164783 0.142894
-0.22086705 -0.10963109 -0.015107241 0.15970743 0.02987535 -0.13451293 -0.02550054 -0.18432239
00000000: 0b2c 413c 85aa bd3d d858 c4bc 69ed 4fbc
00000010: 12f6 953c a6ad 28bd 933e e8bb e34a 85bd
00000020: ca0b 00bd 9097 afbd 9280 35b9 7d15 093c
00000030: fdef 9a3c b133 86bd b365 abbd b3c2 c93d
00000040: 4cf4 003b 2468 43be 2b71 51bd 1dde 20bd
00000050: 2c30 073b 0da8 433c c7a4 893c a487 b33c
00000060: c6ec 2c3c b124 3a3d 8447 0ebd 58ff 28be
00000070: f038 633d 5009 563d 3a19 3b3d fb9e 3f3d
00000080: 22ae b0be f821 85bc 36d5 a3bc 9e85 403d
00000090: c769 3cbd 8b60 cbbd de95 923d c870 07be
000000a0: d67f 0a39 98b9 f23c 3371 b9bd 6c8d 2b3d
000000b0: 4aab 86bd adb9 adbe bf82 33bd 6e0c 2b3a
000000c0: 1ac8 b5bd ba90 19bd a388 3ebe 4eec 7fbe
000000d0: c086 3ebd aa03 81bd c40d 383e 1558 003e
000000e0: 7770 d83c b790 bdbc 6128 38be 2b69 d8bd
000000f0: dcc6 61bd 9989 e73d fe4c 14bd 5627 d13d
00000100: fc25 59ba d583 ecbd e05a 6b3d 81bd 383d
00000110: 3ffa 123d 8924 163c e442 023c 800a 203d
00000120: 26bc f5bc 1df8 12be 1a81 e53d ead3 c2bc
00000130: 5d90 b6bc 08dc 2abe b10b 84bc 7111 05bd
00000140: 7410 b93b f733 13be 21fc 2a3c a23a a3bd
00000150: 8a66 92bc 5ed3 0f3c 4330 9fbd 25ae 6d3c
00000160: 58c8 c33d adf4 553e 5b2f edbd f860 f6bd
00000170: 0237 23bd bbca bdbc c54f 7f3d 29aa b43d
00000180: 8ac2 9dbd 3afd c93d 1af4 aebc 0f13 c93d
00000190: b60a 8dbb 1872 e0bd 3b36 123d 5a9c 203d
000001a0: 75d3 3dbd 2458 6abb 0902 bbbd b411 b3bc
000001b0: 7e7a c5bd 5954 4ebe b755 e33c ce42 013d
000001c0: 604f 1ebe 5784 aabc 88dd 78bd 6292 02be
000001d0: f15a 20be 487e 8c3d c23f 163e 73fb 71bd
000001e0: befb 253d b29b 02be 9308 41be 9c4f 013d
000001f0: c083 ecbc b290 c8bc 5263 00be b8c8 21be
00000200: 7faf d63d 4638 39be d30a 37bd b984 09bd
00000210: de2a e43b e12e a73d eb5f ba3d 6466 16be
00000220: 93ad c63c e719 c3bd b01c e8bd b968 3bbe
00000230: 2327 033e ae61 df3c e42d 6b3c c6c7 943b
00000240: c7cf 39bd 523b 83bd a8f9 8fbd f5e4 ba3d
00000250: 28ba 3e3e 9796 fabc 8fac 0cbb 55ea 8bbd
00000260: 3663 bfbd ab1f f0bd 8b64 923d bf4e 333d
00000270: 8de7 be38 4e64 893d 2a66 62bb 6858 33ba
00000280: fa8a bb3d 1dd4 2d3c 49a5 023e bd1d 853b
00000290: e6ab 9d3c ba32 20bc c351 843c f329 85bd
000002a0: dffa 953d 6800 eb3d b50d d6bd b5a0 8a3d
000002b0: be78 d03d 0597 0b3e acfa 8ebd 3bb7 3dbd
000002c0: a248 6d3e 7eb2 cd3d ec6a 61bc f120 89bc
000002d0: fd07 783d 4689 ddbd 0f49 04be 8d3b 48bd
000002e0: 149e 88bd e569 b93d fd4c 373e 7a92 b23d
000002f0: 7ee2 04be e3b0 3abe 5149 b23c 2094 71bb
00000300: 6d20 67bc 7f0d 163c ec91 bb3d 7992 90bd
00000310: 61ed 4bbe df12 9d3c dd5d 9c3d e65a b93c
00000320: eb30 1f3d bf5d cbbd e844 f73a e901 e7bb
00000330: f6f4 8cbb b647 d1bd 77ed d4bc 7f38 2cbd
00000340: 945b 2fbe 8516 4c3d 88d6 26be f53c bd3d
00000350: 8261 4a3c 30c0 943b 4c90 b7bd d267 0fbc
00000360: 82c7 583d 2f83 b2bc 9f5b a8ba 1fef b4bd
00000370: 41e1 fb3b 5d55 ce3d fd78 34be 9bc4 9ebd
00000380: 69d1 d03c 46c3 fb3c 5761 2b3d 0ebe d7bc
00000390: 6906 77bd 2591 a4be 8431 69bc b98f d93d
000003a0: 57e5 e63c 8bbc 3d3b 0808 7d3c b391 01be
000003b0: 6b18 3f3e e1a1 b9bd f8bf 9ebc 950d 97bd
000003c0: ae63 0abd b9e7 d73c c9ec e33d e858 16bd
000003d0: 56c0 4ebe 5adf 8c3c 0361 49bd ce52 123e
000003e0: f92a 62be 4486 e0bd 5d84 77bc 588a 233e
000003f0: 26bd f43c c2bd 09be 82e6 d0bc 02bf 3cbe

fc.4.bias f4 [32]
4.528705e-05 -1.7151033e-05 -4.0061517e-05 -6.014022e-06 8.529826e-21 -1.0609836e-05 4.3378568e-05 -8.775376e-05
2.4387382e-05 -2.3837189e-05 1.2045404e-05 -1.1594343e-05 -1.883326e-08 -1.4370645e-05 5.674833e-05 -2.6535557e-05
-4.356967e-06 -1.804666e-05 9.989689e-06 2.8523325e-06 -8.606731e-06 -1.110433e-05 -6.0679497e-05 4.243185e-06
3.56629e-05 1.5230994e-06 2.512375e-05 4.0060455e-05 -3.347563e-06 2.6087708e-05 -3.3336044e-05 -1.45644035e-05
00000000: 9af2 3d38 90df 8fb7 ba07 28b8 0ecc c9b6
00000010: b51f 211e e600 32b7 62f1 3538 7108 b8b8
00000020: 8193 cc37 f9f5 c7b7 9e16 4a37 5385 42b7
00000030: c7c6 a1b2 7319 71b7 0e05 6e38 ad98 deb7
00000040: 1032 92b6 e862 97b7 6399 2737 b36a 3f36
00000050: a165 10b7 bc4c 3ab7 1d82 7eb8 ae60 8e36
00000060: bf94 1538 4c6d cc35 d8c0 d237 9606 2838
00000070: b2a6 60b6 edd6 da37 4ed2 0bb8 a359 74b7

fc.5.weight f4 [32]
1.1374805 0.5877459 0.9916583 1.0156528 0.00773408 1.0199196 1.2318435 1.0900987
0.6011808 1.1672295 1.0193555 0.74892634 0.041177966 0.97831404 1.1063541 0.5901903
0.47622865 0.6802829 0.74845845 0.2810805 0.6269501 0.46092954 1.0279841 0.6536194
0.5217255 0.2536317 0.38154578 1.0420796 0.43312752 0.7081722 1.196612 0.68375117
00000000: f698 913f 8476 163f 51dd 7d3f e900 823f
00000010: 2a6e fd3b ba8c 823f 0cad 9d3f 5b88 8b3f
00000020: fce6 193f c767 953f 3e7a 823f a3b9 3f3f
00000030: 3aaa 283d ca72 7a3f 039d 8d3f b616 173f
00000040: 3ed4 f33e 0527 2e3f f99a 3f3f c9e9 8f3e
00000050: cd7f 203f f5fe eb3e fc94 833f 9a53 273f
00000060: cd8f 053f 04dc 813e f859 c33e dd62 853f
00000070: e4c2 dd3e c64a 353f 952a 993f 510a 2f3f

fc.5.bias f4 [32]
0.42158267 0.42486477 -0.06630503 0.31682116 -0.013561574 0.44555792 0.26649514 -0.14912347
0.49181908 -0.0658941 0.2560448 -0.06705889 -0.04168241 -0.050304186 -0.073146686 -0.08922372
-0.09178365 -0.054374743 -0.08470667 -0.06665172 0.28703082 -0.041449185 -0.06255505 -0.0529193
0.33397686 -0.056788232 -0.041321587 0.22805707 -0.024218928 0.50386095 0.38048556 0.3827383
00000000: afd9 d73e e087 d93e eeca 87bd 6236 a23e
00000010: 5d31 5ebc 2b20 e43e 0d72 883e d3b3 18be
00000020: b6cf fb3e 7cf3 86bd 4e18 833e 2c56 89bd
00000030: 2dbb 2abd c30b 4ebd eecd 95bd edba b6bd
00000040: 11f9 bbbd 0db8 5ebd b17a adbd b280 88bd
00000050: b4f5 923e 9fc6 29bd dd1c 80bd e8c1 58bd
00000060: 04ff aa3e c79a 68bd d340 29bd cb87 693e
00000070: c666 c6bc 08fd 003f 01cf c23e 46f6 c33e

fc.5.running_mean f4 [32]
-0.21032327 -0.1729485 0.022771537 -0.18923265 -0.00011441776 -0.16928798 -0.30347493 -0.17509231
-0.24287088 -0.04636566 -0.18690112 0.06805477 -0.07991166 0.0066098724 -0.0075718 0.0174634
-0.24139148 -0.06781507 -0.08152177 0.14502834 -0.28655013 -0.0770327 -0.035119016 -0.059333887
-0.16507314 -0.11414905 -0.2402407 -0.28130057 -0.030036613 -0.08602515 0.10259006 -0.08694498
00000000: fc5e 57be 6919 31be 608b ba3c 34c6 41be
00000010: 91f3 efb8 d459 2dbe 1161 9bbe 664b 33be
00000020: 25b3 78be ebe9 3dbd 0263 3fbe 4d60 8b3d
00000030: b9a8 a3bd a197 d83b dd1c f8bb 670f 8f3c
00000040: 542f 77be a1e2 8abd e3f4 a6bd 4f82 143e
00000050: b3b6 92be 52c3 9dbd f5d8 0fbd 1708 73bd
00000060: ef08 29be fac6 e9bd a801 76be a106 90be
00000070: 580f f6bc f42d b0bd bd1a d23d 3610 b2bd

fc.5.running_var f4 [32]
0.056782663 0.10221656 0.060414303 0.06573259 4.27818e-08 0.07642773 0.0656942 0.054599002
0.11044516 0.083785735 0.0676706 0.066243395 0.011450274 0.0736415 0.09474586 0.096943654
0.06328482 0.08384878 0.063838355 0.07254177 0.1203011 0.06526033 0.08300055 0.093934536
0.09006398 0.046239167 0.085664846 0.06359215 0.09138176 0.101310745 0.058766335 0.07009055
00000000: f094 683d ea56 d13d fd74 773d cf9e 863d
00000010: 16bf 3733 2486 9c3d ae8a 863d 34a3 5f3d
00000020: 1231 e23d db97 ab3d e296 8a3d 9eaa 873d
00000030: ee99 3b3c 5bd1 963d 1e0a c23d 658a c63d
00000040: 799b 813d e9b8 ab3d afbd 823d c890 943d
00000050: 6c60 f63d 35a7 853d 31fc a93d c060 c03d
00000060: 7773 b83d 4865 3d3d 0d71 af3d 9a3c 823d
00000070: 5c26 bb3d 027c cf3d f8b4 703d a28b 8f3d

fc.7.weight f4 [2, 32]
0.21833462 0.33267623 -0.26306605 0.29033676 0.069577545 0.3235916 0.24796996 -0.27225235
0.46418223 -0.25645727 0.4049018 -0.05744381 -0.059407614 0.002992459 -0.33215716 -0.33678865
-0.55878544 -0.21547769 0.0226546 -0.127331 0.47785857 -0.24302633 -0.32666653 -0.09627613
0.3490137 -0.17445378 -0.23402208 0.3480534 -0.11531552 0.66538453 0.34299186 0.4684223
-0.39531723 -0.57691926 0.1255677 -0.4283415 0.07209854 -0.35385606 -0.39938983 0.37574935
-0.41750598 0.07319842 -0.30375645 0.16546905 0.0008655696 0.21235558 0.30934158 0.34478965
0.522029 0.14147857 0.21985123 0.22389188 -0.40924448 0.2094378 0.2498198 0.23209065
-0.52764213 0.16208334 0.42409045 -0.3570243 0.12693267 -0.33697754 -0.5486675 -0.39337245
00000000: 1c93 5f3e 8a54 aa3e 98b0 86be 05a7 943e
00000010: ac7e 8e3d ccad a53e d6eb 7d3e a964 8bbe
00000020: 4ba9 ed3e 5e4e 83be 4a4f cf3e 334a 6bbd
00000030: 6655 73bd 221d 443b 8110 aabe 906f acbe
00000040: 900c 0fbf 2fa6 5cbe 2496 b93c 0f63 02be
00000050: e1a9 f43e e5db 78be d640 a7be 6b2c c5bd
00000060: ecb1 b23e 03a4 32be 7ca3 6fbe 0e34 b23e
00000070: 8b2a ecbd a456 2a3f a19c af3e 0cd5 ef3e
00000080: 0567 cabe fbb0 13bf d294 003e 944f dbbe
00000090: 66a8 933d 9f2c b5be d37c ccbe 3862 c03e
000000a0: 58c3 d5be 0ee9 953d f785 9bbe b870 293e
000000b0: 64e7 623a be73 593e 0562 9e3e 4588 b03e
000000c0: b1a3 053f c2df 103e ae20 613e ea43 653e
000000d0: 7e88 d1be dd76 563e c3d0 7f3e 2ca9 6d3e
000000e0: 8e13 07bf 2df9 253e 6222 d93e e4cb b6be
000000f0: a3fa 013e 5288 acbe 7975 0cbf 1d68 c9be

fc.7.bias f4 [2]
0.32533768 -0.13706176
00000000: a992 a63e eb59 0cbe
