hw2/ensemble/nn-epoch54ensemble-3.pt (torch_old, 39843 bytes, 14 tensors)

fc.0.weight f4 [64, 106]
00000000: 58f5 343c ab8b 043c a247 66bd bb56 2c3e
00000010: 0c8a 9e3d 58cb 08bc ec8a cebd 5056 c3bd
00000020: ab7a 7d3a 761d 833d c25f bb3c c94c a0bd
00000030: 5cfc 8d3d 8693 1fbc 06c6 323d 9893 ca3c
00000040: 62ab df3c 2116 9e3c 9410 1abd 67d6 7a3d
00000050: 8a57 4ebd 34c3 a83d 64cd 1bbc 32f4 0e3c
00000060: ea42 b23d 2fb1 933d a638 8dbc 4058 933b
00000070: a762 14be c97c dfbd 687a f5bb e973 7abc
00000080: 9aa7 3a3c acc8 6f3d 2698 85bd 3fc0 96bd
00000090: 5b5b cb3c a481 09be 7b76 c93a 0d90 913b
000000a0: a9d8 ab3d a83d 973d f2ad c53d 5380 ac3c
000000b0: a167 0e3c 2b11 5f3b 21a2 fe3c 719b d2bc
000000c0: 5f05 7cbd 4c2b a93d 3ec5 953c 7b69 9e3d
000000d0: ad0f 393c e56c c0bb 9456 5c3d db5f c13b
000000e0: 43e8 32be 3c70 153d a509 a43b 444f 8cbc
000000f0: 3a58 873c cfec 033d 39db 9dbb d986 2fbd
00000100: bffe 0cbd 6d4e 613c 1275 1fbe 0c58 8b3b
00000110: 6a2c 283d 13e5 65bb deed 383c 7fe8 af3d
00000120: 167e dc3d 6418 ddbc 97c3 143c 5181 d3bc
00000130: 8192 20bb a157 94bb c339 af3b 7777 073d
00000140: f247 183e 3708 8e3a a2db 613d 46ce 973d
00000150: 6912 a73c 657a 62bb c1d5 6abc eaad 623c
00000160: 7d8c ba3b 8155 54bb 7688 05bd 8d44 7339
00000170: 94f0 0e3d f8cd 33bd fb0f 9fbc fdbc 703c
00000180: 3809 32bd f0a3 cabb c813 42bb b210 d33c
00000190: 5625 b4b9 2268 1cbd 4f81 fcbc 50e8 9b3d
000001a0: 7fea 1a3d f674 503c 86dd b33d a55d 833b
000001b0: d0f8 b2bb 557b 7c3e 8ba1 3b3c 5023 6b3d
000001c0: 3dd0 993d 1b46 b33b 2ed5 56bc b57e 1e3d
000001d0: c089 a038 48a3 e13d 4115 923c 8189 3fbd
000001e0: 7a2a 0abe 6aa2 ddbd 26a9 20be 8abe 68be
000001f0: ccee 18be cc6b 59be 7543 c9bd 160f ef3c
00000200: 4a1a 36bd 14fc 763d a906 3d3e 64f1 09bd
00000210: a3ce de3d 8517 57be 88f8 203e 174e debc
00000220: dd77 f7bd 8590 103e a276 183d 5005 febd
00000230: f30a 94bd 6157 0cbd 4fc0 c7bd b10b f2bc
00000240: 06f2 06bc 1af6 d9bb dadc 4cbc 8771 cabd
00000250: afd5 cebd d88e 8cbd e7a3 a4bd 12dc 04be
00000260: 91a7 e7bb da66 7a3d c0d4 eebc 09e6 f73c
00000270: 5aee dfbc fb6b 433d f03a b8bc 016c 3dbe
00000280: dc4c efbd 345e d0bd 2bb5 c43d 5644 07be
00000290: 4ad0 d7bc 5cf5 94bc 1b28 f33b eaad 3fbc
000002a0: 07f9 b1bb 0d32 40bc 9b9f eb3a dc15 84bd
000002b0: 607b 183d ebca 05be 686b 2b3b 97cb 55bd
000002c0: ef58 5bbc 904a 463c c036 693d fe49 8cbd
000002d0: 04eb 12be d1c7 03be beef d7ba 1300 1a3b
000002e0: 23b1 c73d 676d 4bbd 72c7 323d 9314 533d
000002f0: c9a3 d13c 45b7 e23d b38b 21bd 3bc8 28bd
00000300: 2b20 b1bc 9ce4 8dbc 195e 22be f784 2ebd
00000310: 4f16 523d 3dc8 2fbc 8da4 c23c 7570 f83c
00000320: ec3e babd 8d5c 823b 03aa 82bd 8175 0f3d
00000330: 3970 793c 306f 65bd a87d 05bd 6ffb 83be
00000340: 4a95 a83d c364 57bd 9511 c8bc e412 34bd
00000350: f7a5 c7bc 093b ac3b 34e9 133e 1e1a 9f3e
00000360: 7661 3c3d 3bb4 86bd 3dc0 4dbe 05bf 5a3d
00000370: 3919 91bb fa1c f3bd 8ab4 c53d 72fd 513d
00000380: 3fae 873c dc0b c5bc a422 04bc fc9a 593d
00000390: 15b6 d33d 3a74 ecbd 580a a23d 4494 313b
000003a0: 21fb 2b3d 719e 073d 25e8 883d 28fe b43c
000003b0: 934e f93d 05a7 d8bd 4622 983d 476f fcbd
000003c0: 39ed a23d 5706 2cbd c83c aabd ac27 2a3e
000003d0: 1826 17bc b157 16bd 77d8 22be 14b6 9f3d
000003e0: bde2 9abd 9d81 54be 84c8 bf3b 77d9 e5bd
000003f0: 5f41 a83c 1d20 f53d 57a6 1d3c 5ac1 7f3d
0.011044823 0.00808994 -0.056220658 0.1682996 0.07741174 -0.008349262 -0.10085091 -0.09537947
0.0009669463 0.064021036 0.02287281 -0.078271456 0.06932899 -0.009739762 0.04364588 0.024728581
0.027303401 0.019297661 -0.037613466 0.061239626 -0.050376453 0.08240357 -0.009509418 0.008725213
0.08704169 0.072115295 -0.017238926 0.004496604 -0.14490758 -0.10912473 -0.0074913986 -0.015286424
0.011392498 0.058540985 -0.06523161 -0.07360887 0.024823835 -0.1342836 0.0015370393 0.004442221
0.08390934 0.07384807 0.09652318 0.021057284 0.008691699 0.0034037333 0.031083168 -0.025708886
-0.06152856 0.08260211 0.018282529 0.077349626 0.011295241 -0.0058723562 0.053793505 0.0059013194
-0.17471413 0.03648399 0.0050060325 -0.01712764 0.016521562 0.03220826 -0.004817393 -0.04285321
-0.034422632 0.013751608 -0.15572003 0.0042524394 0.04105798 -0.0035079166 0.011287181 0.08589267
0.107662365 -0.02698917 0.009079835 -0.025818499 -0.0024501386 -0.0045270477 0.005347462 0.033072915
0.14871195 0.0010836188 0.0551411 0.074123904 0.02039452 -0.0034557816 -0.014333189 0.01383541
0.005693017 -0.0032399597 -0.032600842 0.00023199823 0.034897402 -0.0438976 -0.0194168 0.014693496
-0.043465823 -0.0061840937 -0.0029613841 0.025764797 -0.00034360093 -0.038185246 -0.030823378 0.076126695
0.03782129 0.012723198 0.087824866 0.004008966 -0.0054617897 0.24656422 0.011452089 0.057406723
0.075104214 0.0054710037 -0.013112349 0.038695056 7.6550525e-05 0.110174716 0.0178324 -0.046761993
-0.13492766 -0.10821994 -0.15689525 -0.22728935 -0.14934844 -0.21232527 -0.098273195 0.029181998
-0.044458665 0.060298994 0.18459572 -0.033677474 0.108792566 -0.21005066 0.15719807 -0.027136846
-0.12083409 0.1411763 0.037222512 -0.12403357 -0.07228651 -0.03426302 -0.09753477 -0.02954659
-0.008236414 -0.006651652 -0.012503827 -0.09884935 -0.10099351 -0.06863183 -0.080390744 -0.12974575
-0.007069536 0.061133243 -0.029154181 0.030261056 -0.027335335 0.0477104 -0.022489041 -0.18498231
-0.11684582 -0.10174218 0.096048675 -0.13209662 -0.026344437 -0.018183403 0.0074205524 -0.011699179
-0.0054312977 -0.011730683 0.0017976643 -0.06449482 0.037227035 -0.13065688 0.0026156548 -0.05219611
-0.013387903 0.012102738 0.05693698 -0.068500504 -0.14347464 -0.12869193 -0.0016474647 0.002349858
0.09750583 -0.04966488 0.043647237 0.051533293 0.025590794 0.11070112 -0.03943987 -0.04120658
-0.021621784 -0.017320924 -0.15856208 -0.042607274 0.051290806 -0.010728893 0.023760105 0.030327061
-0.09094033 0.003978318 -0.063800834 0.03502417 0.01522451 -0.05601424 -0.03259054 -0.25777766
0.082316 -0.05258633 -0.024422446 -0.043963328 -0.02437113 0.005256061 0.14444429 0.31074613
0.045991383 -0.06577345 -0.20092864 0.053404827 -0.0044280556 -0.11870761 0.09653576 0.051267095
0.01656258 -0.024053507 -0.0080649 0.05312632 0.10337464 -0.11545606 0.07912129 0.002709643
0.041987542 0.033110086 0.06684903 0.022093847 0.1217319 -0.105787314 0.07428412 -0.12325912
0.07955403 -0.041998234 -0.08312374 0.16616696 -0.009225391 -0.036704723 -0.15902887 0.077984005
-0.07562778 -0.20752569 0.0058527607 -0.11223119 0.020538984 0.11969016 0.009622178 0.062440254

fc.0.bias f4 [64]
00000000: 46a0 82bd 8831 1f3d e372 18bd 8ab8 c6bd
00000010: d630 80bb 8ebd edbd 5dba e8bc fddd 9abd
00000020: 70d7 fcbd c38b 22bc 0256 e7bc 161e ce3c
00000030: 179a c2bd 9d3b 9ebd 2307 b93d 13f8 3ebc
00000040: 162a bb3a 2eed 253d 75cc 94bd 34d8 5cbd
00000050: 56c1 cebd feae b9bd 5a8a 45bd cc98 cebd
00000060: 99af c0bd eefc 853c 199a fcbc a38a 0fbd
00000070: e855 8cbd b84a cabd 2b05 92bb a995 58bd
00000080: c632 1e3d d2c6 54bd 974d d3bc ee60 a83b
00000090: cd60 13bc fe00 3d3d 5fd0 fcbd 4293 1d3b
000000a0: 3f12 31bc f16e b33c 22c6 663d 4c53 da3c
000000b0: d510 99bc d9e5 f5bd 12d5 62bd 4fef d33c
000000c0: e56b 3cbd 0b54 d7bc 81c6 83bd 633a 86bd
000000d0: ccb3 21b8 3536 a6bd ba1c 153d 2691 40bd
000000e0: 9604 913d acc8 46bd e73a 623d 5a91 d93c
000000f0: b736 04be 680b ddbd bad4 a4bd 7036 1abd
-0.06378226 0.038865596 -0.03721894 -0.09703167 -0.0039120717 -0.1160842 -0.028409177 -0.07561872
-0.12345779 -0.009921017 -0.028239254 0.02516083 -0.095020466 -0.07726214 0.09034564 -0.011655825
0.001427951 0.040509395 -0.072655596 -0.053917125 -0.1009547 -0.0906658 -0.048227645 -0.100877374
-0.094084926 0.016355958 -0.030835198 -0.035044324 -0.06852323 -0.09877533 -0.0044561825 -0.052877102
0.03862264 -0.051947422 -0.025793834 0.005138508 -0.008995247 0.046143524 -0.12344431 0.0024044071
-0.010807573 0.021903487 0.056341298 0.026651047 -0.018684784 -0.120067306 -0.05537898 0.025870947
-0.046001334 -0.026285192 -0.06434346 -0.06554105 -3.855284e-05 -0.08115808 0.03640435 -0.047013424
0.07080953 -0.04853122 0.055231955 0.026558567 -0.12911497 -0.10793191 -0.08048387 -0.037649572

fc.2.weight f4 [64]
00000000: 70ba 2c3e ca11 6c3e a159 993e 5719 093f
00000010: ff9a 3e3f 86ee d63e 73df 8d3e 95f4 273f
00000020: 4521 c03e deda 173f 4edd 9f3e 3aa6 2b3f
00000030: 0429 393f 963e 503f 09c7 653f 22b3 513f
00000040: 3ba6 bd3e e778 423f 3da8 e33e 1eaa c33e
00000050: b741 533f 90b7 fa3e f371 503f 702f 273f
00000060: 97ae 343f de85 8c3e 1b80 d03e 639f 393f
00000070: 30cf fe3e e40a 583e a4be 8f3e 8815 803f
00000080: 458c 643f 5b34 783e 5e76 183f f609 143f
00000090: 9e64 643f ac30 143f 6ed3 ea3e 4815 1a3f
000000a0: ae05 cc3e 0460 f93e 48df aa3e cfeb 6e3f
000000b0: 88e8 433f c094 a93e 4bf7 0c3f 3f16 523f
000000c0: 9da7 333f 6018 4f3f f824 6b3e 1cb1 873e
000000d0: 96a9 623f 1c56 2d3f d9a0 b33e 5cdd 3c3f
000000e0: e1fa 423f ed4e 1f3f d6bf 093f dcb1 613f
000000f0: c481 483f 056f 403f 94d7 5a3e 2a6f 073f
0.16867995 0.23053661 0.29951194 0.5355429 0.74455255 0.41978854 0.2770954 0.6560758
0.37525383 0.5931834 0.3122353 0.67050517 0.7232821 0.813455 0.8975683 0.8191396
0.37040886 0.7596573 0.44464293 0.38215727 0.8252215 0.48968172 0.8142387 0.6530676
0.705789 0.27445883 0.40722737 0.7250883 0.49767447 0.21097904 0.28075135 1.0006571
0.89276534 0.24238722 0.59555614 0.578277 0.8921603 0.5788677 0.45864433 0.6018872
0.39848083 0.48706067 0.33373475 0.93328565 0.7652669 0.331213 0.5506484 0.82065195
0.7017763 0.8089657 0.22963321 0.2650231 0.8854002 0.6770952 0.35083655 0.7377527
0.7616406 0.62229806 0.53808343 0.88162017 0.78323007 0.751694 0.21371299 0.52904

fc.2.bias f4 [64]
00000000: 06c5 84bc 26ae 0d3c 0125 7dbd 9f9e febd
00000010: 8aad bbbd 0f41 dabd f581 bdba da95 2ebd
00000020: 0192 5dbc d4f3 2bbe e4fb 4dbd 74c4 17be
00000030: 7cb8 2e3d bd27 1cbd 5d0b ebbc 8a3e 1bbe
00000040: 8d79 38bd c94b 92bb 47e7 0fbe e874 1ebe
00000050: 75ed 51be 7028 30bd 72e0 d5bd d858 80be
00000060: fc56 b1bd 3c1d 903c 7495 96bd 1a2f 5bbe
00000070: 3415 88bd 820a 87bd 3cd5 61bb 730a 12bd
00000080: 4a13 933d 5b3c 44be 31e6 a1bd 741f 23be
00000090: dfed 1ebe 4660 bcbc 324d 4cbe fb72 be3c
000000a0: 1efe 0cbc 2023 ff3c 464d 98b9 ac59 a7ba
000000b0: 7f35 0abe 70fe 2abd 345e b1bd 710a 60be
000000c0: c65a 5bbd 8b5a 77bd 9c12 28bd f071 a8bd
000000d0: 6423 8ebd 7f69 e9bd 0b30 b9bd b31a 99bd
000000e0: 61dc 81bc a873 6ab8 f3bb 23bd 9ba0 a9bd
000000f0: 2b43 37be b4b8 23bd 4651 04bc 23b6 7abc
-0.01620723 0.008647477 -0.061802868 -0.12432598 -0.09163959 -0.1065694 -0.0014458286 -0.04262338
-0.01352358 -0.16792232 -0.05028905 -0.14821035 0.042656407 -0.038123835 -0.028691942 -0.15160576
-0.045037795 -0.0044646007 -0.14053069 -0.15474284 -0.20500739 -0.043007314 -0.104432 -0.25067782
-0.08659169 0.017592065 -0.07352725 -0.21404687 -0.06644669 -0.06593801 -0.0034459373 -0.035654496
0.071814135 -0.19163649 -0.07905234 -0.15929967 -0.15520428 -0.022995126 -0.19951323 0.023248186
-0.008605508 0.031144679 -0.00029049272 -0.0012767813 -0.1349697 -0.041746557 -0.08660546 -0.21878983
-0.053553365 -0.060389083 -0.041033372 -0.08224857 -0.06940344 -0.11397075 -0.090423666 -0.074757956
-0.015852155 -5.589766e-05 -0.039974164 -0.08282586 -0.17896716 -0.03997107 -0.008076018 -0.015302214

fc.2.running_mean f4 [64]
00000000: 679a bb3d 81c7 3abe 694e 63be 5f92 3abc
00000010: 7011 cdbd 8e19 5cbe 0093 b6bd 5c48 d3bd
00000020: 5b04 36be 4b1f 75be 36ba e3bd 915e 7b3d
00000030: 5870 17bd 4198 53be fa17 513e 3268 4ebe
00000040: 2ffd 27be f221 a93e 7e0c eebd f002 afbd
00000050: f4c4 49be 69a2 4e3d a499 f9bd 890b 72be
00000060: 420c 15be 7282 48be f326 83bd 069d c1bd
00000070: 0a70 23be 1feb 2fbe 7fb3 863c 286b 29be
00000080: 39ea fcbd f123 22be 2f22 36be 76f2 04be
00000090: dcd8 55be 41f4 01be 2f1c 46be c89f 0dbe
000000a0: 4db6 f2bd 81f6 4abd 051c 8bbd 13c6 a8bd
000000b0: a3a0 06bd 41f4 963c fdad 39be f23b 7ebd
000000c0: 976c e93d be1e fcbd c37f 13bd 1fb7 4fbe
000000d0: 87ff dc3b 5580 b2bd e88c b5bd bbf5 59be
000000e0: 87d0 d2bd 654b 46be 8a15 f2bd f2ad 2ebe
000000f0: eb94 32be a913 50be 4326 2dbe 2829 7fbc
0.09160309 -0.18240167 -0.2219788 -0.011387437 -0.100130916 -0.21494123 -0.08914757 -0.10316536
-0.17775099 -0.23937719 -0.11119501 0.061369482 -0.036972374 -0.20663549 0.20419303 -0.20156935
-0.16405176 0.3303371 -0.116234764 -0.08545482 -0.19704038 0.050447855 -0.12187508 -0.23637213
-0.14555457 -0.19581011 -0.06403913 -0.09453778 -0.15960708 -0.17179535 0.016443012 -0.16544783
-0.12349362 -0.15834023 -0.17786478 -0.12983117 -0.20883507 -0.12690832 -0.19346689 -0.13830483
-0.11851177 -0.04955149 -0.06792454 -0.08240905 -0.03286804 0.018427016 -0.18132778 -0.062068887
0.11397665 -0.12310551 -0.036010515 -0.20284699 0.0067443284 -0.08715884 -0.08864766 -0.21285145
-0.1029368 -0.19364698 -0.118205145 -0.17058542 -0.1743962 -0.2032 -0.16909127 -0.015573777

fc.2.running_var f4 [64]
00000000: e436 1c3f e0fb fb3d 8010 c93d a2c5 293e
00000010: 35ef 6f3d 7624 d83d 6185 cd3d aef8 943d
00000020: e112 eb3d 4362 df3d 7ed0 ac3d 51ea b63d
00000030: 716c 863e 802f 1b3e a9d1 2b3f 8c1d d93d
00000040: f929 1c3e 3d4c 953e de30 aa3d 3535 0c3e
00000050: 0a95 ab3d faaa d73d 863e 023e dcd2 dd3d
00000060: c71f 933d e1b9 003e 1ff7 053e 7262 9f3d
00000070: 4d90 e73d 012f d83d f171 a23d 0a9c c73d
00000080: 61e2 083f 7219 603d 4dc7 1f3e c7ca 403e
00000090: 7d3e cd3d a110 cd3d d12d c43d 1cd2 533e
000000a0: a7eb 893d 887b 1e3e 0ec0 8e3d e64f b03e
000000b0: 0b9f cc3d 185d 8a3d ee90 e03d bc28 0d3e
000000c0: b218 1a3f 312a 903e 1a81 a13d 14ed e53d
000000d0: 7b15 d53d acf6 b03d 48e1 b13d 5af2 0a3e
000000e0: 895a 8c3e d4a4 163e 6e37 653e 9f78 b13d
000000f0: 1fb1 c83d b6c3 ee3d 79af 0f3e b7bd 843d
0.61021256 0.12303901 0.098176 0.16579297 0.058577735 0.10553829 0.10035206 0.072739944
0.1147821 0.10907414 0.08438204 0.08931411 0.2625461 0.15154839 0.6711679 0.10601339
0.15250386 0.29159728 0.08310102 0.13692172 0.08378036 0.10530658 0.12719163 0.10831234
0.071837954 0.12570907 0.1308255 0.07782449 0.1130682 0.1055584 0.07931889 0.09746559
0.53470427 0.054711767 0.15603371 0.18827353 0.10021684 0.10012937 0.09579051 0.20685619
0.067344 0.15476811 0.06970225 0.34435958 0.099912725 0.067560375 0.10965143 0.1378507
0.6019393 0.2815719 0.07885952 0.1122686 0.10404488 0.08640799 0.08685547 0.13569012
0.27412823 0.14711314 0.22384426 0.08665585 0.09799408 0.11658423 0.14031781 0.06481498

fc.4.weight f4 [32, 64]
00000000: dc8d 42bd 66ea 13bd 6b76 093b 8c8b 9bbb
00000010: 2525 3d3d b491 f6bd a22e 36be 59af 80be
00000020: cbe5 22bd 98d5 0d3c 6c10 c8bd f763 cebc
00000030: 3827 d73c 6d07 aebc 8e14 10be 8226 72bc
00000040: a863 a23d ad4c 9f3d b501 febd 965f 07bd
00000050: b1fd 01be 28ad 8ab9 fcdb 54bd 37a3 413c
00000060: 4c34 bbbd a48d 62be eab8 01bd 99e2 843d
00000070: 8f31 223c 940a 21be 9c9f 103c 3eca 1b3e
00000080: c5f6 c3bd 9332 79bc 8300 25bc e2c5 9ebd
00000090: 8b7b c8bd 29be 533d 8c1a 92bd 93ff ad3d
000000a0: 53c2 ccbb 38fd ca3d 6be5 a4bc 1b22 e53c
000000b0: 3b5f 00bd 22a7 80bd 0d7b a23d 5a19 eebd
000000c0: 5855 fc3c ce3c 233d 8092 c83d 44f3 81be
000000d0: eb78 383d a127 eabd 2196 f73d 3449 8ebd
000000e0: eb0e 0f3d f7ef febd 784d 923b 17e9 713d
000000f0: 07e2 a4bb c62c 2fbe 95ea 95bd 4f37 afbb
00000100: 85fa 33bd 3b44 983d 87cf 323c 3163 08bc
00000110: 0461 9cbd fcb5 6cbd 12a2 b0bc 1178 e6bc
00000120: a504 363c 09f1 193c 1824 073e 615a 78bd
00000130: 5536 513c 8e38 ee3c 27e7 b23c 5f02 e53b
00000140: 2ae7 a13d 5149 50be 30de 2c3e f71b e2bd
00000150: edad 7ebc 5fa4 543d f228 74bd 628d 50bd
00000160: 0288 863c 37d7 063e add9 fa3d 9b4b 523d
00000170: 604a 213e 28fc 40bd 306d c13d 73f9 783d
00000180: b24c 70bc a9f8 2fbe 88f5 39bd ec12 333e
00000190: 44ad b33c b2d8 2ebe e9aa 75bd 4ad6 fdbd
000001a0: 0ac5 393c 5cd7 2ebb 47ad 553e 64a2 8ebd
000001b0: 7245 19bd b898 17bd cb62 acbb a0fe f43d
000001c0: 9bfd 37be f438 cc3d 8a93 c33d d5f0 0cbe
000001d0: 94ef 6fbe 379a 05be d4ed 263e 336a 3fbd
000001e0: 5ac4 ea3d e79c 163d 9605 d93c 5863 133b
000001f0: 03e0 cbbd 5f45 b73d a26b e5bd 1967 ce3c
00000200: 3401 a6bd cce3 813d c198 483e 8305 e2bc
00000210: 810c 063d 700b 7d3d 30e3 e5bb d815 49bc
00000220: 2ec6 83bd 63a8 ca3d 4cfe 6abe 683c 823d
00000230: 4567 cdbd af3a 943c 0a35 6ebd f680 ed3c
00000240: c13c f1bd 4502 82bd aa28 28be 0e4e ed3d
00000250: 2719 ae3d 881e 46bd b698 25bd aee3 673d
00000260: 014d 183d acbf 54bd 0b73 17be c195 b2bd
00000270: ab1f c9bd 010c 763d d156 45be 2ceb 28bc
00000280: 41c7 5abd 1c2b 433e dd2c 00bd bba7 f6bd
00000290: 2f73 71bd 005c 233e 93e1 a13d 4559 f13d
000002a0: 69ce a4bd 21db 42be a2c5 38bd 1388 55bd
000002b0: 025e 1f3d 118d ecbd 66a0 113d 4a65 c8bd
000002c0: f885 dbbc bea9 01bd ea3d 2ebe 649e f83d
000002d0: 1ee6 813d c7b9 e7bd b2f9 d4bd 52f4 da3d
000002e0: 7c6f a0bd ca53 53bd be00 6cbd 11b5 d43c
000002f0: 8322 563d bbae 163c bf1c 483d 0c07 dabd
00000300: b081 aebd 0cc7 743d 3a3e 46bd 8d9b bcbc
00000310: 685b 28ba 3ad1 723d e5c3 aebd a17d 86bd
00000320: dd51 fbbd 423a 7abd a7f1 bc3d 7c50 193d
00000330: 746c b03d ba88 97bd c293 b03c 43ab 473c
00000340: aafe 053e 2010 27bd 2f9f 36bd e199 84bc
00000350: 7754 afbd 0dc6 36be a2e2 65be f85b 08bd
00000360: f848 b63d b3c8 293c 6269 913d 489a 26bd
00000370: 3346 933c 295f 12bd 4edb 2fbc f6fd 0e3d
00000380: 9220 903d 27ae 0fbe af19 36bd 59ec 9cbd
00000390: 793e 0c3d 3ee5 6e3d c262 d1bd 3afa 063e
000003a0: 888f 8cbc a016 65bd a3b3 b03b 0abd 253e
000003b0: 5998 9e3d 7152 103e 248b edbd d96f 943d
000003c0: 8988 0dbe b910 783d 76ef be3d ebdd 3abe
000003d0: 6eb3 913d 7495 f83d b490 a33d 14e6 40bc
000003e0: 13b4 31bc e791 e4bb d750 843d 7bbb fcbb
000003f0: 5e1b 08be 825a d2bd b8e4 7ebd 9336 053d
-0.04749857 -0.03611221 0.0020975124 -0.00474686 0.046178002 -0.120395094 -0.17791227 -0.2513378
-0.03976993 0.008656882 -0.09768757 -0.025194151 0.026263818 -0.021243775 -0.14070341 -0.014779689
0.07929164 0.077782966 -0.12402669 -0.033050142 -0.12694432 -0.00026450423 -0.051967606 0.011818699
-0.09140834 -0.22124344 -0.03167049 0.064885326 0.009899511 -0.15726691 0.008827116 0.15213868
-0.09568552 -0.015209812 -0.010070923 -0.07752587 -0.09789189 0.051695023 -0.0713397 0.084960125
-0.006248751 0.09911579 -0.020128926 0.027970364 -0.03134082 -0.06281878 0.07933626 -0.11625929
0.030802414 0.03985291 0.09793568 -0.2538091 0.04503719 -0.1143334 0.12089182 -0.06947556
0.034926336 -0.124481134 0.0044648014 0.059060182 -0.0050318274 -0.17106923 -0.073201336 -0.0053471695
-0.043940086 0.07434889 0.010913736 -0.00832443 -0.07635692 -0.05779074 -0.021561656 -0.028133424
0.011109506 0.009395846 0.13197362 -0.060633067 0.012769301 0.029079702 0.021838738 0.006988808
0.07905419 -0.20340468 0.16881633 -0.1104049 -0.015544397 0.05191457 -0.05960936 -0.050916083
0.016422275 0.13168035 0.122485496 0.051341634 0.15751028 -0.047115475 0.09444654 0.06078477
-0.014666723 -0.171847 -0.045400172 0.17487687 0.021933205 -0.1707485 -0.059977446 -0.12394388
0.011338482 -0.0026678657 0.20866881 -0.06964567 -0.037419744 -0.03701088 -0.0052608005 0.11962628
-0.17967837 0.099718004 0.09549625 -0.13763745 -0.23431236 -0.1304711 0.16301662 -0.04673214
0.11463232 0.036770727 0.026491921 0.0022489633 -0.09954836 0.08948778 -0.1120217 0.025195645
-0.08105698 0.06342277 0.19589521 -0.027590519 0.03272677 0.061778486 -0.0070156083 -0.012273274
-0.06434284 0.098953985 -0.22948569 0.06359178 -0.10029463 0.018094389 -0.05815605 0.028992157
-0.11779166 -0.06348089 -0.16421762 0.115871534 0.08500891 -0.04836896 -0.04042884 0.056613617
0.03718281 -0.051940605 -0.14789979 -0.087199695 -0.09820493 0.06007004 -0.19271399 -0.010309976
-0.05341268 0.19059414 -0.031292785 -0.12043711 -0.05894774 0.15953064 0.07904353 0.11784605
-0.08047182 -0.19028904 -0.045110352 -0.052131724 0.038908012 -0.11550344 0.03555336 -0.09784944
-0.02679728 -0.03165602 -0.17015806 0.121395856 0.063427195 -0.11314731 -0.10399188 0.10691132
-0.07833764 -0.05159358 -0.057617895 0.025965245 0.052279007 0.009196932 0.04885554 -0.10645875
-0.0852083 0.05976014 -0.048399188 -0.023023391 -0.0006422312 0.059281565 -0.08533458 -0.065669306
-0.122714736 -0.061090715 0.09225779 0.03743027 0.08614436 -0.073991254 0.021554831 0.012186828
0.13085428 -0.040786862 -0.044585403 -0.016186656 -0.08561032 -0.17848988 -0.22449735 -0.033290833
0.089006364 0.010362792 0.07100178 -0.040674478 0.01797781 -0.035735283 -0.010733439 0.034910165
0.07037462 -0.14031278 -0.044458088 -0.07662267 0.034239266 0.05832409 -0.10223915 0.13181391
-0.017158285 -0.05592978 0.005392508 0.16185394 0.07743902 0.14093949 -0.115988046 0.07247896
-0.13821615 0.060562823 0.09323017 -0.18248717 0.071143016 0.12137881 0.07986584 -0.011773605
-0.010846156 -0.0069754007 0.064607315 -0.007712779 -0.1329169 -0.10271169 -0.062229842 0.03252275

fc.4.bias f4 [32]
00000000: b15d 1cb7 9372 8cb7 7f74 3639 c692 78b7
00000010: 3440 eeb7 c17f 6936 4d60 bbb7 40a4 d7b7
00000020: 9e1a a7b7 00dd a637 90d8 d4b7 22d6 c6b6
00000030: 7369 0a38 4843 edb6 485c cbb7 44f8 0cb8
00000040: 59ab 9cb7 884d 3b37 12ac 6ab8 64cd 0837
00000050: 5962 c1b7 5690 3cb8 daa7 04b6 a2ba 7f37
00000060: aa47 75b6 5f7b 8ab6 6504 1e37 c099 e7b7
00000070: a3c6 97b7 e512 8437 0c7f 70b7 91be 93b7
-9.320139e-06 -1.6742653e-05 0.00017400271 -1.4816125e-05 -2.8401708e-05 3.4794068e-06 -2.233698e-05 -2.5706482e-05
-1.9920346e-05 1.9891653e-05 -2.5373214e-05 -5.925788e-06 3.299997e-05 -7.070983e-06 -2.4242458e-05 -3.3609816e-05
-1.867644e-05 1.116412e-05 -5.59502e-05 8.154053e-06 -2.305319e-05 -4.4957116e-05 -1.9767235e-06 1.5242638e-05
-3.654956e-06 -4.127083e-06 9.418557e-06 -2.7608941e-05 -1.80931e-05 1.5744425e-05 -1.4334695e-05 -1.7612505e-05

fc.5.weight f4 [32]
00000000: 0495 813f 87db 8d3f 4ad6 993f 3bc6 163f
00000010: d680 7f3f fbcc ea3e 3f55 333f b3a5 9f3f
00000020: fd35 ec3e a96a 033f 2762 553f 8c29 493f
00000030: 46fa a93f 9c06 9abe 6234 2b3f 387d 9f3f
00000040: 6740 1e3f 76e7 293f f3a9 b13f e7f9 163f
00000050: 116f f83e 746e ad3e 09c0 193f c404 943f
00000060: 73f7 5f3f fbbd 283f 8ba9 6e3f df2e 883f
00000070: ec52 563f cac5 4d3f e04d d03e f89a 373f
1.0123601 1.108262 1.2018521 0.58896226 0.99805963 0.45859513 0.7005195 1.2472442
0.4613494 0.51334625 0.83352894 0.7857902 1.3279502 -0.30083168 0.66876805 1.2460089
0.6181702 0.66368806 1.3879989 0.5897507 0.48522237 0.33873332 0.6005865 1.1563954
0.8748695 0.6591489 0.9322745 1.0639304 0.8372028 0.8037993 0.40684414 0.7172084

fc.5.bias f4 [32]
00000000: 2fc4 803e edf0 953e 7efc bb3c 0eba 603e
00000010: 4c05 4cbd 9c5c cb3b 7ff0 393c 08b3 b43d
00000020: 40ba b83e cb81 2dbd 6bf4 aa3e 8b40 9e3e
00000030: 07fe b63e 8d30 883e a746 03bd 46ca db3e
00000040: 447f 9d3e d6cc fc3b 7679 b03e 0f23 913e
00000050: 51f3 a0bc 3aa0 823e 5e3f 7c3e 01d2 c73e
00000060: b3c5 4c3e 42f8 803e 2dc4 9f3e beeb b33e
00000070: c342 563e ac58 813e a5ec 843e 19c1 603e
0.25149676 0.29285374 0.022947546 0.21945974 -0.04980974 0.0062061083 0.011348843 0.0882321
0.36079597 -0.04236011 0.333896 0.30908617 0.35740682 0.2659954 -0.0320498 0.4292776
0.30761158 0.007714848 0.34467667 0.2834706 -0.019647272 0.25512868 0.24633548 0.39027408
0.19997291 0.25189406 0.31204358 0.35140795 0.20923905 0.25262964 0.25961795 0.21948661

fc.5.running_mean f4 [32]
00000000: 74c3 82be bb11 64bd 151e 09be 2887 2bbd
00000010: 755b a9bc c887 fe3c c460 203b 83fa 5abd
00000020: 7b1b c03d 31a8 85bd fdd7 1dbe 9148 a13d
00000030: 88af 8cbe a449 0a3e e699 be3d 0113 9ebd
00000040: 4fb0 11be ce20 12be 1a0e f1bd 475c 85bd
00000050: e670 b5bd aece cabd 9e0b 0cbe 21bf 29be
00000060: 0407 09be ee09 7cbe e66f 61bd 52ca 1fbe
00000070: a6a4 9ebe 07ba e5bd 9a84 13be bce8 79be
-0.25539744 -0.05568097 -0.13390382 -0.041876942 -0.020673493 0.031070605 0.002447174 -0.053461563
0.093802415 -0.065262206 -0.15414424 0.07875169 -0.2747767 0.13504654 0.093066975 -0.077184685
-0.14227413 -0.14270326 -0.11770268 -0.06511741 -0.08859424 -0.09902702 -0.13676307 -0.16576816
-0.13381582 -0.24613163 -0.055038355 -0.15604523 -0.30984992 -0.112171225 -0.14406052 -0.24405187

fc.5.running_var f4 [32]
00000000: e597 7a3d 9f3b 373d 318e 6b3d 20d5 d13d
00000010: bb0d 5d3d b334 663d 4be6 c83d 9ae1 e33d
00000020: 14ee 7d3d abdb 163d 31f5 233d 749a 9c3d
00000030: 6e51 803d b006 323d 695c 863d e41e df3d
00000040: 2d90 663d 9c67 833d 599c a03d 75c9 6f3d
00000050: 6ee0 823d 1884 763d 3979 6e3d 676d c53d
00000060: b223 a23d e9b1 a93d ffdf 6c3d 74f9 ab3d
00000070: 20d0 e73d 5412 523d 0738 c33d 011d 893d
0.061180014 0.044734593 0.05750865 0.102457285 0.053968173 0.0562026 0.0980955 0.111270145
0.061994627 0.036830585 0.040028755 0.07646647 0.062655315 0.04346341 0.065605946 0.10894564
0.05628984 0.06416246 0.07842321 0.058541734 0.06390463 0.06018457 0.058221076 0.096400075
0.079169646 0.08285887 0.057830807 0.08397189 0.113189936 0.05128701 0.09532171 0.06694985

fc.7.weight f4 [2, 32]
00000000: 9376 723e cf99 613e af3b d5be 68d0 663e
00000010: 9ab7 a3be dfa8 dabd d2ac 10be d49c c3be
00000020: 264a e93e 76c0 10be e2ae 873e bee6 633e
00000030: f4ec 853e c467 fa3e 15ad c0be 7243 8c3e
00000040: e7cd 9c3e 25cf febe 854b 043e ce12 e13e
00000050: e632 d1be 9389 ac3e 1b3c 8e3e fda8 a03e
00000060: dd6d ad3e b060 863e ecea 2c3e 4568 9c3e
00000070: a605 843e e36a 533e d5e1 943e dd8f a13e
00000080: 6c5b aebe ff93 83be 0190 a73e bca2 afbe
00000090: d5dc 873e 95db 973b 525c a93e 9bef 9f3e
000000a0: 0188 bfbe ddc1 863e 4909 88be 65a4 9abe
000000b0: 4ec5 22be 1863 e9be cd6e 693e 2303 b7be
000000c0: 3405 a3be 0bf2 dc3e 1b06 bfbe f517 8cbe
000000d0: 8b75 9e3e 7c0b e2be 7b81 abbe 388e 98be
000000e0: 239c 94be c42b d0be ef6e 8cbe 2203 48be
000000f0: f4b3 95be 5e81 a6be ff8e b8be d728 adbe
0.23678045 0.2203133 -0.41647097 0.22540438 -0.31976014 -0.10676741 -0.14128426 -0.38205588
0.45564383 -0.14135918 0.26500612 0.2225599 0.26157343 0.48907292 -0.3763205 0.27395207
0.3062584 -0.49767414 0.12919433 0.4395966 -0.40859145 0.3369871 0.27780232 0.31378928
0.33872882 0.26245642 0.1688649 0.305483 0.2578556 0.20646243 0.29078546 0.3155507
-0.34054124 -0.2569885 0.32727054 -0.34303844 0.2653567 0.0046343305 0.33078247 0.31237492
-0.3740845 0.2631978 -0.26569584 -0.30203548 -0.15895578 -0.45583415 0.22796173 -0.3574458
-0.31839907 0.43153414 -0.37309346 -0.27362028 0.30949053 -0.44149387 -0.33497223 -0.29796004
-0.29025373 -0.4065839 -0.27428386 -0.19532445 -0.29238856 -0.32520574 -0.36046597 -0.3382022

fc.7.bias f4 [2]
00000000: 3dad 223e fa00 2bbd
0.15886398 -0.04174898
