hw2/ensemble/nn-epoch54ensemble-2.pt (torch_old, 39843 bytes, 14 tensors)

fc.0.weight f4 [64, 106]
0	0xbd5c3a18	-0.05376634
1	0xbd10e1ed	-0.03537171
2	0x3d8eb3d7	0.069678955
3	0xbd979279	-0.07400984
4	0xbd8a7993	-0.0676147
5	0x3bf50d41	0.0074783866
6	0xbd9e2202	-0.0772133
7	0x3d0a884d	0.033821393
8	0x3c205ca6	0.009787714
9	0xbd74219f	-0.059602376
10	0xbdd7bafe	-0.10533713
11	0x3dd19b84	0.102347404
12	0xbcab8ba5	-0.020940611
13	0x3c78a108	0.015175112
14	0x3d887d22	0.06664492
15	0x3d132355	0.035922367
16	0x3e04f0df	0.1298251
17	0x3e173661	0.14766838
18	0xbd5980e0	-0.05310142
19	0xbdbad2bb	-0.09122225
20	0x3cbb741d	0.022882516
21	0xbd92f0d9	-0.07174844
22	0xbd92aee1	-0.07162262
23	0x3d85c16f	0.06531035
24	0xbdc1a14c	-0.09454593
25	0x3d82edaf	0.06392991
26	0xbe63c245	-0.22242077
27	0xbc98127b	-0.0185635
28	0xbe7fe64b	-0.24990194
29	0x3d610c0c	0.05494313
30	0xba07bdec	-0.0005178142
31	0xbdd4be41	-0.103878506
32	0x3cc63a46	0.024197709
33	0xbdae13bf	-0.0849986
34	0x3d2967ab	0.04135863
35	0x3d8dc968	0.06923181
36	0xbe3775f7	-0.17916094
37	0xbe44c590	-0.19215989
38	0x3cb36798	0.021899983
39	0xbc2778c7	-0.010221667
40	0x3ba67a5f	0.0050805057
41	0x3c091182	0.008365991
42	0x3dd191fa	0.10232921
43	0xbe16c1c7	-0.14722358
44	0x3d1cecab	0.03831164
45	0x3dbfdc01	0.09368134
46	0x3d5c38f6	0.05376526
47	0xba9cc458	-0.001196037
48	0xbd05bc15	-0.032650072
49	0xbe275a65	-0.16343077
50	0xbc92f930	-0.017941087
51	0xbd951cb9	-0.07280869
52	0x3d176d15	0.036969263
53	0xbdc23817	-0.094833545
54	0x3b465e8e	0.0030268761
55	0xbe044f9a	-0.1292099
56	0xbd9036a6	-0.07041673
57	0xbdd704f3	-0.10498991
58	0x3dadc46b	0.084847294
59	0xbdd6202b	-0.10455354
60	0x3d2f00cd	0.042725373
61	0x3da35de1	0.0797689
62	0x3b7090be	0.0036707367
63	0xbdc2f3a6	-0.095191285
64	0xbd4d6a05	-0.050149936
65	0x3df45664	0.1193054
66	0xbd9f9691	-0.0779239
67	0x3d582b98	0.05277595
68	0xbe23ba50	-0.15989041
69	0xbd3eeb89	-0.046611343
70	0xbe1e6965	-0.15469892
71	0xbddc5adc	-0.107595176
72	0xbd05ead6	-0.03269466
73	0x3d6b18fb	0.05739687
74	0xbcc2523a	-0.02372085
75	0xbddecc42	-0.10878803
76	0x3a02bc54	0.00049871695
77	0xbbb4e214	-0.0055201147
78	0x3d5c5d03	0.05379964
79	0xbc19008c	-0.009338509
80	0x3dabce72	0.08388986
81	0xbc3c7929	-0.011503496
82	0xbd3dc8a5	-0.046333928
83	0xbc573ff8	-0.01313781
84	0x3e03bc0c	0.12864703
85	0x3d9a4f79	0.075346895
86	0x3c269035	0.010166218
87	0x3d25d9f5	0.040491063
88	0x3b850150	0.0040589944
89	0x3d0f71b0	0.03502053
90	0xbd65a5c9	-0.05606631
91	0xbe4fdf2a	-0.20299974
92	0x3d120962	0.03565348
93	0x3bff5b7b	0.0077928877
94	0x3d9766c6	0.07392649
95	0xbdfcaaa2	-0.12337233
96	0x3e434306	0.19068536
97	0xbe22c18a	-0.15894142
98	0xb9919668	-0.00027768617
99	0x3cf8448f	0.030306129
100	0xbd5b801e	-0.05358898
101	0x3dacef10	0.08444035
102	0xbd4fcae4	-0.0507306
103	0x3d13e1ba	0.03610394
104	0xbd265c0c	-0.040615126
105	0xbc06b4be	-0.008221803
106	0x3becc535	0.0072256573
107	0x3dd68522	0.10474612
108	0xbd7aac7c	-0.06119965
109	0xbe01171f	-0.12606476
110	0x3d7de9fb	0.06199072
111	0xbd1a21a2	-0.03762973
112	0xbe5a4ef4	-0.2131918
113	0xbdaaebba	-0.083457425
114	0xbaf98f73	-0.0019039944
115	0x3d73d21c	0.059526548
116	0xbca5b296	-0.020226758
117	0x3d9fbd25	0.07799748
118	0x3d895c53	0.067070626
119	0xbd0f0890	-0.034920275
120	0x3e449658	0.19197977
121	0xbe30df75	-0.17272742
122	0xbd2f8ee9	-0.0428609
123	0xbe0fb9aa	-0.14035669
124	0xbe81375f	-0.25237557
125	0xbdef3604	-0.116802245
126	0xbe51bd0a	-0.20482269
127	0x3d17ae57	0.037031498
128	0x3e08157f	0.1328945
129	0x3c6b31dc	0.014355149
130	0x3e0f8691	0.14016177
131	0x3bda7b05	0.006667497
132	0xbd10f21f	-0.035387155
133	0xbdc29031	-0.095001586
134	0x3e049abb	0.1294965
135	0x3d978411	0.073982365
136	0xbabfcd9b	-0.0014633419
137	0xbc5c7d84	-0.01345766
138	0x3d8e9400	0.069618225
139	0xbd20dbcc	-0.039272115
140	0xbc65d7b5	-0.014028479
141	0xbd554e96	-0.0520769
142	0xbd987435	-0.0744404
143	0xbdcd8ce6	-0.1003664
144	0x3ba0fb0c	0.0049127396
145	0x3d3b2a27	0.045694496
146	0xbdf1d0cf	-0.11807405
147	0xbe1536b2	-0.14571646
148	0x3cbe7a57	0.023251696
149	0x3e10740e	0.14106771
150	0xbe05ee60	-0.13079214
151	0xbd042ddb	-0.032270294
152	0x3e0ee75a	0.13955441
153	0x3c9f3f11	0.019439252
154	0xbde2ad4f	-0.11068212
155	0x3db889f6	0.09010689
156	0xbcb89f44	-0.022536881
157	0xbddb3ad1	-0.10704578
158	0xbdd3deb6	-0.10345213
159	0xbdf474d6	-0.11936347
160	0x3ae36376	0.0017348367
161	0xbc8fb473	-0.0175421
162	0x3dbf431b	0.09338971
163	0xbab2c6a2	-0.001363952
164	0x3d82ef41	0.0639329
165	0xbe1f242f	-0.15541147
166	0xbd06f2ac	-0.032946274
167	0xbd94f659	-0.072735496
168	0x3dc4ca3b	0.09608885
169	0xbd85e69d	-0.065381266
170	0xbe9397e1	-0.28826812
171	0x3c1d277a	0.0095919315
172	0x3e4a1a83	0.19736676
173	0xbd8bf0e6	-0.06833057
174	0xbe08644f	-0.13319515
175	0xbdd15500	-0.102212906
176	0xbe359ecf	-0.17736362
177	0xbe24cac6	-0.16092977
178	0x3d3cbf93	0.046081137
179	0xbd59f6b0	-0.053213775
180	0xbc957b72	-0.01824734
181	0xbe35ddf8	-0.17760456
182	0x3c1ed212	0.009693639
183	0xbbb6b5e2	-0.0055758813
184	0xbe068d26	-0.13139781
185	0xbd97aebe	-0.07406376
186	0x3dd32288	0.10309321
187	0xbccff6e3	-0.02538628
188	0x3cd8ff45	0.02648891
189	0x3da5ab39	0.08089299
190	0x3e214f38	0.15752876
191	0xbd506928	-0.050881535
192	0x3d2856cf	0.041098412
193	0x3dad4b78	0.0846166
194	0x3dd4cb18	0.103902996
195	0xbc9a90ed	-0.018867934
196	0xbbb401e2	-0.0054933885
197	0xba1fb6c2	-0.00060926017
198	0x3cffb922	0.031216208
199	0x3e0761d3	0.1322091
200	0xbd256b90	-0.040385783
201	0xbc2bd434	-0.010487605
202	0xbe3972af	-0.18110155
203	0xbe005268	-0.12531435
204	0x3bbe8b03	0.0058149113
205	0x3b08fcad	0.002090256
206	0x3ca9fe73	0.020751214
207	0xbdadb95b	-0.084826194
208	0xbd720523	-0.05908693
209	0xbc8133a5	-0.015771696
210	0xb994ba26	-0.0002836745
211	0x3c9f6160	0.019455612
212	0x3d67fcd0	0.056637585
213	0x3d546aa9	0.05185953
214	0x3d2d9a10	0.042383254
215	0x3e667502	0.22505572
216	0xbd5374a6	-0.051624916
217	0x3b9c61b5	0.00477239
218	0xbcbf51ab	-0.023354372
219	0x3dafa733	0.085768126
220	0xbb86de03	-0.0041158213
221	0xbd2f892b	-0.042855423
222	0xbd9232ad	-0.07138572
223	0x3d7c1a5e	0.061548583
224	0xbd643636	-0.055715762
225	0xbdb63328	-0.08896476
226	0xbe5382f9	-0.20655431
227	0xbc8623b1	-0.01637444
228	0xbe167c39	-0.14695825
229	0xbcdfe290	-0.027329713
230	0x3c9ed255	0.019387404
231	0xbdf84648	-0.1212278
232	0xbc744af9	-0.014910453
233	0xbcaf3861	-0.021389188
234	0xbd347fb4	-0.0440671
235	0x3d587fc9	0.05285624
236	0x3e071776	0.13192543
237	0xbd346030	-0.044037044
238	0x3d6557f9	0.0559921
239	0xbde44de8	-0.11147672
240	0x3da37319	0.079809375
241	0x3d53477f	0.051581856
242	0xbdc05cce	-0.09392701
243	0x3dd0d984	0.10197738
244	0x3d915c19	0.07097644
245	0xbdd76f7b	-0.1051931
246	0xbd649e01	-0.055814747
247	0xbd7beeff	-0.06150722
248	0xbd9d60a2	-0.07684447
249	0x3dd92512	0.10602774
250	0x3b12805d	0.0022354343
251	0x3d9380a9	0.07202274
252	0x3d9bb170	0.07602203
253	0xbe6841a8	-0.22681296
254	0xbb2c840e	-0.0026323828
255	0xbdc288d6	-0.09498756

fc.0.bias f4 [64]
0	0x3d8a1da9	0.067439385
1	0xbd23605d	-0.03988682
2	0xbda458ee	-0.080247745
3	0xbb18f37e	-0.0023338492
4	0xbcb2ab88	-0.021810308
5	0x3cda4a1e	0.02664667
6	0xbc05fb34	-0.008177567
7	0x3ca7e582	0.02049518
8	0xbd70c8fb	-0.05878542
9	0xbc8be5ed	-0.01707741
10	0xbdeacb83	-0.11464598
11	0xbddce054	-0.10784975
12	0xbdc6e766	-0.097121045
13	0x3afed374	0.001944168
14	0x3ceb547a	0.028726805
15	0xbcfd1e9e	-0.030898388
16	0xbc377cf8	-0.011199228
17	0x3d7fdfdf	0.06246936
18	0xbc179681	-0.0092521915
19	0xbd6f37f1	-0.05840296
20	0xbe3754de	-0.17903468
21	0x3d69be4b	0.057066243
22	0x3ca56670	0.020190448
23	0xbd11b688	-0.035574466
24	0xbe06a218	-0.13147771
25	0xbcf0d72d	-0.029399479
26	0xbd4e7dec	-0.050413057
27	0x3cbd1fbf	0.023086427
28	0xbd5fb3b7	-0.05461475
29	0xbdbad487	-0.091225676
30	0xbd968ff7	-0.07351678
31	0xbabbff68	-0.0014343085
32	0x3cf97dc6	0.030455481
33	0x3d63503e	0.055496447
34	0xbccb4636	-0.024813753
35	0xbd376d80	-0.04478216
36	0xbe1adb9d	-0.15122838
37	0xba834675	-0.0010015505
38	0xbd740449	-0.0595744
39	0x3d2835b8	0.041066855
40	0xbd9c1bbd	-0.07622478
41	0xbd6d6953	-0.057961773
42	0xbc84ebdd	-0.01622575
43	0xbcea916e	-0.0286338
44	0xbd89f9ce	-0.067370996
45	0xbdbce206	-0.09222798
46	0xbe455050	-0.19268918
47	0xbe022561	-0.12709571
48	0xbe164dc8	-0.14678109
49	0xbd940e78	-0.07229322
50	0xbd00ec8a	-0.03147558
51	0xbd6cae0e	-0.05778318
52	0xbdaa66cf	-0.083203904
53	0xbdd83df1	-0.105586894
54	0xbd411228	-0.047136456
55	0xbda4c6e5	-0.080457486
56	0xbce2bfde	-0.02767938
57	0xbdc0b767	-0.09409981
58	0xbd6c2660	-0.057653785
59	0xbdef4f31	-0.116850264
60	0xbe009edb	-0.12560599
61	0xbc88bde1	-0.016692104
62	0xbc860ae9	-0.016362624
63	0x3dbea519	0.09308834

fc.2.weight f4 [64]
0	0x3f3c91cc	0.7365997
1	0x3ef820c3	0.48462495
2	0x3ea4d4b0	0.32193518
3	0x3f148124	0.5800955
4	0x3e59ae04	0.21257788
5	0x3f39cf81	0.7258225
6	0x3ea16bcf	0.31527564
7	0x3f1d9b9e	0.6156558
8	0x3f29544d	0.6614426
9	0x3f22f4cf	0.636548
10	0x3f14090f	0.5782632
11	0x3ef14eb2	0.47130352
12	0x3f5e7337	0.86894554
13	0x3f12bda9	0.5732065
14	0x3e651850	0.22372556
15	0x3f5af360	0.8552761
16	0x3f3abfe9	0.7294908
17	0x3ee61c02	0.44943243
18	0x3eb379ab	0.35053763
19	0x3f0b74f1	0.54475313
20	0x3f584c05	0.84490997
21	0x3ea3cb73	0.31991157
22	0x3ea773b9	0.32705477
23	0x3f652f5f	0.8952541
24	0x3f231842	0.6370889
25	0x3f559aa6	0.834391
26	0x3f127c06	0.57220495
27	0x3eb0d270	0.3453555
28	0x3f259cff	0.6469268
29	0x3eed025f	0.46290872
30	0x3f55bded	0.8349293
31	0x3f07b51c	0.53010726
32	0x3f2925a2	0.6607305
33	0x3f0fe419	0.56207424
34	0x3eba03b4	0.3633095
35	0x3ed0279f	0.40655228
36	0x3f40f970	0.7538061
37	0x3e50948d	0.20369168
38	0x3f3d447c	0.73932624
39	0x3f801ec2	1.0009387
40	0x3f0a2aa9	0.53971344
41	0x3e9274c5	0.28604713
42	0x3f0ee3f0	0.55816555
43	0x3ede9e95	0.43480363
44	0x3ea25b8e	0.31710476
45	0x3f53270c	0.82481456
46	0x3e850c0f	0.25985762
47	0x3e6c356f	0.23067258
48	0x3ee1286d	0.43976155
49	0x3f238233	0.63870543
50	0x3eedfea2	0.46483332
51	0x3e8492bb	0.25893196
52	0x3e5c8aeb	0.21537368
53	0x3f255480	0.6458206
54	0x3f2ac9dc	0.6671426
55	0x3ebdfc55	0.37106577
56	0x3f51a9df	0.8189983
57	0x3f7bfd1f	0.9843311
58	0x3ee6c7e4	0.4507438
59	0x3f5369ae	0.8258313
60	0x3f27731a	0.65410006
61	0x3f61d3dd	0.882139
62	0x3f74db74	0.9564736
63	0x3f46a71a	0.77598727

fc.2.bias f4 [64]
0	0xbc9e81ba	-0.019348968
1	0xbdf29424	-0.11844662
2	0x3cb4a229	0.02204998
3	0xbddcafb6	-0.10775702
4	0xbd21aa62	-0.03946913
5	0xbdf553ae	-0.11978851
6	0xbd4678a6	-0.048454903
7	0xbdcb1cc4	-0.09917596
8	0xbde19f1f	-0.11016678
9	0xbe0cfac7	-0.13767539
10	0xbdb2449f	-0.08704495
11	0xbceeb490	-0.029138833
12	0xbdc781c5	-0.097415484
13	0xbe0a6778	-0.13516033
14	0x3ba4ef8b	0.0050334386
15	0xbe0271eb	-0.12738769
16	0xbd857af9	-0.06517596
17	0xbdeb366a	-0.11484988
18	0x3d8f7149	0.07004029
19	0xbe182a89	-0.14859976
20	0xbddd7de2	-0.10815026
21	0xbe0050fb	-0.12530892
22	0xbdf16c2c	-0.1178821
23	0xbdb58427	-0.08863097
24	0xbe38b27e	-0.1803684
25	0xbe3cef76	-0.18450722
26	0xbd9a6b7e	-0.07540034
27	0xbdaf233c	-0.08551642
28	0x3d04e637	0.032446112
29	0xbdd57ec2	-0.10424568
30	0xbdf17c73	-0.11791315
31	0xbd5dc3c8	-0.05414179
32	0xbdf41b6d	-0.119192936
33	0xbc0f82f6	-0.008759251
34	0xbd1aa621	-0.03775609
35	0xbdaa192d	-0.08305583
36	0xbd968960	-0.07350421
37	0xbd7f044b	-0.062259953
38	0xbde8d516	-0.11368768
39	0xbdacbb96	-0.08434217
40	0xbda584a5	-0.080819406
41	0xbd2aa07d	-0.04165696
42	0xbdcbdbb2	-0.09954013
43	0xbdab98d5	-0.0837876
44	0xbdaa8279	-0.08325667
45	0xbe9fee4c	-0.31236494
46	0xbd951754	-0.0727984
47	0xbe03f3fa	-0.12886038
48	0xbe0217a5	-0.12704332
49	0xbdcbfb7e	-0.09960078
50	0xbdcfd239	-0.10147519
51	0x3ca3cbae	0.019994583
52	0x3d97ca9b	0.07411691
53	0xbde951be	-0.11392544
54	0xbdabcb13	-0.08388343
55	0xbd370658	-0.044683784
56	0xbde3800d	-0.11108408
57	0xbd698be7	-0.057018187
58	0xbd69137f	-0.05690336
59	0xbdc3d638	-0.09562343
60	0xbde0a996	-0.10969846
61	0x3c415896	0.011800906
62	0x3dccfc29	0.10009033
63	0xbd9158ad	-0.07096992

fc.2.running_mean f4 [64]
0	0x3d14236d	0.036166597
1	0xbe22e9d8	-0.15909517
2	0xbe31e886	-0.17373857
3	0xbd2b00f4	-0.041748956
4	0xbe1dce97	-0.15410839
5	0xbe1bc858	-0.15213144
6	0xbcc5b800	-0.02413559
7	0xbd9ce242	-0.07660343
8	0xbe209020	-0.1567998
9	0xbe0d2361	-0.13783027
10	0xbe1163f6	-0.14198288
11	0x3def0d2e	0.11672436
12	0xbdc8ba8d	-0.09801207
13	0xbe3075e4	-0.17232472
14	0xbe4bcf0c	-0.19903201
15	0xbdfaf649	-0.122540064
16	0xbe0132df	-0.12617062
17	0xbdddfed4	-0.1083962
18	0xbd5d37d9	-0.05400834
19	0xbdbdc966	-0.09266929
20	0xbe217465	-0.15767057
21	0xbd9b6c8a	-0.075890616
22	0xbe1bb4bc	-0.15205663
23	0xbdbb13c1	-0.09134627
24	0xbe8984de	-0.26859182
25	0xbe7205e8	-0.23635066
26	0xbd493ed5	-0.049132187
27	0xbe2aacf8	-0.16667545
28	0xbdb1a80d	-0.08674631
29	0xbe2db73e	-0.16964433
30	0xbe260ce4	-0.16215855
31	0xbd737f6c	-0.05944769
32	0xbd7dca9b	-0.061960798
33	0x3e1ea0cc	0.15491027
34	0xbe0c5f9e	-0.1370835
35	0xbe2cf2aa	-0.16889444
36	0xbde26bbf	-0.11055707
37	0xbd714c53	-0.05891068
38	0xbe26cd07	-0.16289149
39	0xbdd0ea6b	-0.10200962
40	0xbe09f695	-0.1347297
41	0x3c5bbeeb	0.013412218
42	0xbe165b7d	-0.14683338
43	0xbdfb2797	-0.122634105
44	0xbdc21222	-0.09476115
45	0xbe880c63	-0.2657195
46	0xbe79ff9a	-0.2441391
47	0xbe77064b	-0.24123494
48	0xbe66c951	-0.22537734
49	0x3bd450b4	0.006479347
50	0xbe32fff4	-0.17480451
51	0xbd5816c3	-0.052756082
52	0xbc7a01e2	-0.015259238
53	0xbe09307e	-0.13397405
54	0xbca45dd4	-0.020064272
55	0x3c75c452	0.01500042
56	0xbe1b63f7	-0.15174852
57	0xbe333acb	-0.17502896
58	0xbdbb1233	-0.091343306
59	0xbc1e4dc3	-0.0096620945
60	0xbd9c2f17	-0.07626169
61	0xbe03877b	-0.1284465
62	0xbdad2fdd	-0.08456395
63	0xbd4b910c	-0.049698874

fc.2.running_var f4 [64]
0	0x3f23d9f4	0.64004445
1	0x3dceb993	0.10093989
2	0x3e2d6ce9	0.16936077
3	0x3db9b831	0.09068335
4	0x3e2ad7d0	0.16683888
5	0x3df121c3	0.11774018
6	0x3d86c4aa	0.065804794
7	0x3dcc1458	0.09964818
8	0x3e07569e	0.13216636
9	0x3d4a8aab	0.04944865
10	0x3ded6107	0.11590772
11	0x3e2137b5	0.15743907
12	0x3ddd5f1e	0.10809158
13	0x3def929a	0.11697884
14	0x3e0d0308	0.13770688
15	0x3df9f197	0.12204283
16	0x3dfaa3e8	0.12238294
17	0x3dd03fb2	0.10168399
18	0x3e95f91c	0.29291618
19	0x3d2b7ffd	0.041870106
20	0x3e4629cc	0.19351882
21	0x3d504454	0.050846413
22	0x3e0a3ba9	0.13499321
23	0x3e0949b1	0.13407017
24	0x3e1e2e94	0.15447456
25	0x3e0445dc	0.12917274
26	0x3edc4015	0.4301764
27	0x3dc9e62f	0.09858357
28	0x3e07c163	0.13257365
29	0x3d8f75a4	0.0700486
30	0x3df02c70	0.11727226
31	0x3d907777	0.07054036
32	0x3db01aee	0.085988864
33	0x3f13014b	0.5742385
34	0x3e00e17c	0.12586015
35	0x3db42351	0.087957986
36	0x3e2522da	0.16126576
37	0x3d489452	0.048969574
38	0x3dfbf17b	0.12301918
39	0x3d8d7f0e	0.069089994
40	0x3de4b1c1	0.11166716
41	0x3e49eb90	0.19718766
42	0x3d8e0348	0.069342196
43	0x3d7e918b	0.06215052
44	0x3d97c0d4	0.07409826
45	0x3dfc4c2b	0.123192154
46	0x3e11e756	0.14248404
47	0x3e14e787	0.14541446
48	0x3e1d16ee	0.15340778
49	0x3dfef5be	0.12449215
50	0x3dac4e86	0.08413415
51	0x3d650138	0.055909365
52	0x3da2c545	0.079477824
53	0x3dd165d7	0.102245025
54	0x3df8e5da	0.12153216
55	0x3dc64824	0.096817285
56	0x3dcdac86	0.10042672
57	0x3e15f9ce	0.14646074
58	0x3d867095	0.06564442
59	0x3d977066	0.07394485
60	0x3dbfcb72	0.09364976
61	0x3e82a247	0.25514433
62	0x3d93ebf8	0.07222742
63	0x3d362332	0.04446716

fc.4.weight f4 [32, 64]
0	0x3e04240a	0.12904373
1	0xbcdfb489	-0.027307766
2	0xbe12a5e2	-0.14321092
3	0x3e258ce5	0.16167028
4	0x3e812c92	0.25229317
5	0x3c810b1f	0.015752373
6	0x3d6a40c5	0.057190675
7	0xbd38a11c	-0.04507552
8	0xbd178ee1	-0.037001494
9	0x3d571632	0.0525114
10	0x3d5517b6	0.052024566
11	0xbd561d5c	-0.052274093
12	0xbe566373	-0.20936374
13	0xbdc3e1f7	-0.09564584
14	0xbd883da3	-0.06652381
15	0x3e09ba7b	0.13450043
16	0xbdcc2c4a	-0.09969385
17	0x3dab4849	0.08363397
18	0xbd10034e	-0.0351594
19	0x3cc77147	0.024346007
20	0xbd76b1c7	-0.060228135
21	0x3d81223d	0.063053586
22	0x3df82e01	0.121181495
23	0x3dc572e0	0.09641051
24	0xbcde23c4	-0.027116664
25	0xbde09531	-0.10965956
26	0xbc9c6611	-0.019091638
27	0x3d48ba0e	0.04900556
28	0x3dcde82e	0.100540504
29	0xbc64297b	-0.013925905
30	0x3b09ac2c	0.0021007163
31	0x3d136262	0.035982497
32	0x3bb01ee8	0.005374778
33	0x3d71acf5	0.059002835
34	0xbd745492	-0.059650965
35	0x3e04b2b6	0.12958798
36	0x3bac03fa	0.0052494975
37	0xbd5b31b2	-0.05351419
38	0x3cd5866b	0.026065072
39	0x3aa70543	0.0012742657
40	0xbc6e1840	-0.014532149
41	0x3baef80f	0.0053396295
42	0xbc83752a	-0.01604708
43	0xbd88df74	-0.06683245
44	0x3d46e024	0.0485536
45	0x3d215ffd	0.039398182
46	0xbcfa4294	-0.030549325
47	0xbe8b34a3	-0.27188596
48	0x3d079911	0.03310496
49	0xbd0fbebf	-0.03509402
50	0x3bfc16a2	0.0076931277
51	0xbe038d30	-0.12846828
52	0x3bc7f91d	0.0061026947
53	0xbdd9865e	-0.10621332
54	0xbd437877	-0.047722306
55	0xbc5db9a2	-0.013533028
56	0x3b2becc1	0.0026233646
57	0xbe57d0b8	-0.21075714
58	0xbd3e745f	-0.0464977
59	0xbb74fc2e	-0.0037381756
60	0xbd84ac1e	-0.06478141
61	0x3d488000	0.048950195
62	0x3dc3ad9c	0.09554598
63	0x3dbe87ee	0.0930327
64	0xbd8efb8b	-0.06981572
65	0x3dd9c4d8	0.10633248
66	0xbd23a176	-0.039948903
67	0xbdf11f07	-0.11773496
68	0xbe002663	-0.12514643
69	0x3c89fa2b	0.016842922
70	0xbd5e4f1a	-0.054274656
71	0xbda17973	-0.07884493
72	0xbd70fe1c	-0.058836088
73	0x3dcaf197	0.09909361
74	0xbcba1afd	-0.022717947
75	0xbe0ecb5a	-0.1394476
76	0x3c5a8ca0	0.013339192
77	0x3bc0f409	0.0058884663
78	0xbc0c88ef	-0.008577569
79	0xbe1b99c4	-0.15195376
80	0xbd0d441d	-0.034488786
81	0xbdb8e33f	-0.09027719
82	0xbd92f3b9	-0.07175393
83	0x3e137acc	0.14402312
84	0x3cbcb874	0.023037173
85	0x3ec8b3f9	0.39199808
86	0xbe96a172	-0.29420048
87	0xbd886463	-0.06659772
88	0xbb24af39	-0.0025128855
89	0x3d845a9c	0.06462595
90	0x3d97c0c5	0.07409815
91	0x3e52be3b	0.2058038
92	0xbdf36583	-0.11884596
93	0x3dfa98bb	0.12236162
94	0x3da1832f	0.078863494
95	0xbd2669ec	-0.04062836
96	0xbd1b15ba	-0.037862517
97	0xbcc29a1e	-0.02375513
98	0x3deb3aca	0.114858225
99	0xbd7efd6d	-0.062253404
100	0xbb87f9d6	-0.004149656
101	0xbe0a05da	-0.13478795
102	0x3bd3f1f1	0.0064680506
103	0xbcd94a43	-0.026524669
104	0x3c927540	0.017878175
105	0x3d0f6c98	0.035015672
106	0x3ded4a64	0.115864545
107	0x3d1e3553	0.038625073
108	0xbe0cb9a9	-0.13742699
109	0x3dcac027	0.098999314
110	0x3d95417c	0.07287881
111	0x3e4ee4f0	0.2020452
112	0x3bb0ea53	0.0053990274
113	0xbdef8cb7	-0.11696761
114	0x3d5810ef	0.052750524
115	0xbdba239a	-0.09088822
116	0xbdd7009f	-0.10498165
117	0xbc6dcf16	-0.014514705
118	0x3d9665c0	0.07343626
119	0x3cd6711d	0.026176983
120	0xbce6e1a9	-0.028183775
121	0xbd8e9743	-0.06962445
122	0xbdd1d7e7	-0.10246258
123	0x3cd79adf	0.026318965
124	0xbd7b8350	-0.061404526
125	0xbd09ec88	-0.03367284
126	0x3c2216d8	0.009893142
127	0x3cd3eafe	0.025868889
128	0xbd25487d	-0.040352333
129	0xbdff20fb	-0.124574624
130	0xbdcd6bb3	-0.100303076
131	0xbd4b575a	-0.04964385
132	0x3d902efe	0.07040213
133	0xbe363126	-0.17792186
134	0x3d074d51	0.03303272
135	0x3df29c86	0.11846261
136	0xbd1f273e	-0.038855784
137	0x3c6b3669	0.014356234
138	0x3d63ddd5	0.055631477
139	0x3e1c29ba	0.15250292
140	0x3d310939	0.043221686
141	0xbb771479	-0.0037701412
142	0xbe821093	-0.2540327
143	0xbdfacd58	-0.122461975
144	0xbd3e7a59	-0.0465034
145	0x3e0b25f0	0.13588691
146	0xb93765e2	-0.00017490194
147	0xbdaba4f1	-0.083810695
148	0x3cfc2b81	0.030782463
149	0xbdfa6980	-0.12227154
150	0xbda213a6	-0.07913904
151	0xbdc25b5d	-0.094900824
152	0xbceef4c9	-0.029169457
153	0xbe102562	-0.1407676
154	0x3cb94c16	0.022619288
155	0x3ca69242	0.020333413
156	0x3d72b1c2	0.059251554
157	0xbe12d589	-0.1433927
158	0xbc97af95	-0.018516341
159	0xbe019d0e	-0.12657568
160	0x3da043cb	0.078254305
161	0xbc89bfec	-0.016815148
162	0x3c34d6dd	0.0110375555
163	0xbdad300c	-0.0845643
164	0xbd97e0fb	-0.074159585
165	0x3e70ca30	0.23514628
166	0xbde68692	-0.11256136
167	0x3dcd7dcd	0.1003376
168	0xbc02878a	-0.007966885
169	0x3d8d93c7	0.06912952
170	0xbc9abad0	-0.018887907
171	0xbd35cfc6	-0.0443876
172	0xbbf37798	-0.007430028
173	0xbd84a05e	-0.064759
174	0xbdb2bc87	-0.08727365
175	0x3d2150af	0.039383586
176	0xbda1d48e	-0.0790187
177	0xbde4db90	-0.11174691
178	0xbd462f78	-0.048385113
179	0x3d9d837a	0.07691093
180	0x3e4f01a1	0.20215465
181	0xbe81c735	-0.25347295
182	0xbd6729ab	-0.056436222
183	0xbdf1f286	-0.11813836
184	0x3ce7ed0d	0.028311277
185	0xbdfad338	-0.12247318
186	0x3d89b3e0	0.067237616
187	0x3d7f229e	0.062288873
188	0x3bb8f615	0.0056445696
189	0xbd0f3315	-0.034960825
190	0xbe2b6d5b	-0.16740935
191	0xbd938dd3	-0.07204785
192	0xbe47a9aa	-0.19498315
193	0xbd017ee5	-0.031615157
194	0x3c4c0f76	0.012454858
195	0xbcfbb215	-0.030724565
196	0x3d15f991	0.03661496
197	0xbd6e6cf8	-0.05820939
198	0x3d6c23d0	0.05765134
199	0xbbb940f7	-0.0056534964
200	0xbdcee1da	-0.101016715
201	0x3ddb8fc8	0.107207835
202	0xbde3db9b	-0.11125871
203	0x3db3062a	0.0874141
204	0x39574b34	0.00020532013
205	0xbcb1d584	-0.021708257
206	0xbe2bfffd	-0.1679687
207	0x3d966f54	0.07345453
208	0x3e013c88	0.12620747
209	0xbd2c1086	-0.042007945
210	0xbda24c42	-0.07924701
211	0xbb36e1e4	-0.0027905637
212	0xbcd9a88c	-0.026569627
213	0x3d2dbb8b	0.042415183
214	0xbe00c06a	-0.125734
215	0x3e0555c1	0.13020994
216	0xbc90a472	-0.017656539
217	0xbd1ec8f9	-0.03876588
218	0x3cf317b5	0.02967439
219	0x3dd36c4b	0.103233896
220	0xbe237291	-0.15961672
221	0xbe38c2d5	-0.18043073
222	0xbce759cf	-0.028241066
223	0xbd2ed5e9	-0.04268447
224	0xbe04d2cc	-0.12971038
225	0x3da27b38	0.07933658
226	0xbd750cc3	-0.059826624
227	0xbd602d30	-0.054730594
228	0xbe4620b0	-0.19348407
229	0xbc458d8a	-0.012057671
230	0xbd8c678b	-0.06855687
231	0x3bdf6704	0.0068177003
232	0xbe20677f	-0.1566448
233	0x3dd3ff66	0.10351448
234	0x3d6c8e56	0.05775293
235	0xbe2187b3	-0.15774421
236	0x3dccae0e	0.09994136
237	0x3c923466	0.017847251
238	0x3c5870a4	0.013210449
239	0xbddf4759	-0.1090228
240	0xbe496422	-0.19667104
241	0x3d27854c	0.040898606
242	0xbbef0af5	-0.0072950074
243	0xbc09f617	-0.008420489
244	0x3cc9e440	0.02464497
245	0xbd89252a	-0.066965416
246	0x3de7eebf	0.11324834
247	0xbcdc0209	-0.02685644
248	0xbe268ab4	-0.16263849
249	0x3e304e58	0.17217386
250	0xbd9169f8	-0.0710029
251	0x3d83ed68	0.06441766
252	0x3d060e77	0.03272864
253	0x3d59f7e4	0.053214923
254	0x3da90543	0.08252957
255	0xbdd054fb	-0.10172459

fc.4.bias f4 [32]
0	0x3720a16a	9.574325e-06
1	0xb787d2c4	-1.61914e-05
2	0x375c73ee	1.3140014e-05
3	0x3751e451	1.251053e-05
4	0xb818fa3a	-3.6472666e-05
5	0x380b2609	3.3175605e-05
6	0xb7d8e485	-2.585562e-05
7	0xb796d0e9	-1.7978675e-05
8	0xb8b23f64	-8.499509e-05
9	0xb78e33e4	-1.6951883e-05
10	0xb841d88d	-4.6216464e-05
11	0xb8a50ae6	-7.869843e-05
12	0x378b5a1c	1.6612052e-05
13	0xb7f84c52	-2.9599443e-05
14	0x38010501	3.0760657e-05
15	0x36e9c433	6.9667817e-06
16	0x381225d4	3.4844343e-05
17	0x3519788b	5.7172355e-07
18	0xb7248cfa	-9.807985e-06
19	0x3735452b	1.0804545e-05
20	0xb88ba8cd	-6.659478e-05
21	0x37895b02	1.6374051e-05
22	0x37b03383	2.1004822e-05
23	0x3747e3a9	1.1914331e-05
24	0xb8830a7e	-6.248521e-05
25	0x362918ec	2.5197469e-06
26	0xb60190f0	-1.9306863e-06
27	0xb7149f9e	-8.858651e-06
28	0xb8082533	-3.245957e-05
29	0x3682e88e	3.901375e-06
30	0xb846e9c0	-4.7424575e-05
31	0x370e0ee4	8.467327e-06

fc.5.weight f4 [32]
0	0x3f7e45f6	0.993255
1	0x3ef039a3	0.46918973
2	0x3f5febfe	0.8746947
3	0x3f976760	1.1828423
4	0x3f0df5b6	0.5545305
5	0x3ef59cbd	0.47971144
6	0x3f819a70	1.0125256
7	0x3f901e1c	1.1259189
8	0x3f488d28	0.7834039
9	0x3f7c1d74	0.9848244
10	0x3f666663	0.8999998
11	0x3f8090b5	1.0044161
12	0x3f72798e	0.9471673
13	0x3f7f25d4	0.99667096
14	0x3f7202bb	0.94535416
15	0x3f35ddf7	0.71041816
16	0x3f3b7eca	0.7324034
17	0x3f0bbcf4	0.54585195
18	0x3eecd8ee	0.46259254
19	0x3ed3fd9c	0.41404426
20	0x3f634779	0.88780934
21	0x3f24927f	0.64286035
22	0x3f37d66d	0.7181156
23	0x3f7b04f4	0.9805443
24	0x3f92c32c	1.1465812
25	0x3f1a94bb	0.60383195
26	0x3fa90c9a	1.3206971
27	0x3f4dab4c	0.80339503
28	0x3f949fbb	1.1611246
29	0x3f5dbd69	0.8661714
30	0x3f96da94	1.1785455
31	0x3f7235a7	0.94613117

fc.5.bias f4 [32]
0	0x3e3cff04	0.18456656
1	0xbbc6b004	-0.006063463
2	0x3ed46a6b	0.4148744
3	0x3e3da9fe	0.18521878
4	0x3e9e8f67	0.30968782
5	0xbd1d552f	-0.038411316
6	0xbd1d68c1	-0.03842998
7	0x3e54b6cb	0.20772855
8	0x3e9d2c99	0.30698088
9	0x3d4815ce	0.04884892
10	0x3e872eb6	0.26402825
11	0x3e848402	0.25881964
12	0x3e99b02f	0.3001723
13	0x3ea3697a	0.3191641
14	0x3e5e7eec	0.21728104
15	0xba85efff	-0.0010218619
16	0x3e8dc9f4	0.2769314
17	0x3e883ab7	0.26607296
18	0x3e986016	0.29760808
19	0x3e777e0c	0.24169177
20	0xbb156c43	-0.0022800125
21	0x3e31b546	0.17354307
22	0x3ebebfec	0.372558
23	0x3e5d2a6a	0.21598211
24	0x3e4841b9	0.19556321
25	0xbb15deca	-0.0022868388
26	0x3e95eb44	0.29281056
27	0x3e8be35f	0.27321908
28	0xbb8daa24	-0.004323261
29	0xbd5484cf	-0.05188447
30	0x3e8f26f2	0.279594
31	0x3e5062cf	0.20350192

fc.5.running_mean f4 [32]
0	0xbd23c237	-0.03998014
1	0xbda7e4fc	-0.08197972
2	0xbeaeed81	-0.34165576
3	0xbe186230	-0.14881206
4	0xbe260f0e	-0.1621668
5	0xbdae69b5	-0.08516256
6	0xbe9c4dce	-0.3052811
7	0xbdef61bb	-0.116885625
8	0x3d9a449d	0.07532618
9	0xbd8ea3bd	-0.06964824
10	0xbe453b43	-0.19260888
11	0xbe59f860	-0.21286154
12	0xbe1b554e	-0.1516926
13	0x3dde5413	0.1085588
14	0xbe58c7a2	-0.21169904
15	0xbdd355e0	-0.10319114
16	0x3c514c03	0.01277447
17	0x3dfc8a02	0.123310104
18	0xbd857882	-0.06517126
19	0xbe27cd84	-0.16386992
20	0xbdb37f74	-0.08764544
21	0xbe1035aa	-0.14082971
22	0xbdd102f9	-0.10205645
23	0xbe0b41fa	-0.13599387
24	0xbe85304a	-0.26013404
25	0xbe9323de	-0.28738302
26	0xbe80859a	-0.2510193
27	0xbe7335b9	-0.23750962
28	0xbd3dc53f	-0.046330687
29	0xbcba050f	-0.02270749
30	0xbe6f81f3	-0.23389415
31	0xbe16a52c	-0.14711446

fc.5.running_var f4 [32]
0	0x3d800abd	0.06252048
1	0x3d5e767d	0.054312218
2	0x3dc5fd71	0.09667481
3	0x3d6ec064	0.058288947
4	0x3d909b29	0.070608445
5	0x3d7c3fc1	0.061584238
6	0x3d3eba66	0.046564482
7	0x3d50adf6	0.050947152
8	0x3d55182d	0.05202501
9	0x3dcd0457	0.100105934
10	0x3d8cfd80	0.06884289
11	0x3d85ea02	0.06538774
12	0x3da6423f	0.08118104
13	0x3d845df4	0.06463233
14	0x3da3e1ba	0.08002038
15	0x3d622dfc	0.055219635
16	0x3d66390f	0.05620676
17	0x3d3c1833	0.045921516
18	0x3dd6a24b	0.10480174
19	0x3db9ca25	0.09071759
20	0x3d939364	0.07205847
21	0x3d56cc68	0.05244103
22	0x3d81e003	0.06341555
23	0x3dc02dec	0.09383759
24	0x3d8d77ed	0.0690764
25	0x3dbacd64	0.091212064
26	0x3d875a5a	0.0660903
27	0x3dac0722	0.08399798
28	0x3da56d32	0.08077468
29	0x3d61151d	0.054951776
30	0x3dacfc07	0.08446508
31	0x3d8f80d2	0.070069924

fc.7.weight f4 [2, 32]
0	0x3eb73dd4	0.3578936
1	0xbec8abdd	-0.3919362
2	0x3ee665df	0.44999596
3	0x3e9a28c0	0.30109215
4	0x3ec1064a	0.3770011
5	0xbe0b7ddd	-0.13622232
6	0xbe4a817e	-0.1977596
7	0x3e9286df	0.28618523
8	0x3e8ea7bf	0.27862355
9	0xbe6499a4	-0.22324234
10	0x3ec2b2ca	0.3802703
11	0x3eaed447	0.3414633
12	0x3e7425cb	0.23842542
13	0x3e6c29ed	0.23062868
14	0x3e88fb7f	0.26754376
15	0xbe9d3e42	-0.3071156
16	0x3eb73bde	0.35787863
17	0x3eb27dbd	0.34861556
18	0x3f00a575	0.5025247
19	0x3eab29df	0.33430383
20	0xbeea10c7	-0.45715925
21	0x3ea568da	0.32306558
22	0x3e27105f	0.16314839
23	0x3e6490a3	0.223208
24	0x3e9ea3eb	0.30984434
25	0xbeaf2ade	-0.34212393
26	0x3e718cba	0.23588839
27	0x3e966f9d	0.2938203
28	0xbe22a2fe	-0.15882489
29	0xbea85612	-0.32878166
30	0x3eb57da0	0.35447407
31	0x3eb11ac0	0.3459072
32	0xbeba2d64	-0.36362755
33	0x3ef887fb	0.48541245
34	0xbed46961	-0.41486648
35	0xbe859b4d	-0.26095048
36	0xbed6587e	-0.4186439
37	0x3e69ae03	0.22820286
38	0x3e9c7c91	0.30563787
39	0xbebad9e6	-0.36494368
40	0xbee9b502	-0.4564591
41	0x3ebafe7b	0.36522278
42	0xbe0de965	-0.13858564
43	0xbde8b625	-0.11362866
44	0xbe7680b0	-0.24072528
45	0xbe97c8cf	-0.29645392
46	0xbeae9e8b	-0.34105334
47	0x3e9a2b19	0.30111006
48	0xbe86eac8	-0.26351
49	0xbeaafa5f	-0.33394143
50	0xbedc6731	-0.4304748
51	0xbee267d0	-0.44219828
52	0x3ee8b046	0.45446986
53	0xbeb8c9cb	-0.36091456
54	0xbedd73cb	-0.43252406
55	0xbe7d1620	-0.24715471
56	0xbe92f5ed	-0.2870325
57	0x3eae8e3e	0.34092897
58	0xbe50d501	-0.20393755
59	0xbeb243fb	-0.3481749
60	0x3ec445fd	0.38334647
61	0x3e550a71	0.20804764
62	0xbe42570c	-0.18978518
63	0xbe3e8683	-0.18606

fc.7.bias f4 [2]
0	0x3b231e49	0.0024889878
1	0xbe336de5	-0.1752239
