hw2/ensemble/nn-epoch54ensemble-1.pt (torch_old, 39843 bytes, 14 tensors)

fc.0.weight f4 [64, 106]
0	0x3dc56314	0.09638038
1	0x3c7d2248	0.015450068
2	0x3d846977	0.06465428
3	0xbe5b1450	-0.21394467
4	0x3cc51759	0.024058985
5	0x3b657283	0.0035010881
6	0x3cf18795	0.029483596
7	0xbbd131bf	-0.006384104
8	0xbb924488	-0.004463736
9	0xbc71229b	-0.014717723
10	0x3d51f8c2	0.051262625
11	0xbd7ddaa8	-0.061976105
12	0xbd3dfb33	-0.04638214
13	0xbdd383b1	-0.103278525
14	0xbe2dc031	-0.16967846
15	0xbe441921	-0.19150211
16	0xbe958b1b	-0.29207692
17	0xbd0ea52b	-0.034825485
18	0xbe5e69e8	-0.21720088
19	0xbe21691d	-0.15762754
20	0xbda8ae66	-0.08236389
21	0xbd6e6f9b	-0.058211904
22	0x3cf41795	0.029796401
23	0x3d9dc712	0.07703985
24	0x3e6a0e61	0.22857048
25	0xbd2a74a7	-0.041615155
26	0x3dcae12c	0.099062294
27	0xbda9773e	-0.08274697
28	0x3e39468b	0.18093316
29	0xbd216583	-0.03940345
30	0xbe018f63	-0.12652354
31	0x3dc32e31	0.09530295
32	0xbc202821	-0.0097751925
33	0xbd7d1675	-0.061788995
34	0xbdd5f867	-0.104477696
35	0xbe19b13e	-0.15009019
36	0x3c3195df	0.010838955
37	0x3daf4a46	0.085590884
38	0xbb3df30d	-0.002898398
39	0x3d2d4236	0.04229947
40	0x3deb3d12	0.114862576
41	0xbe24d0be	-0.16095254
42	0xbe04ca1e	-0.12967727
43	0xbd04e7f3	-0.032447767
44	0xbd969f04	-0.073545486
45	0xbd857042	-0.06515552
46	0x3d44d801	0.04805756
47	0xbbf6a999	-0.007527542
48	0x3d5d633d	0.05404972
49	0x3de262ad	0.11053977
50	0xbe1367de	-0.14395091
51	0xbc49c217	-0.012314341
52	0xbd919029	-0.071075745
53	0xbddcbd2f	-0.107782714
54	0xbdbfe922	-0.093706384
55	0xbd73995c	-0.059472427
56	0x3d962cde	0.073327765
57	0xbe012a52	-0.126138
58	0xbc23df5e	-0.010001985
59	0x3c55a1d6	0.013039073
60	0x3d8a8379	0.06763358
61	0xbc01a45b	-0.007912721
62	0xbd8a7461	-0.06760479
63	0x3e0fad51	0.14030959
64	0x3d592a7b	0.05301903
65	0xbe09f327	-0.13471662
66	0x3d88be85	0.06676964
67	0xbdefcdc1	-0.11709166
68	0xbdb31abf	-0.08745336
69	0x3d00c1ff	0.03143501
70	0x3e456b5f	0.1927924
71	0x3d816449	0.06317956
72	0x3e3e585f	0.18588398
73	0xbe0e6aac	-0.1390788
74	0xbdbd5be5	-0.09246043
75	0x3d63fc86	0.055660747
76	0x3b744637	0.0037273297
77	0x3c2a6a53	0.010401326
78	0x3daf2efc	0.085538834
79	0x3da4fb52	0.08055748
80	0x3c666580	0.014062285
81	0x3d839af8	0.06426042
82	0x3e3f22e7	0.18665658
83	0x3e34b73f	0.17648028
84	0xbe3eaa3a	-0.18619624
85	0xbd5ff064	-0.054672614
86	0xbdb0077a	-0.08595176
87	0xbd404ae2	-0.046946414
88	0xbd23e062	-0.04000891
89	0xbcaf080e	-0.021366145
90	0x3c9f9d9c	0.019484334
91	0x3dba2d2e	0.090906486
92	0xbd2bc37f	-0.041934486
93	0x3e03d47e	0.12874028
94	0xbdd0442f	-0.10169255
95	0x3d48820c	0.048952147
96	0xbdd0f21b	-0.10202428
97	0x3d8c4f54	0.06851068
98	0xbda9199a	-0.08256836
99	0xbd959b10	-0.073049664
100	0x3d17257e	0.03690099
101	0xbe1a0092	-0.1503928
102	0xbdc94ebb	-0.0982947
103	0xbdb60431	-0.08887518
104	0x3c30ba1a	0.010786558
105	0x3c1f0429	0.009705582
106	0x3dba73e8	0.091041386
107	0x3b6a79c7	0.0035778151
108	0x3cb6f89b	0.022335341
109	0xbe7c843b	-0.24659817
110	0xbcaf5074	-0.021400668
111	0x3d1c2271	0.038118783
112	0x3df780ca	0.120851114
113	0x3cb73e2d	0.022368515
114	0xbcc1a73b	-0.023639312
115	0x3d5e196f	0.054223474
116	0x3c6ff6e5	0.014646267
117	0xbd52a93a	-0.05143092
118	0xbdc2f497	-0.09519308
119	0xbd9fb04d	-0.077972986
120	0xbdf3a635	-0.11896936
121	0xbe300fa6	-0.1719347
122	0x3d2c617c	0.042085156
123	0xbe84dbe2	-0.25949007
124	0xbe4531fc	-0.19257349
125	0xbe5ae1f7	-0.21375261
126	0xbda8a1f8	-0.08234018
127	0xbd8266cc	-0.06367263
128	0xbc8e72ff	-0.017388819
129	0x3dae2e39	0.0850491
130	0x3ce23960	0.02761525
131	0x3cf7fa83	0.03027082
132	0xbdd79363	-0.10526159
133	0xbdf6dc36	-0.12053721
134	0x3d43255d	0.047643054
135	0xbc81ada4	-0.015829869
136	0xbab6e3fa	-0.001395344
137	0x3a61b7db	0.00086104654
138	0x3d7e8077	0.062134232
139	0xbe0ed0e1	-0.13946868
140	0xbc61ebf3	-0.013789165
141	0x3cc130d4	0.023582853
142	0x3cee4d16	0.029089492
143	0xbc835354	-0.016030945
144	0xbd47500c	-0.048660323
145	0xbcb5e499	-0.02220373
146	0x3bff1379	0.0077843037
147	0xbe740226	-0.23828945
148	0x3d671377	0.056415047
149	0xbd899fba	-0.067199185
150	0xbe1e370d	-0.15450688
151	0x3ab9b8ee	0.0014169493
152	0x3e0c053d	0.13673873
153	0x3d0f32c1	0.034960512
154	0x3c984d1a	0.018591452
155	0x3dac6917	0.08418482
156	0x3d33976c	0.04384558
157	0x3cb84880	0.022495508
158	0xbd176cec	-0.03696911
159	0xbe5d9e12	-0.2164233
160	0x3c062e77	0.008189789
161	0x3cba0610	0.022707969
162	0x3e124f6f	0.14288114
163	0xbe179d67	-0.14806138
164	0xbb00fbc1	-0.0019681307
165	0xbcbadba1	-0.022809805
166	0x3e114ebe	0.14190194
167	0xbd2d6890	-0.042336047
168	0x3e1cbe04	0.1530686
169	0x3d895eea	0.067075565
170	0xbdf49699	-0.11942787
171	0x3b95e6a7	0.004574615
172	0x3e0a5fbc	0.13513082
173	0xbde71233	-0.11282768
174	0xbd3c99b0	-0.046045005
175	0x3d2b81db	0.041871887
176	0x3e3f63a4	0.18690354
177	0xbd82cd6c	-0.06386837
178	0xbca47192	-0.020073686
179	0x3d1ab1d8	0.03776726
180	0xbd474afe	-0.048655502
181	0xbdebb73e	-0.1150956
182	0x3b529890	0.0032134391
183	0xbac8bcd2	-0.0015315062
184	0x3d6f0e53	0.05836327
185	0x3d2e56fc	0.042563424
186	0x3da23654	0.079205185
187	0x3d160119	0.03662214
188	0xbca990e8	-0.02069898
189	0x3dc6b173	0.097018145
190	0xbd2e1156	-0.042497
191	0x3d30b0cf	0.043137368
192	0xbdb60cfd	-0.08889196
193	0x3c4c07dd	0.012453047
194	0x3dd591ec	0.10428223
195	0x3b5a9a28	0.0033356044
196	0xbc84224f	-0.01612964
197	0xbd3864dd	-0.045018066
198	0x3c9775bd	0.01848876
199	0x3e1a2c00	0.15055847
200	0x3dc6bffb	0.09704586
201	0xbc1c6821	-0.009546311
202	0xbd5a50b1	-0.05329961
203	0xbe5c227f	-0.21497534
204	0xbe264a12	-0.16239193
205	0xbdbade5c	-0.09124443
206	0x3d9fcaa8	0.078023255
207	0xbe1955ab	-0.14974086
208	0x3ddc2737	0.10749667
209	0xbdad9d62	-0.08477284
210	0x3c0a3851	0.008436278
211	0xbdb14e43	-0.08657505
212	0xbd831dab	-0.06402143
213	0xbd802750	-0.06257498
214	0xbcca7169	-0.024712281
215	0xbe0fb4ab	-0.14033763
216	0x3c447ea2	0.011993082
217	0xbd1472a8	-0.036242157
218	0x3c78181b	0.015142466
219	0xbe39f2d3	-0.18159036
220	0x3ce11bb4	0.02747903
221	0x3c888797	0.016666217
222	0x3daf3b76	0.08556263
223	0xbca89499	-0.02057867
224	0x3de1443a	0.10999341
225	0x3d3ab7eb	0.045585554
226	0xbdf1bd82	-0.11803724
227	0x3c0aed2b	0.008479397
228	0xbd8866a7	-0.066602044
229	0x3e434d0a	0.19072357
230	0x3da58e18	0.08083743
231	0x3d5f47f6	0.054511987
232	0x3ea10073	0.31445655
233	0x3dd57bc6	0.104239985
234	0x3be075fa	0.0068500014
235	0x3c4d4cae	0.012530489
236	0xbd99d710	-0.07511723
237	0x3d4ac53c	0.049504504
238	0x3db2deda	0.08733912
239	0x3e17d611	0.14827754
240	0xbdd1c03c	-0.10241744
241	0x3db2e5aa	0.08735211
242	0x3b4463c3	0.002996669
243	0xbe262671	-0.16225602
244	0xbd95118d	-0.07278738
245	0x3e04b869	0.12960972
246	0xbc3051cf	-0.010761692
247	0x3d5c6826	0.05381026
248	0x3d6ed0e0	0.058304667
249	0xbdb07ce6	-0.086175725
250	0xbb2a7760	-0.0026011094
251	0x3d661de0	0.056180835
252	0xbd46f738	-0.04857561
253	0xbe3ad88b	-0.18246667
254	0x3e31a438	0.173478
255	0x3dda76d1	0.10667194

fc.0.bias f4 [64]
0	0xbda3f6a4	-0.08006027
1	0xbdc81891	-0.09770311
2	0xbc6f0f11	-0.014590994
3	0x3ce7f690	0.028315812
4	0xbd4211d3	-0.04738028
5	0xbd64d93c	-0.055871233
6	0xbda4bf1b	-0.08044263
7	0x3d5eec68	0.054424673
8	0xbd3487c4	-0.04407479
9	0x3d3e30be	0.046433203
10	0xbde8d334	-0.11368409
11	0xbd8fa418	-0.0701372
12	0xbe1e976a	-0.15487447
13	0x3d629b98	0.055324167
14	0xbd77282c	-0.060341045
15	0xbd90cb64	-0.07070044
16	0xbd59d567	-0.053182032
17	0xbb4ef83a	-0.003158106
18	0x3b90a132	0.004413747
19	0x3e05afef	0.13055395
20	0x3d96a7ef	0.073562495
21	0x3d0d39ad	0.034478832
22	0x3cd6f7b1	0.026241155
23	0xbcc19eab	-0.02363523
24	0xbd1b0347	-0.037844922
25	0x3cb01250	0.021493107
26	0xbbabf720	-0.0052479655
27	0x3ca65bcf	0.02030745
28	0x3c858d21	0.016302647
29	0x3deae77c	0.114699334
30	0x3e2c5dc0	0.16832638
31	0xbd903453	-0.0704123
32	0x3d8cdbbf	0.06877851
33	0xbd358074	-0.044311956
34	0xbc796aae	-0.015223188
35	0xbddaadfa	-0.10677715
36	0xbd98507f	-0.074372284
37	0x3ca1c226	0.019745898
38	0xbca62aa8	-0.020284012
39	0xbd585d05	-0.052823085
40	0xbc223faa	-0.009902874
41	0xbd3af837	-0.045646872
42	0x3d3be53a	0.045872904
43	0xbd6e89e2	-0.058236964
44	0xbc1b3ce6	-0.009474969
45	0xbdfa82d2	-0.12231983
46	0x3d3ac515	0.04559811
47	0xbe1032f6	-0.1408194
48	0xbd4fec1b	-0.050762277
49	0xbc65b945	-0.0140212225
50	0x3d2e46c4	0.042547956
51	0x3c713702	0.014722588
52	0xbdc5a72a	-0.09651025
53	0x3d3b4f7a	0.04573009
54	0xbe03cd12	-0.12871197
55	0xbd46913a	-0.048478343
56	0xbc0cb436	-0.0085878875
57	0xbdbe0205	-0.09277729
58	0x3ca1885c	0.019718342
59	0xbda2905f	-0.07937693
60	0xbe0ca099	-0.13733138
61	0xbbec015e	-0.0072023114
62	0x3d783355	0.06059583
63	0xbd6ff31e	-0.058581464

fc.2.weight f4 [64]
0	0x3f2d427a	0.6767956
1	0x3f00c64e	0.5030259
2	0x3eb2bd4e	0.34910053
3	0x3eb03960	0.34418774
4	0x3efda47e	0.4953956
5	0x3e9f99bb	0.31171975
6	0x3e92c835	0.2866837
7	0x3f382326	0.7192863
8	0x3f25c374	0.6475136
9	0x3f5b1393	0.8557674
10	0x3e7e0b34	0.24808961
11	0x3f084424	0.53228974
12	0x3ef355e6	0.47526473
13	0x3e8f692c	0.28009927
14	0x3e7a99bb	0.24472706
15	0x3ec1fbe2	0.37887484
16	0x3f5f08fc	0.87123084
17	0x3ea7690e	0.32697338
18	0x3f0d5194	0.55202603
19	0x3f361f0d	0.7114113
20	0x3f206db4	0.62667394
21	0x3f20d12b	0.62819165
22	0x3f326d9a	0.6969849
23	0x3f2f4f81	0.6848069
24	0x3ee80dce	0.45323032
25	0x3f18c7be	0.5967978
26	0x3f389dbc	0.72115684
27	0x3eb43742	0.35198408
28	0x3f059feb	0.5219714
29	0x3ea0c779	0.31402186
30	0x3f19d5e6	0.6009201
31	0x3e857876	0.26068467
32	0x3f3a8129	0.7285333
33	0x3f1a1f21	0.6020375
34	0x3f6145ad	0.8799694
35	0x3e9d3e3d	0.30711547
36	0x3ed8f9fb	0.4237822
37	0x3f415cec	0.7553241
38	0x3f72c625	0.94833595
39	0x3f52a79b	0.82286996
40	0x3f61a1fe	0.88137805
41	0x3eda6dc6	0.42661875
42	0x3f1fbb8c	0.6239555
43	0x3f0fe63b	0.5621068
44	0x3e7f614e	0.24939463
45	0x3f7384de	0.95124614
46	0x3f232153	0.63722724
47	0x3edb7e6a	0.42869884
48	0x3f42bdd1	0.76070887
49	0x3ee44b75	0.4458882
50	0x3e9da3e6	0.30789107
51	0x3f3cd45c	0.73761535
52	0x3ef83ab7	0.48482296
53	0x3f37a42c	0.7173488
54	0x3eff07bb	0.49810585
55	0x3f505045	0.8137248
56	0x3dc68494	0.09693256
57	0x3f56f3d3	0.83965796
58	0x3f1a8486	0.60358465
59	0x3ea780e8	0.32715535
60	0x3f6edc02	0.93304455
61	0x3e5f6216	0.2181476
62	0x3f091a62	0.5355588
63	0x3f419023	0.7561056

fc.2.bias f4 [64]
0	0xbe0962d5	-0.13416608
1	0xbd3bf129	-0.045884285
2	0xbd2ef3e9	-0.04271308
3	0x3c2b081e	0.010438947
4	0xbd2cbb14	-0.0421706
5	0xbdd329e4	-0.103107244
6	0x3ba5c201	0.0050585275
7	0x3bfa9b3a	0.007647899
8	0xbc8c5716	-0.01713137
9	0xbe13d06d	-0.14434977
10	0x3df8043a	0.12110181
11	0xbcaafe7c	-0.0208733
12	0xbd3d4429	-0.04620758
13	0xbd28a122	-0.041169293
14	0xbd2ae1a2	-0.041719086
15	0xbd21dc5c	-0.03951679
16	0xbd8c4c2d	-0.06850467
17	0xbce96704	-0.028491504
18	0x3b273cd4	0.0025518434
19	0x3c750e05	0.014956956
20	0xbc0e2a54	-0.008677084
21	0xbcc06b9e	-0.023488816
22	0xbcd6889a	-0.026188184
23	0xbdcfed3a	-0.10152669
24	0xbcedee0a	-0.02904417
25	0xbdba32b0	-0.09091699
26	0xbe1558f3	-0.14584713
27	0xbc1af542	-0.009457888
28	0xbe4f527d	-0.2024631
29	0xbd37bc7e	-0.044857495
30	0xbdf83fe5	-0.12121562
31	0xbd946855	-0.07246462
32	0xbddb38f2	-0.10704221
33	0xbda01785	-0.07816986
34	0xbd17f379	-0.037097428
35	0xbda4c28d	-0.0804492
36	0xbe0a6938	-0.135167
37	0xbdb234e6	-0.08701496
38	0xbda0cf57	-0.07852047
39	0xbd94ff2e	-0.07275234
40	0xbdc003c9	-0.09375722
41	0x3bc06a8f	0.005872078
42	0xbdf04799	-0.11732406
43	0xbe4b2811	-0.19839503
44	0x3c65ea18	0.014032863
45	0xbd4faeda	-0.05070386
46	0xbd73754b	-0.05943803
47	0xbdf15487	-0.117837004
48	0xbe00b740	-0.12569904
49	0xbaf34a1f	-0.0018561519
50	0xbd43754d	-0.04771929
51	0xbd854534	-0.0650734
52	0xbda69df8	-0.08135599
53	0xbdb51ebc	-0.08843753
54	0xbd3ff45e	-0.046863906
55	0xbe20756e	-0.15669796
56	0x3dee3da0	0.11632848
57	0xbd427eeb	-0.04748432
58	0xbda1f204	-0.07907489
59	0xbe322665	-0.17397459
60	0xbdda4157	-0.10656994
61	0xbdd1d582	-0.102458015
62	0xbdc1eba2	-0.094687715
63	0xbe006b54	-0.12540942

fc.2.running_mean f4 [64]
0	0xbe5432d6	-0.20722517
1	0xbe032cec	-0.12810105
2	0x3b1f767c	0.0024332097
3	0xbe24cc84	-0.16093642
4	0xbe0c312e	-0.13690636
5	0xbe95a420	-0.2922678
6	0xbc85e061	-0.016342344
7	0x3ea479f5	0.32124296
8	0xbe2958dc	-0.16537803
9	0xbda298a0	-0.07939267
10	0xbe597601	-0.21236421
11	0xbde44180	-0.11145306
12	0x3d704e43	0.058668386
13	0x396a2fc8	0.00022333779
14	0xbe07d340	-0.13264179
15	0xbdc106df	-0.09425139
16	0xbe55d370	-0.20881438
17	0xbe078296	-0.13233408
18	0xbddf7656	-0.10911243
19	0x3ceff13a	0.02928983
20	0xbdb215a1	-0.08695532
21	0xbdcdcb56	-0.10048549
22	0x3d1ae017	0.037811365
23	0xbd820a30	-0.06349599
24	0xbddfb37d	-0.109229065
25	0xbdebfb33	-0.11522522
26	0xbd22da57	-0.039759006
27	0x3de0b32e	0.10971676
28	0xbe073424	-0.13203484
29	0x3b92f287	0.004484478
30	0xbd5e32b1	-0.05424756
31	0xbccdb42c	-0.025110327
32	0x3e9341c6	0.2876112
33	0xbe5767ae	-0.21035644
34	0xbdbfd08d	-0.0936595
35	0xbd915695	-0.07096592
36	0xbd5743c5	-0.052554864
37	0xbea1497d	-0.3150138
38	0xbe50f0bd	-0.20404334
39	0x3d669931	0.05629844
40	0xbd697bdf	-0.0570029
41	0xbe87a867	-0.26495668
42	0xbda921dd	-0.08258412
43	0xbe180459	-0.14845408
44	0xbdf35fcd	-0.11883507
45	0xbca4c38d	-0.020112777
46	0xbd84eb50	-0.06490195
47	0xbe4f3957	-0.20236717
48	0xbe2a390f	-0.16623329
49	0xbdd60798	-0.10450667
50	0xbdcf8cbf	-0.10134267
51	0xbe3c65f6	-0.1839827
52	0xbe29fed0	-0.1660111
53	0xbd57b85c	-0.052666053
54	0xbe4ed2da	-0.20197621
55	0xbd6d50d1	-0.0579384
56	0xbe0b276a	-0.13589254
57	0xbe35f6b2	-0.17769888
58	0xbe0906a6	-0.13381442
59	0xbe6dde27	-0.23229276
60	0xbdf23663	-0.1182678
61	0xbdc28d7a	-0.09499641
62	0xbdc25bcd	-0.09490166
63	0xbdd8a1f4	-0.10577765

fc.2.running_var f4 [64]
0	0x3deb96bc	0.1150336
1	0x3dd302e0	0.10303283
2	0x3d851fb0	0.065001845
3	0x3e227bf9	0.15867604
4	0x3e144898	0.14480817
5	0x3e34c799	0.17654265
6	0x3dce55ff	0.10074996
7	0x3fdedfa6	1.7412002
8	0x3eb3eceb	0.35141692
9	0x3e20c906	0.15701684
10	0x400f3212	2.237431
11	0x3d955817	0.072921924
12	0x3df16bca	0.11788137
13	0x3da5a09d	0.08087275
14	0x3dad5bd5	0.08464781
15	0x3dc1421e	0.09436439
16	0x3e52751e	0.20552489
17	0x3df0de6e	0.11761175
18	0x3e120322	0.14259008
19	0x3da1a3af	0.07892548
20	0x3ef20150	0.47266626
21	0x3e02b6a2	0.12764981
22	0x3e9dcd66	0.3082077
23	0x3dc54301	0.096319206
24	0x3d80ef83	0.06295683
25	0x3d918e81	0.071072586
26	0x3e211002	0.15728763
27	0x3db4525c	0.08804771
28	0x3d4b3c92	0.04961831
29	0x3dae7145	0.08517698
30	0x3d8a21f7	0.067447595
31	0x3dc3ff79	0.09570212
32	0x3e2d2bb1	0.16911198
33	0x3dcaf087	0.09909158
34	0x3dad0e05	0.0844994
35	0x3dfdef1d	0.12399123
36	0x3da83e08	0.082149565
37	0x3e23ea55	0.1600736
38	0x3e30d3cb	0.17268293
39	0x3ded80af	0.1159681
40	0x3d9502e0	0.07275939
41	0x3ea4e65a	0.32206994
42	0x3d90339c	0.07041094
43	0x3d8a716b	0.06759914
44	0x3e08e115	0.13367112
45	0x3e09ee95	0.13469918
46	0x3e752c88	0.23942769
47	0x3e159959	0.14609279
48	0x3d8fa934	0.07014695
49	0x3db4d0f3	0.088289164
50	0x3dcadbdc	0.09905216
51	0x3dcb21a1	0.099185236
52	0x3d8bdf7a	0.06829734
53	0x3dadd751	0.08488334
54	0x3e4543b0	0.19264102
55	0x3df09538	0.11747211
56	0x40660886	3.5942702
57	0x3df94138	0.121706426
58	0x3dddeaa1	0.108357675
59	0x3db8ef99	0.090300746
60	0x3df163f8	0.11786646
61	0x3d898e67	0.06716614
62	0x3dc9e898	0.09858817
63	0x3e288fb7	0.16461073

fc.4.weight f4 [32, 64]
0	0xbd288591	-0.041143004
1	0xbe63b428	-0.22236693
2	0xbd8a9a25	-0.06767682
3	0x3de35bde	0.11101507
4	0xbdad23d4	-0.08454099
5	0xbd153024	-0.036422864
6	0xbd91a118	-0.07110804
7	0xbbe73a1f	-0.007056489
8	0xbe452cf1	-0.19255425
9	0x3d54b759	0.051932666
10	0xbd7381d3	-0.059449982
11	0xbe1ea531	-0.15492703
12	0x3c593d86	0.013259297
13	0x3e325891	0.17416598
14	0x3c80ff5b	0.015746763
15	0x3ca35e9b	0.019942572
16	0xbcf39b28	-0.02973707
17	0xbe3f0323	-0.1865354
18	0x3caed470	0.021341532
19	0x3da01a60	0.07817531
20	0xbd29eb97	-0.04148444
21	0xbd9e2dea	-0.07723601
22	0xbe2f9f01	-0.17150499
23	0x3e4db348	0.20087922
24	0xbc299da7	-0.010352529
25	0xbe4af035	-0.19818194
26	0x3d75e59f	0.060033437
27	0x3ca7cb63	0.020482725
28	0xbd2cc8eb	-0.042183798
29	0x3c581923	0.013189587
30	0x3d05ed76	0.032697164
31	0xbd1c5b19	-0.038172815
32	0xbd166df4	-0.036725953
33	0x3d7eece7	0.062237646
34	0xbd355b43	-0.044276487
35	0x3bd81575	0.0065943548
36	0x3ce5386e	0.02798101
37	0xbe1bb32a	-0.15205064
38	0xbda299ff	-0.07939529
39	0xbd997e77	-0.074948244
40	0x3cff54a3	0.031168288
41	0xbd9d3bf2	-0.07677449
42	0xbd8cfbc9	-0.06883962
43	0x3e17abf2	0.14811686
44	0xbb6308e0	-0.003464274
45	0x3e016122	0.1263471
46	0x3e02e203	0.12781529
47	0x3ce2ba8e	0.027676847
48	0xbd0c0b5c	-0.03419052
49	0x3d9aad22	0.07552554
50	0x3e14ba80	0.14524269
51	0xbdd965c0	-0.106151104
52	0xbb8f05f5	-0.004364724
53	0x3b8acd2e	0.004235885
54	0x3d345d25	0.044034142
55	0x3c93b0a3	0.018028563
56	0x3cad7674	0.021174647
57	0xbe0e7bfd	-0.13914485
58	0xbdc0c548	-0.094126284
59	0xbda734a8	-0.0816434
60	0x3da4e5eb	0.08051666
61	0xbdf1933e	-0.11795662
62	0x3bd06ee3	0.006360875
63	0x3d458f3b	0.0482323
64	0xbe67f05a	-0.2265028
65	0xbe3addd1	-0.18248679
66	0xbdb2dbf7	-0.08733361
67	0xbd856bde	-0.06514715
68	0xbda9a52a	-0.08283456
69	0xbd929de3	-0.07159021
70	0xbe348ffb	-0.17633049
71	0xbc5ee79c	-0.013605025
72	0x3e10ea43	0.14151864
73	0x3c845562	0.016153995
74	0x3c6233b4	0.013806272
75	0xbd3e7573	-0.046498727
76	0xbce7adce	-0.028281119
77	0x3db5f150	0.08883917
78	0xbd681028	-0.056656033
79	0x3c987fb9	0.01861559
80	0x3cfe41c5	0.03103722
81	0xbd82749b	-0.06369897
82	0x3d14b04e	0.03630095
83	0x3c6dc70d	0.014512789
84	0xbca3cc6d	-0.019994939
85	0x3c9d8e7b	0.019232979
86	0x3d8b8f90	0.06814492
87	0xbcddb782	-0.027065042
88	0x3e0eb4d1	0.13936163
89	0x3d06b6cd	0.032889176
90	0x3e09a840	0.13443089
91	0xbe04019a	-0.12891236
92	0xb85edc9c	-5.3134383e-05
93	0x3e455e4e	0.19274256
94	0x3d3aeecf	0.045637902
95	0x3d2f20bb	0.042755824
96	0x3d791b79	0.060817216
97	0x3d858473	0.06519403
98	0x3d23da2d	0.04000299
99	0xbc6aee8a	-0.014339099
100	0x3ccf922b	0.025338253
101	0x3c5a60ba	0.0133287255
102	0xbe232596	-0.15932307
103	0x3e29044c	0.16505545
104	0xbd113327	-0.035449173
105	0xbd66546d	-0.05623286
106	0xbe1589d1	-0.14603354
107	0xbdf9526b	-0.12173923
108	0xbd0a3ac8	-0.033747464
109	0x3de41a5e	0.11137842
110	0x3dc4c509	0.09607894
111	0xbd8c502c	-0.06851229
112	0xbdb80751	-0.089857705
113	0xbde78a39	-0.11305661
114	0x3ca352f6	0.01993702
115	0xbca055b0	-0.019572109
116	0xbd25ea67	-0.040506747
117	0xbd3235ac	-0.043508217
118	0xbdd3c461	-0.10340191
119	0xbce58aae	-0.02802023
120	0xbbd3406b	-0.006446888
121	0x3c6cfd36	0.014464667
122	0xbc32d5d4	-0.010915238
123	0xbd8f0963	-0.06984212
124	0x3ce13591	0.027491363
125	0xbdc23cb4	-0.094842345
126	0x3d60798c	0.054803416
127	0xbdc12ba0	-0.09432149
128	0x3c823760	0.015895545
129	0x3c8737e4	0.016506143
130	0xbe3e1304	-0.18561941
131	0xbe065865	-0.13119657
132	0xbc72769e	-0.014798788
133	0x3dffa996	0.12483518
134	0x3db04011	0.0860597
135	0xbdf86e27	-0.12130385
136	0xbdcd6320	-0.10028672
137	0xbe2ffddf	-0.17186688
138	0xbe3671b4	-0.17816812
139	0xbe2c2439	-0.16810693
140	0x3c9a8ebc	0.01886689
141	0xbe8ec41f	-0.27884004
142	0x3dd29a08	0.102832854
143	0xbd47b574	-0.04875703
144	0xbca0fa5c	-0.01965063
145	0xbd75d61f	-0.060018655
146	0xbdd30d43	-0.10305264
147	0xbd7e63b5	-0.062106807
148	0xbe259969	-0.16171803
149	0xbd4f5693	-0.050619673
150	0xbc7bf131	-0.015377329
151	0xbdecb1b9	-0.115573354
152	0xbd5951f0	-0.053056657
153	0xbd808483	-0.062752746
154	0xbcd70aba	-0.026250232
155	0xbe21852a	-0.15773454
156	0x3e14c81d	0.14529462
157	0xbde16674	-0.110058695
158	0x3d4175a6	0.04723134
159	0x3e1f6e5a	0.1556944
160	0xbd8670c3	-0.06564476
161	0x3d289392	0.04115636
162	0xbd1d1d61	-0.038358096
163	0xbe5645d6	-0.20925078
164	0xbe21c559	-0.15797938
165	0xbcb2363c	-0.021754377
166	0x3c85b8f6	0.016323548
167	0x3a95430f	0.0011387783
168	0xbd53c511	-0.05170161
169	0x3dcbae5c	0.09945366
170	0xbdf75f5c	-0.12078735
171	0x3da107ab	0.07862791
172	0x3dd193be	0.10233258
173	0xbded2df2	-0.11581029
174	0xbdc8bf07	-0.098020606
175	0x3db5ae29	0.08871109
176	0xbca0b69d	-0.019618327
177	0x3d4cfdec	0.050046846
178	0xbc8c1ac5	-0.017102608
179	0xbd4cb711	-0.049979273
180	0x3cf89697	0.030345244
181	0x3da9385d	0.082627036
182	0x3d5d2d00	0.053997993
183	0x3c1d3e85	0.009597425
184	0xbdad4009	-0.08459479
185	0x3bd1d480	0.006403506
186	0x3e117506	0.14204797
187	0x3e6a0f6c	0.22857445
188	0x3c3db158	0.011577927
189	0x3e1f5916	0.15561327
190	0x3dc9cb0a	0.0985318
191	0x3d605509	0.054768596
192	0x3d4b790b	0.049675982
193	0xbd57af5f	-0.05265748
194	0xbe136412	-0.14393643
195	0xbdb93f4f	-0.09045278
196	0xbd98ae4b	-0.07455119
197	0x3e04eddc	0.12981361
198	0xbdbd6754	-0.09248224
199	0xbdf67978	-0.12034887
200	0xbe01dbca	-0.12681499
201	0xbdded691	-0.10880769
202	0xbdda6f14	-0.10665718
203	0xbdaeb993	-0.08531489
204	0xbb418790	-0.0029530264
205	0xbe1c06ed	-0.15237017
206	0x3db8a1dd	0.09015248
207	0xbdc68004	-0.09692386
208	0xbbebcb68	-0.007195879
209	0xbd6df4b5	-0.0580947
210	0xbd8d8b61	-0.0691135
211	0xbdf7b9f8	-0.120960176
212	0xbe07f007	-0.13275157
213	0x3dece78e	0.11567603
214	0xbb83bca1	-0.004020289
215	0xbde72f76	-0.11288349
216	0xbc0ada1d	-0.008474854
217	0xbdfa8c23	-0.1223376
218	0xbca7e36f	-0.020494191
219	0xbe07af89	-0.13250555
220	0x3e09467f	0.13405798
221	0xbdd9fb91	-0.106436856
222	0x3d6d56f9	0.05794427
223	0x3e2fbc37	0.17161642
224	0xbda980cc	-0.08276519
225	0x3debb5a9	0.11509258
226	0xbd22855a	-0.039677955
227	0xbe6678a4	-0.22506958
228	0xbe0b4479	-0.13600339
229	0xbcfc913c	-0.030830972
230	0x3c8794fe	0.016550537
231	0xbc1d7d4c	-0.009612393
232	0xbd9c570f	-0.076337926
233	0x3d02a99e	0.03190004
234	0xbdb86dc1	-0.09005309
235	0x3e07a71f	0.13247345
236	0x3e292556	0.16518149
237	0xbdfc993f	-0.12333917
238	0xbde39c84	-0.11113837
239	0x3c8cfa3d	0.017209167
240	0x3d6b4939	0.057442877
241	0x3b7f1af0	0.0038925968
242	0xbd62dfc2	-0.055389173
243	0x3d3101b9	0.043214533
244	0x3d0dac93	0.034588408
245	0x3d984be5	0.07436351
246	0x3b8ad9be	0.0042373827
247	0xbd3e7e63	-0.04650725
248	0xbd6e4e39	-0.058180068
249	0x3d8ef3d6	0.06980102
250	0x3da0c656	0.078503296
251	0x3e769c08	0.24082959
252	0x3d4d5cf1	0.050137464
253	0x3e5d8d53	0.21635942
254	0x3b7082a2	0.0036698957
255	0x3e039112	0.12848309

fc.4.bias f4 [32]
0	0x37f32a3f	2.898753e-05
1	0xb7d57102	-2.5444202e-05
2	0x3742aa3d	1.1602938e-05
3	0x37e3e9a2	2.7169302e-05
4	0x37d338f0	2.5179674e-05
5	0x3784f67b	1.5850403e-05
6	0x374f2642	1.2347069e-05
7	0x387fc36b	6.0978735e-05
8	0xb6af7a89	-5.2296714e-06
9	0xb836807c	-4.351184e-05
10	0xb79bf23c	-1.8590239e-05
11	0xb68327ca	-3.9087363e-06
12	0x3757822a	1.2845305e-05
13	0x3750cd00	1.2445496e-05
14	0x38bdb063	9.045077e-05
15	0x37848167	1.5795884e-05
16	0x36fa75f4	7.464312e-06
17	0xb7cb2dc4	-2.4220797e-05
18	0x36218133	2.4066073e-06
19	0xb5b1e8c4	-1.3255271e-06
20	0x371898d6	9.095491e-06
21	0x37ba2731	2.2191178e-05
22	0x375b20ee	1.3061084e-05
23	0x360b16d0	2.0725893e-06
24	0xb74504dd	-1.1743247e-05
25	0x373fa29e	1.1422349e-05
26	0xb75d1f54	-1.3179921e-05
27	0x373129e0	1.0559772e-05
28	0x374228ae	1.1572773e-05
29	0xb820a7bf	-3.83032e-05
30	0xb846f8a7	-4.7438454e-05
31	0xb693e498	-4.407553e-06

fc.5.weight f4 [32]
0	0x3f4ddb7d	0.8041304
1	0x3f951244	1.1646199
2	0x3f3a5b44	0.7279551
3	0x3eccf2c3	0.40028962
4	0x3f871d52	1.0555823
5	0x3f9efe72	1.24214
6	0x3f1ae04a	0.6049849
7	0x3fa13a70	1.2595959
8	0x3fa44b87	1.2835549
9	0x3f46815e	0.7754115
10	0x3f026483	0.5093462
11	0x3f179b55	0.5922139
12	0x3f81674d	1.010965
13	0x3f404b21	0.7511464
14	0x3f798ba3	0.97478694
15	0x3f538790	0.82628727
16	0x3f87ac4a	1.0599453
17	0x3f76585e	0.9622859
18	0x3ef4c986	0.4781
19	0x3f7a462d	0.9776333
20	0x3f898824	1.0744672
21	0x3f7a9f08	0.9789891
22	0x3f8a1be1	1.0789758
23	0x3f6bf6cd	0.92173463
24	0x3f5444ec	0.82917666
25	0x3f8680b0	1.0508022
26	0x3f0d1713	0.55113333
27	0x3f062cf6	0.52412355
28	0x3f923f90	1.1425648
29	0x3f825bc2	1.0184252
30	0x3f24ec76	0.6442331
31	0x3f1b4343	0.6064951

fc.5.bias f4 [32]
0	0x3e65e2d8	0.22449815
1	0x3ec2be26	0.38035697
2	0x3d696d3a	0.056988932
3	0x3d1faeac	0.03898494
4	0x3e41ce4b	0.18926351
5	0x3e90b90b	0.28266177
6	0xbc45bd36	-0.012069037
7	0x3e8ed35b	0.27895626
8	0x3e5a438a	0.21314827
9	0x3d3e10d3	0.046402764
10	0x3e8a940e	0.27066082
11	0x3eaa0102	0.33203894
12	0x3e449059	0.1919569
13	0x3e3b006c	0.1826188
14	0x3e5bf07a	0.21478453
15	0x3e5521a0	0.20813608
16	0x3eab0821	0.3340464
17	0x3e91dea2	0.28490168
18	0x3e98e5ff	0.29862973
19	0x3e9e2a6a	0.30891734
20	0xbc5fc8c0	-0.013658702
21	0x3e295430	0.16536021
22	0x3e52e059	0.20593394
23	0x3d4b30cb	0.04960708
24	0xba4883ec	-0.00076490524
25	0x3e746f5f	0.2387061
26	0x3e5772b4	0.2103985
27	0x3ecf08ba	0.40436345
28	0x3e3b076b	0.18264548
29	0x3d364a43	0.044504415
30	0x3e8a1826	0.2697155
31	0x3e4162a3	0.18885283

fc.5.running_mean f4 [32]
0	0xbe4ad550	-0.19807935
1	0xbdd679ca	-0.10472448
2	0xbe807b6b	-0.2509416
3	0xbe38d423	-0.18049674
4	0xbd0122d5	-0.03152736
5	0xba0506ad	-0.0005074542
6	0x3dc256e2	0.09489228
7	0xbe94b3d1	-0.2904344
8	0xbe13b715	-0.14425309
9	0xbe376ffe	-0.17913815
10	0x3d0553f5	0.03255077
11	0xbe2c19f9	-0.16806783
12	0xbe04f22d	-0.12983008
13	0xbe201e59	-0.15636577
14	0xbcafa4d1	-0.021440895
15	0xbe28bb98	-0.16477811
16	0xbe6cdf57	-0.23132072
17	0xbe189219	-0.14899482
18	0xbdca6de2	-0.0988424
19	0x3dba1b17	0.09087198
20	0xbe7414b4	-0.23836023
21	0xbe1b25bb	-0.15151112
22	0x3de42d91	0.111415036
23	0xbe30f4f7	-0.17280947
24	0xbd8e0e9b	-0.069363795
25	0xbdbbdb41	-0.09172679
26	0xbdd441fa	-0.103641465
27	0xbd97a6eb	-0.07404884
28	0xbd4d5e28	-0.050138623
29	0xbe6ff669	-0.23433842
30	0xbe12b7f6	-0.14327988
31	0xbe5b709a	-0.21429673

fc.5.running_var f4 [32]
0	0x3d8ab911	0.0677358
1	0x3dac4b24	0.084127694
2	0x3dbee66e	0.09321295
3	0x3df80602	0.12110521
4	0x3da32fc0	0.07968092
5	0x3d87a5df	0.06623434
6	0x3d86cb95	0.06581799
7	0x3d64b92d	0.05584066
8	0x3d93af50	0.072111726
9	0x3dc73916	0.09727685
10	0x3d4fc26f	0.050722536
11	0x3dd0ebca	0.10201223
12	0x3daa607d	0.08319185
13	0x3dbf0d17	0.093286686
14	0x3d58af59	0.0529016
15	0x3d819446	0.06327109
16	0x3d29d74e	0.041465096
17	0x3d8e8643	0.06959202
18	0x3dbba77a	0.09162803
19	0x3d51c942	0.051217325
20	0x3dd8c8e4	0.10585192
21	0x3d79805e	0.060913436
22	0x3d7ef4c5	0.06224515
23	0x3e02033e	0.1269655
24	0x3d8c8bcc	0.06862602
25	0x3dc8a04a	0.09796198
26	0x3dc0bf2c	0.09411463
27	0x3d87c2a0	0.06628919
28	0x3d8f53b2	0.069983855
29	0x3dcffe4e	0.10155927
30	0x3d9aa17c	0.07550332
31	0x3d3683a4	0.044559136

fc.7.weight f4 [2, 32]
0	0x3e881eca	0.2658599
1	0x3ed6150e	0.41812938
2	0xbea1763e	-0.31535524
3	0xbf061d6d	-0.5238865
4	0x3e96755d	0.29386416
5	0x3e48e85d	0.1961989
6	0xbde332b3	-0.110936545
7	0x3e43d93f	0.19125842
8	0x3e8d254b	0.27567515
9	0xbeb28866	-0.3486969
10	0x3eba2b91	0.36361364
11	0x3e83bd0c	0.2573017
12	0x3e97c1f5	0.29640165
13	0x3e62690e	0.22110388
14	0x3e94a1ad	0.290296
15	0x3e8e8b0d	0.27840462
16	0x3df3249c	0.11872217
17	0x3dbf15f0	0.09330356
18	0x3ec8635e	0.3913831
19	0x3e638702	0.2221947
20	0xbeab0bd8	-0.33407474
21	0x3e8f563e	0.27995485
22	0x3e6c6594	0.23085624
23	0xbee1d2e7	-0.44106218
24	0xbea91671	-0.33024934
25	0x3eb940ad	0.36182156
26	0x3eb7f332	0.3592773
27	0x3f071112	0.5276042
28	0x3e9c4c09	0.3052676
29	0xbeca2696	-0.39482564
30	0x3ed5760c	0.41691625
31	0x3e954e56	0.29161328
32	0xbe8d1985	-0.27558532
33	0xbe4ce583	-0.20009427
34	0x3ea9329d	0.33046427
35	0x3eb623ee	0.35574287
36	0xbe67cf19	-0.22637595
37	0xbe57f054	-0.21087772
38	0x3ddb6925	0.10713414
39	0xbeacaf1c	-0.33727348
40	0xbecb7ae9	-0.3974221
41	0x3e6fa141	0.23401357
42	0xbec5bb76	-0.38619584
43	0xbeac4b8f	-0.33651397
44	0xbe8bcbbd	-0.27303877
45	0xbea3eae7	-0.32015154
46	0xbea1749a	-0.31534272
47	0xbe99d8c6	-0.30048198
48	0xbeca7950	-0.3954568
49	0xbecdd7f3	-0.4020382
50	0xbe84b05a	-0.25915796
51	0xbea420eb	-0.32056364
52	0x3e73f444	0.23823649
53	0xbdbd91ec	-0.09256348
54	0xbecfd874	-0.40594828
55	0x3e80db86	0.25167483
56	0x3eaf3dd6	0.34226865
57	0xbe1d3960	-0.15353918
58	0xbe897f70	-0.2685504
59	0xbef71961	-0.4826155
60	0xbe88071c	-0.26567924
61	0x3e7f2bcc	0.24919051
62	0xbeb9fdc1	-0.3632641
63	0xbe824fa5	-0.2545139

fc.7.bias f4 [2]
0	0x3e02c998	0.12772214
1	0xbe4709b9	-0.19437303
