hw2/ensemble/nn-epoch54ensemble-5.pt (torch_old, 39843 bytes, 14 tensors)

fc.0.weight f4 [64, 106]
000000 8f c4 03 be 7f 6d 2d 3c 09 b8 2d 3c e2 2b 8c bd
       -0.1286795 0.010585188 0.010602959 -0.068443075
000010 b1 43 00 3c 18 81 ef 3c 86 cc 83 bc 17 3e ee 3c
       0.007828639 0.029236361 -0.016088735 0.029082341
000020 10 69 1c 3b d0 77 a7 3d 24 0c 66 be d3 88 4e be
       0.0023866333 0.08177149 -0.22465569 -0.20169382
000030 7d bb 17 bd c4 c9 ee 3b b6 0c 74 3c 4b 24 db bc
       -0.037044037 0.007287236 0.014895609 -0.026750704
000040 0d 8f 07 bd 74 87 bf bb db 4d d1 bc 58 5b 05 3d
       -0.03309541 -0.0058450047 -0.02554982 0.032557815
000050 c7 75 9d 3b 06 9b c5 bd 40 5b a9 3d 7c 30 3f 3d
       0.0048053 -0.09648709 0.08269358 0.046677098
000060 69 3c 66 bd 1e 4b d3 3d 26 1a 1b be 70 15 46 3c
       -0.056209955 0.10317062 -0.15146694 0.012090072
000070 0e db bc 3c af 22 29 bd bc ce 12 be 72 57 b3 bd
       0.023053672 -0.041292842 -0.14336675 -0.08756913
000080 5e 5e 04 bc c2 03 dc 3d b8 d9 61 bc f0 11 4d bc
       -0.0080791395 0.10742904 -0.013784818 -0.012516484
000090 42 76 a2 3d c7 7c 25 bd 45 33 61 bc 7b b7 c0 3d
       0.07932712 -0.0404022 -0.013745134 0.09409996
0000a0 fd dc 7c 3d ef 62 e5 bd 87 c5 40 bd 7b f9 b4 bc
       0.06173419 -0.11200511 -0.047063377 -0.022091618
0000b0 8f b4 0d bb 22 fc fa bc b6 0a b2 bd e0 65 85 bd
       -0.0021622514 -0.030637804 -0.08693449 -0.06513572
0000c0 c4 1c 0e 3d a3 10 34 3d 2c 22 3f bd d4 5d 4e 3c
       0.0346954 0.04396118 -0.04666345 0.012595613
0000d0 e4 ee 1f 3d 3e da 7f 3d 82 88 42 bd 81 17 14 3d
       0.039046183 0.06246399 -0.047493465 0.036155228
0000e0 59 3a 1b bd 01 cd 6c bd b8 23 f6 bd 5a b8 31 bd
       -0.03789744 -0.057812694 -0.120185316 -0.043388702
0000f0 59 ae 08 3e ef 2f 1f 3d 79 12 22 bd 9a 4d 60 3d
       0.13347758 0.038864072 -0.0395684 0.054761507
000100 98 23 eb bd 44 af 92 bd 1d 3c 9f bd cd 01 5a 3c
       -0.11481398 -0.071623355 -0.077751376 0.013306093
000110 cd aa 62 3b c0 c8 aa 3d f7 7d ac 3d bf df 51 bc
       0.0034586668 0.08339071 0.084224634 -0.012809693
000120 3d 7e 5f 3c 09 b6 1a bd 30 8d 09 bd 1c a6 1b 3e
       0.013640937 -0.03777126 -0.033581913 0.15200084
000130 31 aa 0d bc 24 c1 1f 3b 4c 71 6c bd 7e c5 11 3c
       -0.008646534 0.0024376595 -0.057725236 0.008897183
000140 20 ce b2 bd 77 cd 56 39 53 92 02 bd 16 80 78 3d
       -0.087307215 0.00020485172 -0.031877827 0.060669027
000150 fe 31 96 3d 59 5b d2 bd 08 3c 70 38 5b 92 c6 3c
       0.07333754 -0.102713294 5.7276367e-05 0.02423971
000160 a1 56 e7 bd 89 1d ac bb 9e 89 7b bc fb 0a 55 3d
       -0.1129582 -0.0052525443 -0.015352635 0.052012425
000170 dd ec fd b9 1f b7 26 bd ae 2f 45 bd 09 67 a1 3c
       -0.00048432397 -0.04070198 -0.048141174 0.019702451
000180 f8 a4 c5 bb 30 cb 53 bd 02 6b cc bc a8 a7 8f bc
       -0.0060316287 -0.051707447 -0.024953369 -0.017536
000190 57 07 8f 3d cf 50 5b bc 53 74 a8 bd 0b 17 75 bd
       0.06983822 -0.0133859655 -0.08225312 -0.05983643
0001a0 99 0b 82 bc 28 09 d9 bc f1 5f b8 3d 61 17 ed bc
       -0.01587467 -0.026493624 0.09002674 -0.028941812
0001b0 10 49 e4 3c d2 e3 f7 3d ab 21 14 3d 5d 37 42 3d
       0.02786687 0.12104 0.03616492 0.04741608
0001c0 35 45 ed 3b a1 8e 02 3c 22 e0 90 3a 68 4a 58 3c
       0.007240916 0.007968576 0.0011053125 0.013201334
0001d0 cf 8a 81 3c 0a 95 96 bd 31 98 2b 3c 4a ce 38 bc
       0.01581326 -0.07352646 0.010473297 -0.011279652
0001e0 ae 5f ae 3b 56 d8 d3 bd a9 e8 54 bd e0 5e e5 bc
       0.0053214645 -0.10343997 -0.051979695 -0.027999341
0001f0 dd 42 20 be fb 1a 8a bd fe 74 73 bd 0d 96 08 3d
       -0.15650506 -0.06743427 -0.059437744 0.033346225
000200 f4 3e 3f bc 7f ac 6e 3d e8 54 99 3d 29 18 f7 bd
       -0.011672724 0.058269974 0.07486898 -0.12065155
000210 52 53 d6 3d 29 ea 09 bc 0f 91 55 3e d1 94 01 bd
       0.10465111 -0.008417645 0.20856117 -0.031636063
000220 c1 aa cd bd 9c 62 21 3d 0c 46 23 bd a5 12 08 be
       -0.10042334 0.03940068 -0.039861724 -0.13288362
000230 3a c9 bd bd 27 ee ad bc 8a c2 01 3d 68 c7 fa bd
       -0.092668965 -0.021231724 0.031679668 -0.12245065
000240 9a 56 3b 3c 8f c4 4d 3d 3a bc b9 3d fe 66 7a bd
       0.011434222 0.05023628 0.090691045 -0.061133377
000250 a0 8e 1b be 02 91 85 bd 9e 42 4a bd 9a f6 62 bc
       -0.15191126 -0.06521799 -0.049379937 -0.01385274
000260 ca 23 01 3d 28 78 b8 3d 46 c9 73 3d bd f2 03 3e
       0.03152827 0.09007293 0.05951812 0.12885566
000270 54 a9 aa bd 02 b5 57 3d b8 8f 82 bd bd 4c d9 bd
       -0.08333078 0.052662857 -0.063750684 -0.1061034
000280 6c 99 81 be bf 23 bd bc b8 2d 9e 3d 28 34 a3 bd
       -0.25312364 -0.023088334 0.07723564 -0.079689324
000290 b0 12 2c bc cd 35 2a bd b2 94 3a bc 02 d8 cf 3c
       -0.010502502 -0.041555215 -0.011387991 0.025371555
0002a0 6a 95 25 bd 55 37 1a be 87 fc 8d bd 3e e8 9e bd
       -0.040425695 -0.1506017 -0.069329314 -0.077591404
0002b0 79 0b 01 be 6d ef ee bc fc 90 67 bd 37 da 8b 3d
       -0.12602033 -0.029166901 -0.056534752 0.068287306
0002c0 4f 73 1c bd a5 80 80 3d 81 6f b5 3c 3a b3 62 3d
       -0.038195904 0.06274537 0.022147896 0.055346705
0002d0 64 36 48 bd db c1 ee 3d c2 99 fc 39 ef 1d 21 bc
       -0.048879996 0.11658069 0.00048179744 -0.009833797
0002e0 ea e3 ad bb 25 2c 0c 3e 25 e0 bf 3d 7a f9 13 3e
       -0.0053067105 0.13688715 0.09368924 0.14450637
0002f0 3b 13 59 3d 24 ab 1d 3c 77 99 10 be 61 c4 72 bb
       0.052996855 0.009623323 -0.14121042 -0.003704332
000300 0c 9a 11 3c f9 96 cf bc 0b a0 8a bd cf 3e 79 bb
       0.008886825 -0.025340544 -0.06768807 -0.0038031822
000310 2c 07 32 bc dc c7 1d bd 02 b3 b1 bd e2 0f 44 bd
       -0.010865968 -0.03852068 -0.08676721 -0.04786671
000320 6a 24 21 be 71 64 3b 3d a4 60 90 bd 84 d7 68 bd
       -0.15736547 0.045750085 -0.07049683 -0.056846157
000330 1d 73 63 3d 39 07 3a bd 9f 52 bc 3d 4c 36 4c be
       0.055529702 -0.045417044 0.09195446 -0.19942588
000340 a0 eb 82 3d 3b 72 a9 bc 3d 88 a1 bc 47 2c 84 bd
       0.06392598 -0.020684352 -0.019718284 -0.06453758
000350 95 78 c0 bd af 32 e8 bd cf 10 88 3c 61 a0 d5 3d
       -0.09397999 -0.11337792 0.016609577 0.104309805
000360 92 a0 87 3d 78 52 63 3c 50 99 58 3d 9e 4c 65 be
       0.06622423 0.013874643 0.052880585 -0.22392508
000370 e7 ea 0a 3b 13 23 f6 3c 8b b3 5e bd 2d 33 ee 3c
       0.0021197142 0.030046022 -0.054370444 0.029077137
000380 53 83 ea 3b 70 8e db 3b 46 6a 2b 3d 7b 0d a0 3c
       0.0071567683 0.0067003295 0.041849397 0.019537678
000390 4f 78 b8 bd 5f 1a 86 3d 81 02 62 37 53 6c d6 bc
       -0.09007322 0.06547999 1.3471233e-05 -0.0261747
0003a0 57 6c 6b 3d 21 2a ad bd fc ad 38 3e 00 a7 13 bd
       0.057476368 -0.08455301 0.1803512 -0.036047935
0003b0 7f 77 f4 3c a1 fc 90 3d 47 e3 e6 3c 76 1e 53 3b
       0.029842136 0.07079435 0.028184546 0.00322142
0003c0 44 02 b8 bd c1 3d 3a be 29 a2 ad ba 00 10 0f 3d
       -0.08984807 -0.1818762 -0.001324718 0.03492737
0003d0 3e 83 18 3c 78 2e f9 bc 3c c3 cd bc 1d 42 17 3c
       0.009308634 -0.030417666 -0.025117509 0.009232071
0003e0 1a 23 07 3e 1c 1c cf bd c3 06 c0 3c e6 bf 08 be
       0.13196984 -0.10112783 0.023440724 -0.13354453
0003f0 94 8e e3 3d 7d 5e 18 3e 55 6b a1 3d 18 e9 70 3b
       0.11111179 0.14879794 0.078818 0.0036760028

fc.0.bias f4 [64]
000000 19 84 0c bd 82 72 a3 bd 4e 98 01 bd f4 0e 93 bc
       -0.034305666 -0.07980825 -0.03163939 -0.017951466
000010 39 c1 db bd 70 c6 fb bc c6 af d9 3b 36 38 ad bd
       -0.10730214 -0.03073427 0.0066432683 -0.08457987
000020 bd 0f d7 bc c9 2a e2 bd ea 29 b5 bd 18 3e c5 3c
       -0.026252622 -0.11043317 -0.08845885 0.02407746
000030 75 d1 bb 3b 4f fe 34 bd 3f d6 ae 3c 72 c1 80 3d
       0.0057317563 -0.04418784 0.021342395 0.06286897
000040 54 6f 8d 3c 62 79 6d bd f7 86 e3 3c 49 7f 97 bd
       0.017265 -0.057977088 0.027774317 -0.073973246
000050 01 04 3e be 5d 7b 26 3e 48 6c c3 bc 5d 6d 89 3c
       -0.18556215 0.16257997 -0.023855343 0.016775781
000060 3b f4 ba 3c 36 a8 b1 bd 9e b3 d3 bd a3 55 05 bd
       0.022821536 -0.08674662 -0.10336994 -0.032552373
000070 7c 81 cf 3c c4 e0 b6 bd 2e 2f 60 bd bb 03 23 bd
       0.025330298 -0.089295894 -0.054732494 -0.03979848
000080 8f 38 7d bd e4 bd 79 bd 4d 1e 1a bc 6c 69 c7 bc
       -0.061821517 -0.06097211 -0.009406638 -0.024342261
000090 07 70 a3 3c 31 9f cf 3d 1f 88 c9 bd 3a 4a 9d bd
       0.01995088 0.10137785 -0.09840416 -0.07680173
0000a0 04 f8 db 3d 13 a9 79 bd 5e 1d 96 3d 85 6f 43 be
       0.107406646 -0.060952257 0.0732982 -0.1908551
0000b0 cd cc fe 3b b0 f3 05 be cb 93 81 bd 3e 2b 9d bd
       0.007775879 -0.1308124 -0.063270174 -0.076742634
0000c0 ff 65 38 bd e2 83 45 bd 61 4a 30 bd 3b 7c d8 bd
       -0.045019146 -0.048221476 -0.043039683 -0.1057057
0000d0 c2 1b 1d 3c 39 b6 16 3b 73 73 5f bd 97 13 36 bd
       0.0095891375 0.0022996797 -0.05455346 -0.044452276
0000e0 d0 db 57 bd b2 2b b3 3a 2f c9 09 bc 26 71 d3 bd
       -0.052699864 0.0013669638 -0.008409782 -0.10324316
0000f0 91 69 a4 bd 7c b3 f5 bd f8 3a ef bc 07 2c 2c 3d
       -0.08027948 -0.119971246 -0.029202923 0.042034175

fc.2.weight f4 [64]
000000 7f 3d 2c 3f aa a1 1b 3f 1d ae af 3e 6b 88 3c 3f
       0.67281336 0.60793555 0.34312525 0.7364566
000010 f7 c1 cf 3e 94 1e f1 3e ff e3 6d 3f 7a 62 d6 3e
       0.4057767 0.47093642 0.9292602 0.41872007
000020 e4 80 4b 3f 0e ff 50 3f 5e f9 b3 3e 80 f5 34 3f
       0.79493546 0.8163918 0.3515119 0.70687103
000030 06 ed 17 3f ee 28 13 3f 87 2f 85 3f bf 09 1f 3f
       0.59346044 0.5748433 1.0405129 0.62124246
000040 98 aa dd 3e 12 01 0f 3e f5 b1 54 3f e0 31 57 3f
       0.43294215 0.13965252 0.8308404 0.8406048
000050 3c a7 43 3f 2a 0f a3 be 4b c3 2f 3f db fd 24 3f
       0.76427054 -0.31847507 0.6865737 0.6444985
000060 75 fb 39 3f 48 8f e6 3e f3 9d 35 3f d6 0a 64 3f
       0.7264932 0.4503119 0.70944136 0.89079034
000070 09 76 9e 3e 80 20 90 3e 7e 85 4f 3f f9 8d 0d 3f
       0.3094943 0.28149796 0.8106307 0.5529476
000080 f5 d6 e5 3e 3c f5 1b 3f 9f ae 61 3f d5 4f e1 3e
       0.44890562 0.6092107 0.88157076 0.4400622
000090 11 ee 1d 3f 61 e5 61 3f cd fd 75 3e ab 06 53 3e
       0.61691386 0.8824063 0.24022599 0.20608012
0000a0 b0 a1 c3 3e 19 ee 41 3f 41 c2 32 3f 9b fe 55 3f
       0.38209295 0.75753933 0.6982766 0.8359162
0000b0 35 b4 6a 3e ce 07 4c 3f c4 f0 4f 3f ff 75 17 3f
       0.22920306 0.7969941 0.81226754 0.5916442
0000c0 a8 77 cd 3e b2 ef 31 3e 38 1b 16 3f 3d 77 55 3f
       0.40130353 0.17376593 0.5863528 0.8338507
0000d0 6e 1a a3 3e b2 d6 91 3e 40 71 85 3e 61 1f 4d 3e
       0.31856102 0.28484112 0.26062965 0.20031501
0000e0 c6 21 2c 3f 24 61 d3 3e 1e 53 00 3f 1a 63 1e 3f
       0.67239034 0.4128505 0.50126827 0.61869967
0000f0 22 61 52 3f f9 69 8e 3e d4 b4 67 3f a5 c6 ff 3e
       0.8217946 0.27815226 0.90510297 0.4995624

fc.2.bias f4 [64]
000000 1b 6e 74 bd 32 96 0a be 61 4a d0 bd 5f 3e 65 bd
       -0.059675317 -0.13533857 -0.10170437 -0.055967685
000010 b0 0b 4f bd 24 ff 7e bd 94 9f f0 bd b4 80 95 bd
       -0.050548255 -0.06225504 -0.11749187 -0.07299939
000020 de a6 00 3e 3f 9c 6f be a0 cc e9 bd bb f7 53 bd
       0.12563655 -0.23399447 -0.11415982 -0.051749926
000030 60 ae 7a be 9d 93 ba bd 8e eb f0 ba 04 b1 80 3d
       -0.24480581 -0.09110186 -0.0018380748 0.06283763
000040 13 22 8f bb 6f e6 9a bd 40 c7 e5 bd 5a fd 68 be
       -0.0043680756 -0.07563483 -0.112196445 -0.22752896
000050 da dc 87 be cf d2 8c bd 94 85 a8 bc df 19 13 be
       -0.26535684 -0.06876146 -0.020571508 -0.14365338
000060 bf 2d 6d bd ee c3 64 bd 0e 48 b8 bd 0f e6 9e bd
       -0.057904955 -0.055850916 -0.08998118 -0.07758724
000070 78 89 99 3b 88 26 bb bd 8b f6 47 3c dc ac 96 3c
       0.004685577 -0.09138209 0.0122047765 0.018392973
000080 9b 4b 18 be 42 83 ae bd df 4e 82 bd 07 75 07 be
       -0.14872591 -0.08521129 -0.063627 -0.13228236
000090 f1 3f 2a bd 78 d4 82 bd bf c8 96 3c 9e ca b9 bd
       -0.041564886 -0.063881814 0.01840627 -0.09071849
0000a0 d9 6b c3 bc ab 43 3f bd b3 c0 20 bd 89 17 b2 bd
       -0.023855137 -0.046695393 -0.039246272 -0.08695895
0000b0 4a a4 74 bc 3c 7a 3f be 83 ea d4 bd 76 80 a0 bd
       -0.014931748 -0.18698972 -0.10396292 -0.07837002
0000c0 a2 46 ca bd e6 c9 5b 3d a8 8d 27 be a0 e3 c1 bc
       -0.098767534 0.053659342 -0.16362631 -0.02366811
0000d0 80 08 d5 bd a1 7e 8d ba e5 ba c2 bc 6e 60 f0 3c
       -0.10402012 -0.0010795185 -0.023770759 0.029342856
0000e0 d7 7f 46 bd 5a b9 23 be 9b 1a 19 be 4a a7 36 be
       -0.04846176 -0.15988675 -0.14951555 -0.17837253
0000f0 9d 19 da bd 08 79 5a 3d e5 1d 08 3d 3e 91 e6 bd
       -0.106494166 0.05333808 0.033231635 -0.112581715

fc.2.running_mean f4 [64]
000000 73 84 84 3c 39 78 34 be 4a 9a ab bd 08 2e af bd
       0.016176438 -0.17623986 -0.08379038 -0.08553702
000010 95 72 e4 bd 88 d2 e8 bd 4d 72 01 be a3 fe 06 be
       -0.11154667 -0.11368281 -0.12641259 -0.13183074
000020 ae 67 63 bd 7c 2c fd bb 68 08 2d be 26 c1 ef 3d
       -0.0555188 -0.00772625 -0.16897738 0.11706762
000030 23 4f 2d be 8c 40 80 be c2 10 c7 bd 9a 54 83 bd
       -0.1692472 -0.25049245 -0.09719993 -0.06412621
000040 c1 66 f1 bd f9 c6 9e bd 82 cd 4c be f2 db 1e be
       -0.11787177 -0.07752795 -0.2000027 -0.1551359
000050 d2 a0 72 be 5d 8e 33 3e 70 d7 94 bd 44 17 30 be
       -0.2369416 0.17534776 -0.07267654 -0.17196375
000060 ef c3 cc bd d1 3e 42 bc 31 72 4d be f5 62 24 bd
       -0.09998309 -0.011855797 -0.20063092 -0.040133435
000070 5c a7 f8 bc c4 eb 81 be 29 dd 3f be 2c 91 9e bd
       -0.03035324 -0.25375187 -0.1873671 -0.07742533
000080 74 b5 23 be ae f4 b3 bd 9d fb 1e be c4 58 4c be
       -0.15987188 -0.08786903 -0.1552567 -0.19955736
000090 2e 37 00 be 7e 25 ae bd 6b 13 91 be 7e 07 79 bd
       -0.1252105 -0.08503245 -0.28335127 -0.06079816
0000a0 66 42 df 3e 47 bc ad bc 25 62 3c be 39 11 a9 bd
       0.43605345 -0.021207942 -0.18396814 -0.08255238
0000b0 63 76 b7 bd c3 92 2f be 86 4c 43 be e8 10 d9 bd
       -0.08958127 -0.17145829 -0.1907216 -0.10598928
0000c0 89 9c 71 be 8c b9 5b 3c 58 6d 0a be 19 55 56 be
       -0.2359487 0.013410937 -0.13518274 -0.209309
0000d0 51 48 5c bd 1f 66 2b 3d f7 82 27 be 00 55 bd bc
       -0.053779904 0.041845437 -0.16358553 -0.02311182
0000e0 3c ce 90 bd 16 27 52 be 13 05 ee bd 88 60 4f be
       -0.07070586 -0.20522723 -0.116220616 -0.20251667
0000f0 2e 09 b6 bd 15 d8 b3 bd 48 c6 27 3d e2 70 01 be
       -0.0888847 -0.08781449 0.04096058 -0.12640718

fc.2.running_var f4 [64]
000000 03 5b 4a 3e d4 b9 17 3e f5 57 d1 3d 1d 1f 51 3e
       0.1976128 0.14816982 0.102218546 0.20422025
000010 bb f9 c2 3d 09 c2 4c 3e c5 c5 11 3e d0 ac a3 3d
       0.095202886 0.19995894 0.142356 0.07991946
000020 29 0a 39 40 18 1f 88 3d 52 71 8e 3d 9b cc 4d 3e
       2.8912451 0.06646556 0.06955208 0.20097582
000030 65 79 e8 3d 19 08 7d 3e bc cd b6 3e 90 b0 32 40
       0.11351279 0.2471012 0.35703838 2.7920265
000040 51 b5 af 3d 66 64 8a 3e 9f 3c d2 3d c3 42 76 3d
       0.08579505 0.27029723 0.10265469 0.060122263
000050 62 fa 45 3e ec 43 9c 3d 70 ab 06 3e 82 49 11 3e
       0.19333795 0.076301426 0.13151336 0.14188197
000060 a2 70 92 3d 44 cf 55 3d 75 4d 03 3e ca e7 d7 3e
       0.07150389 0.052199617 0.12822516 0.4216903
000070 bf 86 d3 3d a8 62 00 3e ed 58 14 3e 12 1f 9b 3d
       0.10328435 0.12537634 0.14487047 0.075742856
000080 52 70 b9 3d 6a 78 af 3d 8b aa 3e 3e 04 2d dd 3d
       0.090546265 0.08567889 0.18619744 0.10799602
000090 40 df 79 3e 2a 60 43 3e 2b 6c 2e 3e 27 18 9a 3d
       0.2440157 0.19079652 0.1703345 0.07524138
0000a0 6e d2 6e 3e da 9b 18 3e 22 35 a1 3e cc 68 c7 3d
       0.2332246 0.14903203 0.3148585 0.09736785
0000b0 a4 5c d1 3d 30 e5 a4 3d 71 c1 90 3e c1 ea e4 3d
       0.10222748 0.080515265 0.28272584 0.11177588
0000c0 2c 0e c6 3d 11 33 e7 3d 63 8c 98 3d 44 54 9a 3e
       0.09670672 0.11289037 0.07448652 0.30142415
0000d0 0d 73 ae 3d 67 ed 85 3d c2 13 c6 3d 69 26 2e 3e
       0.08518038 0.065394215 0.09671737 0.1700684
0000e0 e0 66 af 3e 0d fc cf 3d d7 92 68 3d 45 57 25 3e
       0.34258175 0.10155497 0.056780662 0.16146572
0000f0 e8 95 18 3e 1c ae 8b 3d 65 06 a1 3d a6 e3 aa 3d
       0.14900935 0.06820318 0.07862548 0.08344202

fc.4.weight f4 [32, 64]
000000 f1 a9 82 bd 95 93 81 bc c2 0d 1c 3e 77 51 d8 3c
       -0.0638007 -0.015817443 0.15239623 0.026406033
000010 ea c5 66 ba 8e 38 16 bd cf e3 d4 3d ab ed 0b be
       -0.0008803295 -0.03667503 0.103950135 -0.13664882
000020 67 ed 84 bd 68 e1 38 bd f7 97 34 3c 23 5d 82 3d
       -0.064905934 -0.04513684 0.011022559 0.06365421
000030 12 70 e4 bc 7e 2b 36 be 44 5e 3a 3d 03 96 c9 3d
       -0.02788547 -0.17790028 0.045500055 0.098430656
000040 49 7c 44 bd 37 3a 94 3c 53 14 8d bd 1f 54 05 3e
       -0.04797009 0.018094165 -0.06888642 0.13020371
000050 b9 7c bf ba 86 85 67 be b5 ab c5 3c 85 20 a0 3d
       -0.0014609314 -0.22609529 0.024129728 0.078187026
000060 94 c9 b6 3d 7d a8 0b 3c 9d ec 41 be 1e 77 ed bd
       0.08925167 0.008524057 -0.18937917 -0.115949854
000070 37 c5 8f bd ee 48 2d 3d 00 9e c2 bd 12 ba 91 3c
       -0.070200376 0.04230588 -0.09502792 0.01778892
000080 36 fc dd bd 97 21 c3 bd 74 59 f0 3c a6 36 7f bc
       -0.10839121 -0.09527891 0.02933953 -0.015576994
000090 0d 2a 72 3c a1 ee c5 bd d9 e4 9a bd cf 03 1c 3d
       0.0147805335 -0.096646555 -0.075631805 0.03808957
0000a0 62 2a b0 3b 6d fe da bc 4d cf 80 3c a5 a0 34 be
       0.005376146 -0.026732648 0.015723849 -0.17639406
0000b0 79 99 79 bb a4 30 00 be 54 da 06 3c df e9 e1 3d
       -0.0038085862 -0.12518555 0.008230764 0.110309355
0000c0 0b 5e dd bd ae 3c 1d 3c d2 7b 86 bb 54 3e 4d be
       -0.10808953 0.009596987 -0.004104116 -0.20043308
0000d0 18 0d 97 3d 04 a8 1f bd aa c9 16 be bb df ce bd
       0.07375544 -0.03897859 -0.14725366 -0.10101267
0000e0 3a 62 f2 bd e0 b5 7d bd cd 95 5b bd f9 57 f0 bd
       -0.118351415 -0.061941028 -0.053609658 -0.117355295
0000f0 13 75 bb 3d 4d 5a 32 3e 88 e2 61 39 1b d0 a9 bc
       0.091531895 0.1741726 0.00021542062 -0.020729115
000100 5b 19 3a 3c f3 36 26 3d 26 f4 05 be 60 15 4a bc
       0.011358584 0.040579747 -0.13081416 -0.012334198
000110 7c 73 81 be 9a e3 a7 bd 6c 0b e8 3c 44 e5 ac 3c
       -0.2528342 -0.081977084 0.028325759 0.021105416
000120 26 4e 2a 3c 86 02 87 3c 4b 10 3f 3b 53 cc 88 bd
       0.010394609 0.016480695 0.0029153998 -0.06679597
000130 22 85 9f 3c e0 47 bf bc 07 2a d9 bc d8 d6 82 3d
       0.019472662 -0.023349702 -0.026509298 0.063886344
000140 29 6e 60 3d e7 40 53 3d 10 43 e2 bb 6e 8e f9 3d
       0.054792557 0.051575568 -0.006904967 0.121853694
000150 34 96 ab bd 2e 03 13 3e 45 82 34 bd 62 69 3d bc
       -0.08378258 0.14356682 -0.044069547 -0.01156077
000160 eb b6 a0 3c a7 c9 e4 bd 6e b7 f6 3d 40 3d 56 bd
       0.019618472 -0.11171275 0.12046705 -0.052304506
000170 5d d4 86 3d c1 aa eb 3d 53 ff d3 3c 2e 9e b5 3d
       0.06583474 0.11507178 0.025878584 0.08868061
000180 91 10 23 bd 76 bc fe bc 1f d5 32 3d 9e 70 8c 3c
       -0.03981072 -0.031095725 0.04366028 0.017143544
000190 b1 b5 d0 bc 47 72 4b bd e7 ec 51 3e c5 9c b2 bd
       -0.025477262 -0.04966953 0.20500527 -0.08721308
0001a0 77 5a 19 be 4a 54 70 bd 26 e1 8f bd c6 0d c1 bd
       -0.14975916 -0.058674134 -0.070253655 -0.09426455
0001b0 f4 f4 04 bc 7e ae 75 bd 7a 4e f3 bd 85 2c eb bd
       -0.008115042 -0.05998086 -0.118802026 -0.11483101
0001c0 38 86 d7 3d 6d 75 db bd ad 05 84 3d b2 91 8c bd
       0.10523647 -0.107157566 0.06446395 -0.06863727
0001d0 a0 c8 e5 36 04 58 48 3d 4a 5e cb 3d 0e 48 bc bd
       6.8480877e-06 0.048912063 0.099300936 -0.09193431
0001e0 66 1d f5 bc 93 b6 23 ba 8c 1c dc bc 5f 34 e9 3d
       -0.029921245 -0.0006245162 -0.026869081 0.11386942
0001f0 c5 c1 59 3b 7a 8d 29 be 32 fb 7a 3d 96 50 3f be
       0.0033227068 -0.16557875 0.061274715 -0.18683085
000200 3b 97 de bd f4 3d 28 3d 6a a2 98 3d 31 28 ac bd
       -0.10868689 0.041074708 0.07452853 -0.084061034
000210 99 5e a0 be 43 1b 2b be df 75 93 3a 02 c2 45 3d
       -0.31322172 -0.16709618 0.0011250338 0.048280723
000220 7b ef 19 bd 2a 80 72 3a f2 2a 28 bd e0 7f 35 bd
       -0.037581902 0.00092506653 -0.04105658 -0.044311404
000230 3f 54 ca 3d 11 11 1e bd 6f 5d 71 bc c8 77 95 3b
       0.0987935 -0.038590495 -0.014731749 0.004561398
000240 7f db ea 3c 81 36 85 3d 83 35 30 3e f9 97 a9 3d
       0.028669117 0.065045364 0.17207913 0.082809396
000250 01 18 8d bd 23 3a 9d 3c cc 9a 31 bd 84 7b 1f 3d
       -0.06889344 0.01919276 -0.043360516 0.038936153
000260 fb 8b b3 bb 05 c2 b4 bd 0d b8 96 bb 9c 1f 16 bc
       -0.0054793335 -0.08826069 -0.0045995773 -0.00916281
000270 5e 93 0b bd 8a ea 95 3d 38 2c 4e bd 41 b9 ae b9
       -0.034076087 0.073201254 -0.05033514 -0.0003332589
000280 a0 7e 7d bd b5 1b ae bd 87 b4 a8 3d 5b e1 e2 3d
       -0.061888337 -0.085013784 0.08237558 0.110781394
000290 44 99 4f bd 6f 18 b9 bd 2c 43 dd 3d 32 79 9a bd
       -0.050683275 -0.090378635 0.10803828 -0.075426474
0002a0 ce 3f c0 bd a4 3c 6f 3d ed c1 13 ba e9 82 36 bc
       -0.0938717 0.05840744 -0.0005636502 -0.01113961
0002b0 03 38 1e be b3 e9 b4 bd a4 86 c9 3d 4f 74 4d be
       -0.15451054 -0.08833637 0.09840134 -0.200639
0002c0 07 00 c8 bc 03 49 0c bc 28 89 37 3d dd f1 3e bd
       -0.024414076 -0.008562329 0.044808537 -0.046617378
0002d0 7d b1 64 bd b1 8d b1 bd 3a cb af b9 d9 b6 06 be
       -0.05583333 -0.086696036 -0.00033530017 -0.13155688
0002e0 00 e2 1a be dc af ca 3d 64 c3 b3 3d 59 0f 62 3c
       -0.15125275 0.09896824 0.08777502 0.0137976045
0002f0 e2 98 2f bd db 83 52 be 05 98 35 3d 1b 04 e8 bd
       -0.04287041 -0.20558111 0.04433443 -0.11328908
000300 ac d2 8c bd 34 e1 60 bd 8c b5 85 3c 1c d9 20 3d
       -0.0687612 -0.05490227 0.01632192 0.03926955
000310 34 79 7c 3d 50 21 2c 3d 86 e5 de 3d 79 d8 ca bb
       0.061639026 0.042023957 0.10883622 -0.0061903563
000320 3b 10 49 3d ad 7a d4 bd c7 3b ed 3d e7 f7 40 3d
       0.049087744 -0.10374961 0.11583667 0.047111418
000330 ec 74 07 bd 00 2b 94 bb 7a 2a 67 3c 79 b7 d2 3d
       -0.03307049 -0.0045217276 0.014109248 0.10288901
000340 f6 d6 93 3d c3 1b 5b 3c 3d 58 7e bd a7 db 9e 3d
       0.07218735 0.013373318 -0.06209587 0.07756739
000350 74 2f 3f bd f4 8a 5d be ec 86 95 3d 57 f3 1c be
       -0.046676114 -0.21635038 0.07301125 -0.15327202
000360 45 8f 8e 3d f9 e0 7d 3d 17 f7 20 be 41 16 18 3e
       0.0696092 0.06198213 -0.15719257 0.14852239
000370 50 7b 9c bc ee 5d d8 3d 2f 6a 34 bd d3 04 8d bc
       -0.019101769 0.10564791 -0.044046577 -0.017214214
000380 bf b9 06 3e a2 28 1c 3d 6d f8 4b bd 80 a7 92 3d
       0.13156794 0.038124688 -0.049797464 0.07160854
000390 ca 2d d8 bd ea ce 15 3d ca 5f c1 bd 75 1e b8 bc
       -0.105556086 0.03657428 -0.094420984 -0.02247546
0003a0 99 85 2c bd 6d 3b 25 bd f0 ef 07 3d e4 70 91 3c
       -0.042119596 -0.040339876 0.033187807 0.017754026
0003b0 2f 90 aa bb 20 8c d6 bd f2 d7 aa 3c 43 e5 f4 3d
       -0.0052051763 -0.104759455 0.020854924 0.11957791
0003c0 4b 0f 4f bd c7 19 2e 3e b6 64 38 be 64 42 8a 3a
       -0.050551694 0.17002021 -0.18007168 0.001054835
0003d0 f3 7c 6b 3e 5a ba 2e 3d 92 11 9c bd 72 1d 31 3c
       0.22996883 0.042658187 -0.07620539 0.010810243
0003e0 c6 76 ca 3d e9 18 a8 3b 53 5c c9 bc 35 f6 0a be
       0.098859355 0.0051299226 -0.024580156 -0.13570483
0003f0 ba 65 fa 3d 3f bd 50 3d c2 6e 8d bd 61 88 7b 3d
       0.12226434 0.05096173 -0.06905891 0.061409358

fc.4.bias f4 [32]
000000 01 1e 97 b6 0d a5 49 36 cc 10 3a 36 4b bd 94 b7
       -4.5036436e-06 3.0047406e-06 2.7725937e-06 -1.7731121e-05
000010 08 23 fe 80 6e c2 2d b7 be 10 ac 37 9c 1a 2b 37
       -2.3338783e-38 -1.0356873e-05 2.0511794e-05 1.019859e-05
000020 20 3a 63 b4 d1 9a 0d 37 e3 b1 0c b6 ee b2 01 b6
       -2.1162168e-07 8.440301e-06 -2.096517e-06 -1.9326649e-06
000030 b5 78 a2 37 24 d2 93 37 cb 60 9e 36 3a 68 8f b7
       1.9368113e-05 1.762162e-05 4.720035e-06 -1.7095463e-05
000040 2b bf 62 b8 fa 50 93 b8 3d 04 73 37 e0 be d2 34
       -5.4060638e-05 -7.024589e-05 1.44849155e-05 3.9254428e-07
000050 e8 7d 99 b6 c0 d6 4b 38 e6 ee fb b7 2a 9f 4d b7
       -4.5744127e-06 4.8598973e-05 -3.0032777e-05 -1.225601e-05
000060 c9 93 81 36 67 d8 f7 b7 66 f7 9b 36 ad 18 1f 38
       3.861704e-06 -2.9545465e-05 4.648161e-06 3.7931535e-05
000070 b6 8c 16 b7 c3 d9 77 b7 05 2f d4 b6 30 34 7b b7
       -8.9734585e-06 -1.4773049e-05 -6.323566e-06 -1.4972917e-05

fc.5.weight f4 [32]
000000 30 df 79 3f 17 04 b6 3e d5 7e cd 3e 24 4d e2 3e
       0.9760618 0.35549995 0.40135828 0.4419948
000010 8b b1 ed b9 df 7a 64 3f 55 a1 97 3f c6 96 bf 3f
       -0.00045336442 0.89249986 1.184611 1.4967887
000020 6e dc 7d 3f 72 82 2d 3f d4 3a 81 3f f7 5c 9e 3f
       0.99164474 0.6777717 1.0096078 1.2372121
000030 5a 09 84 3f 62 f5 75 3f 12 f0 42 3f 76 b5 47 3f
       1.0315354 0.9607755 0.7614757 0.7801126
000040 65 f3 27 3f 0d 89 91 3f 73 12 a0 3f ba ab 01 3f
       0.65605766 1.136995 1.250563 0.5065266
000050 e1 e4 84 3f e4 8b 8d 3f 72 46 7e 3f f5 3f 10 3f
       1.0382348 1.1058316 0.9932624 0.5634759
000060 90 01 6a 3f a7 e9 59 3f f4 ae a0 3f e1 aa 60 3f
       0.91408634 0.8512215 1.2553391 0.8776074
000070 29 25 24 3f 04 cc 21 3f 42 ca 4e 3f 53 78 07 3f
       0.641192 0.6320193 0.8077737 0.52917975

fc.5.bias f4 [32]
000000 0f 33 c0 3e d6 3d 80 bd 91 0f 9f bd 51 bd 93 3e
       0.37538955 -0.06261794 -0.07766641 0.28855374
000010 a4 2d 6e bc 92 b5 93 3e 14 7c a7 3e 51 50 fa 3e
       -0.014537249 0.28849465 0.32711852 0.48889402
000020 f0 1e ed 3e 14 b0 66 bd 18 29 a8 bc fd 29 62 3e
       0.46312666 -0.056320265 -0.020527408 0.2208633
000030 0d fe a9 3e b9 b7 d8 3e ee ef 9b 3e 3f c1 63 3e
       0.33201638 0.4232767 0.3045649 0.22241686
000040 aa b9 9b bd 3b 48 aa bd ea c4 a7 3e f7 be 9a 3e
       -0.07603772 -0.08314558 0.3276742 0.3022382
000050 5a 6c 59 3e d1 05 57 3e 8f 19 ad bd 62 ca 8f 3e
       0.21232739 0.20998313 -0.084521405 0.28084093
000060 81 5a b1 3e f8 31 f3 bd 1d d1 89 3e bd f1 9f 3e
       0.34639362 -0.11874765 0.26917353 0.3123912
000070 20 d3 ed 3d b1 f1 4f bd 82 be 1a bd f9 d1 56 bc
       0.116125345 -0.050767604 -0.03777934 -0.013111585

fc.5.running_mean f4 [32]
000000 5a 83 80 be ec 95 a3 bd e9 61 18 be e1 42 bd bb
       -0.25100213 -0.0798758 -0.148811 -0.005775795
000010 f8 5e 8c 3b 8c f4 1a be aa 51 98 3c b8 59 f4 bd
       0.004283782 -0.1513235 0.018593628 -0.11931175
000020 fc b7 a2 bd c2 2c 55 be 73 9d d6 bd 01 c9 34 be
       -0.079452485 -0.20817855 -0.1047925 -0.17654802
000030 bf 00 c2 bd 0d 28 4a be 21 d8 96 bd e4 14 10 be
       -0.094727986 -0.1974184 -0.07365442 -0.14070469
000040 55 a9 4d be 30 1a 16 bd c2 db 7f be 41 25 eb bd
       -0.20084126 -0.036646068 -0.24986175 -0.11481715
000050 e9 3b 31 bd a6 fc 70 bd b9 f0 02 be 4d 89 91 bc
       -0.043270025 -0.058834694 -0.12787141 -0.017765665
000060 70 b2 2d be a9 e1 b1 be 3a d4 3c be f3 70 5d be
       -0.169626 -0.34742478 -0.18440333 -0.21625118
000070 e3 3b 11 be d0 f0 e6 bd f9 2d 5b be 2f 08 44 be
       -0.14183001 -0.112764 -0.21404256 -0.19143747

fc.5.running_var f4 [32]
000000 ec 24 94 3d 37 46 27 3d c3 e3 8b 3d 2c a2 9a 3d
       0.07233605 0.040838446 0.068305515 0.07550463
000010 9d b4 1f 38 77 40 48 3d 3c ba 55 3d c6 e8 97 3d
       3.8076763e-05 0.048889603 0.05217956 0.07417445
000020 42 89 57 3d e5 3c 4c 3d b5 3d ab 3d f7 c6 e6 3d
       0.052621134 0.04986276 0.08361379 0.11268418
000030 da 31 9d 3d 6a a5 88 3d 74 67 d2 3d b3 3b a5 3d
       0.07675524 0.06672175 0.10273638 0.08068027
000040 02 95 36 3d 0f 9e cc 3d 07 21 95 3d d7 85 83 3d
       0.0445757 0.09991085 0.0728169 0.06422012
000050 d3 2e bf 3d 2e d0 5d 3d 8a 15 4d 3d c9 48 7b 3d
       0.09335103 0.054153614 0.05006937 0.06134871
000060 72 29 ca 3d 83 56 39 3d 31 44 cf 3d 5c 14 86 3d
       0.09871186 0.04524852 0.10120428 0.06546852
000070 fb 75 3f 3d 12 2e a8 3d d0 79 90 3d 55 05 c7 3d
       0.046743374 0.08211912 0.07054484 0.09717814

fc.7.weight f4 [2, 32]
000000 24 19 98 3e 3c 86 dd bd 2a a9 ec bd c2 eb bd 3e
       0.2970668 -0.10816619 -0.11555703 0.3709393
000010 d9 64 ba 3b c9 5a 82 3e db 26 94 3e 95 c8 32 3e
       0.0056882915 0.2545989 0.28935894 0.17459328
000020 e7 a3 cf 3e 6b ef 3e be 13 87 b0 be 1e 18 94 3e
       0.40554735 -0.18646018 -0.34478053 0.2892465
000030 cd 13 d6 3e 4a 42 c9 3e 68 7b bc 3e 8a ef 86 3e
       0.41811982 0.39308387 0.36812901 0.2635463
000040 72 7f 94 be 05 c8 ee be fa af 32 3e ac 59 ba 3e
       -0.29003483 -0.46636978 0.17449942 0.3639654
000050 96 b3 9f 3e 80 72 9b 3e ec ba c1 be f5 15 a9 3e
       0.311917 0.30360794 -0.37837923 0.33024564
000060 e3 8f 28 3e 34 2b 61 be 6b 29 08 3e a3 b5 9d 3e
       0.16461138 -0.21989137 0.1329705 0.3080264
000070 03 45 6d 3e 31 dd 54 be d2 52 a9 be c1 2a ea be
       0.23170857 -0.20787503 -0.33071 -0.45735744
000080 89 71 91 be 5e 64 9a 3d ab 1e a6 3e 67 b0 ce be
       -0.28406933 0.07538675 0.32445273 -0.4036896
000090 b8 c3 29 3d 99 c7 b9 be cd 96 7e be 0a ea ec be
       0.041446418 -0.36285093 -0.24862213 -0.46272308
0000a0 e1 d9 b7 be 84 6e db 3e da 0f 99 3e fa 75 6b be
       -0.35908416 0.42857754 0.29894906 -0.22994223
0000b0 ee c9 d8 bd 41 cf 50 be 44 2b ea bd 31 7b ca be
       -0.1058539 -0.20391561 -0.114340335 -0.39547113
0000c0 1d 25 92 3e 6c fd ca 3e 7f e0 99 be 9e 02 dd be
       0.2854394 0.3964647 -0.3005409 -0.4316606
0000d0 f7 cf 38 be 22 8b 94 be a8 29 3d 3e 86 1f ba be
       -0.18048082 -0.290124 0.18472922 -0.36352175
0000e0 31 5d c5 be e7 02 e1 3e 73 0f 9c be d8 ae 81 be
       -0.38547662 0.43947527 -0.30480537 -0.25328708
0000f0 a7 70 5f be c2 b0 71 3e 23 c2 6a 3d 5b 68 64 3e
       -0.21820317 0.23602584 0.05731405 0.22305433

fc.7.bias f4 [2]
000000 0f 13 07 3d cf f1 71 be
       0.03297716 -0.23627399
