hw1/model-5.52295.npy (npy, 1432 bytes, 1 tensors)

array f8 [163]
00000000: d0c8 0574 f668 b13f 5e6d cb38 2b07 8d3f
00000010: c960 afa7 7def b4bf 2caf 1b8c aaf5 ae3f
00000020: 0bae ec46 9a10 a5bf d43d f542 69a5 7bbf
00000030: de03 1449 1f34 b43f 8a54 8309 43c9 74bf
00000040: 8f8c d338 7401 c1bf 56c6 8efa 8a52 b43f
00000050: aaab 4b1f 93e2 803f 49eb e0a9 8939 a03f
00000060: 181b 6ccb 2274 c43f 9f04 7b63 5029 813f
00000070: 1cea 03b2 d9f7 a1bf ed83 0309 de4d b63f
00000080: cf56 3bb9 79eb b73f 9e1e c3c3 ea1f c93f
00000090: a8bb edea 7aa6 dc3f 06a0 3b5e 675c 903f
000000a0: 3d13 f736 1a17 be3f e026 1d0f bff4 ba3f
000000b0: 7b6e 3958 d1f9 e1bf 0487 6700 96c4 e13f
000000c0: 3c9e ffa6 e4c7 c3bf db2f f935 0b08 dcbf
000000d0: e058 a903 ee6b d03f 7cc5 7272 2b4d f13f
000000e0: 9f4f c36f c6b9 d8bf a21a f61d 00df ea3f
000000f0: 550a a36d 71d7 d73f f2c4 00bb 22cb dfbf
00000100: 4869 e2ab 2187 db3f 4d54 f7ff 5dcf cc3f
00000110: 90c8 174b 7b70 c6bf bd70 5761 23aa dabf
00000120: de66 7dc3 367d de3f 7b4a ad83 cd0d ac3f
00000130: 2bda 14bf 2816 833f f3cc f947 b172 b43f
00000140: f79d 7760 ed81 b8bf f544 b75d 77ca 82bf
00000150: e35e eb7f c053 babf da4f 320a bad4 21bf
00000160: fb7c d35d 3eb1 a23f 84a6 010f fbc1 c0bf
00000170: 6914 3fb9 ea67 a43f cd6f 0e5e 4eb7 a4bf
00000180: 0bdb 9efd f825 97bf 9d52 9a3c aec3 bcbf
00000190: f28b bc30 41ad 97bf 21fe 650c 6e04 80bf
000001a0: f5fb 6ea4 0aba bcbf 828f 5343 12fd babf
000001b0: d429 d7bb ab48 c23f fd1b 21c7 9b1e 92bf
000001c0: 7ff6 6f14 f695 a0bf df12 f168 525f 8b3f
000001d0: b9ef f71a 8b85 b13f 3487 e326 707f 9a3f
000001e0: 13e4 34f3 927c 9d3f c820 b87b daf1 973f
000001f0: b0c6 c673 5926 a63f e044 89ea 0d5d b93f
00000200: 0dfb 8284 ee38 893f 3283 40db fda5 823f
00000210: 210b bb8d afe0 7bbf 60b0 5a3d 16c5 98bf
00000220: 2735 d5dd 050d 83bf 7b0d 3cb9 bc39 79bf
00000230: 6a2c 080e 0ad3 a6bf 16b2 398d 5e41 46bf
00000240: 782d 49b9 d66e b63f 198f 83b2 565c 6b3f
00000250: 6dff 22f3 c380 743f abf5 df3c 6c85 7cbf
00000260: e0ac e556 2c07 8e3f 82a9 2f44 8794 90bf
00000270: 9350 a322 970c 8a3f 0043 92f5 33fd 64bf
00000280: 7c14 849c af2f 92bf e78f e9f5 839b b03f
00000290: 0ddd 44e4 f37d a5bf 08b6 b10b f079 a0bf
000002a0: 1005 5dea 7435 d13f db5d 1298 4983 d2bf
000002b0: a31d 4d6f f168 a5bf 25e7 2d37 14e0 e23f
000002c0: 90b0 f92b 336c e4bf 6696 cee6 588d 7f3f
000002d0: 8bf5 d662 ceec ef3f 2404 febd 3bca a33f
000002e0: 2f37 e1a6 765e 6c3f 8b66 90d1 feb8 aabf
000002f0: e713 bdd5 2dea 853f 9d69 2935 0084 a4bf
00000300: 817e 0c12 8297 a53f a52d 96e4 8447 913f
00000310: f7ef 72d3 f3e2 9abf f00f cc93 a4d6 b1bf
00000320: b671 5f0a 75a9 7fbf 3516 78bb 75a7 9f3f
00000330: 0fb6 ab81 eb9e 853f 7bb7 a61b 9e96 a8bf
00000340: 057d 72ed 5c1a 9ebf ba6d 6e7f 1240 a63f
00000350: 2afc 9641 f708 a9bf e92a 2b6a a2e6 843f
00000360: 3819 5cd2 b1d9 8a3f 264e bff3 244d cebf
00000370: 0975 e3e7 92d0 d43f bee6 e375 d37c b6bf
00000380: a3ee 0541 1e64 b8bf a30a f483 2b32 9c3f
00000390: 5737 cdcb a288 ad3f 511a b015 e2c9 bebf
000003a0: bf4c e483 85b6 c03f 8c71 3090 4d82 c23f
000003b0: f467 0901 552c 723f c84b b9f5 ce17 a23f
000003c0: 2cd9 3ee6 852e c83f 7841 1065 c332 b5bf
000003d0: 57b7 48d1 575a 993f bc2c e0cd c46b c63f
000003e0: 31d7 55e4 dfa3 ba3f c5ad dacd 98c5 ab3f
000003f0: 2571 a10c 60db d63f 4b19 157b 34a8 413f
00000400: 4789 e843 f634 633f f95b fb30 9961 2ebf
00000410: d3a4 5eb2 d5c4 5f3f 1162 19e3 e56e 1f3f
00000420: d38b 41c9 3a70 573f 3b4b 1a00 c46b 5bbf
00000430: 4b7f 4bde cb61 453f b806 a3c1 d54c 453f
00000440: 14cb ef76 a498 62bf 5794 5ad8 07f0 57bf
00000450: a93f 0aa5 cf5d 553f c79d f8ac 6c31 5fbf
00000460: 292e f024 3f3f 333f 27ae 9c1a 2fd1 26bf
00000470: f51b ac37 af9f 333f d8b2 6506 b4f1 63bf
00000480: be24 15d2 4d29 2c3f 6508 f55b a8ed ccbf
00000490: f7b2 87c7 bbe4 a6bf 1045 f7ba 1b90 ca3f
000004a0: 691b 7e24 d972 b0bf 5007 11b7 b991 c0bf
000004b0: fcaa 5219 134e a7bf 5831 3a8c 6a04 b0bf
000004c0: a4f8 21bc fc88 71bf 8cf1 7417 06fb c0bf
000004d0: a2e3 0c8e 6006 883f adcf 7ddc 34dc b83f
000004e0: d4d0 42e3 1056 b9bf 9a58 0244 18d1 b7bf
000004f0: 6dce dc02 d111 91bf 5eba 993c bded d33f
00000500: 0b56 421f 322b 93bf 13b9 05e4 4653 c9bf
00000510: 52cf 469e 021b be3f
0.06800785381873031 0.014173829718336858 -0.08177934020875734 0.06046803436569656 -0.04114229312684977 -0.006749545267055141 0.07892032179007866 -0.00507475077048015
-0.13285687231755047 0.0793845044816178 0.008244656937184864 0.03168897818291911 0.15979418690422942 0.008379581485657815 -0.03509407327688427 0.08712566108762561
0.09343682071934299 0.1962865310545014 0.4476611417985006 0.01597749245311777 0.11754001466676996 0.10529703253737521 -0.5617453311092072 0.5552473075769915
-0.1545377555296329 -0.43799095412100336 0.2565875087506253 1.0813402624738435 -0.38633881487225524 0.8397217354948519 0.3725246020004865 -0.49677341711055967
0.43012277398669996 0.22507834432932086 -0.17530766646047313 -0.41663441186916456 0.4763924511986327 0.05479280693420648 0.009319609004347992 0.07987506873341825
-0.09573253255040713 -0.009175236270410706 -0.10284045336754448 -0.00013603945726414665 0.03650851149881792 -0.1309198210977237 0.03985532294567735 -0.0404610147299703
-0.022605791549462 -0.11236084918557272 -0.023121851539268996 -0.007820949319238104 -0.11221376909723786 -0.10542406219206948 0.14284273788355384 -0.017694887188806508
-0.03239411353568488 0.013365405871931411 0.06844396027002987 0.02587676274641311 0.028795524686959405 0.023383535195564048 0.04326133287703493 0.09907614685041066
0.012315619868215966 0.009105666402378174 -0.0068060739101294685 -0.02418932675816199 -0.009302182991314979 -0.006158578111129183 -0.04457885190284901 -0.0006791793516192658
0.08762876533108066 0.0033399289423971077 0.005005612782212993 -0.0069631794012798105 0.01466211929501643 -0.016191590821031727 0.012719326729360858 -0.002562142832694625
-0.01776003258511992 0.06487297776908428 -0.04197656785475532 -0.03218031065703647 0.2688877381043122 -0.28926315165287314 -0.04181627734811435 0.5898533895226349
-0.6382079943555414 0.007703158637843188 0.9976570063078481 0.03865229315034238 0.003463012449208678 -0.05219265278010451 0.010700567326816525 -0.040069586266969305
0.04217153997728663 0.016874386264630243 -0.02625637987215154 -0.06968144043281632 -0.007729966344382102 0.03091224629135621 0.01055702199434008 -0.04802412116565243
-0.02939744185698336 0.04345758252676597 -0.048896528965535715 0.010205525269517195 0.013110532028360752 -0.2367292585537239 0.3252303375755479 -0.08784219387225797
-0.09527768218498038 0.02753513329390479 0.05768307435810865 -0.12026799230088982 0.1305701154711638 0.14460153141488907 0.0044368095846838325 0.03533789395864734
0.18891977064567678 -0.08280583588953572 0.02475869383686499 0.17516384174846233 0.10406302761643073 0.05424191964024375 0.3571395991655371 0.0005388504270420839
0.002344590174531511 -0.00023179049502772256 0.001939018905867497 0.00011990812415641645 0.0014305662234839103 -0.0016736425463121502 0.000652527375304837 0.000650028584708382
-0.002270051212229682 -0.001461036359083031 0.0013041045932915363 -0.0019038735662294402 0.00029368678673400095 -0.0001740808486884054 0.00029943492670308987 -0.0024345890153000087
0.0002148540016071783 -0.22600273599715873 -0.04471384821576934 0.2075228369635984 -0.06425244465763814 -0.12944718779368225 -0.045517536965538924 -0.0625673858978123
-0.0042810318428775675 -0.13266063828804098 0.011730913481743436 0.09711008437244457 -0.09896951244701607 -0.09303428326015464 -0.016669526862826013 0.31138544958131387
-0.01871946636000214 -0.19785390981582704 0.11759964336561993
