hw1/model-best.npy (npy, 1000 bytes, 1 tensors)

array f8 [109]
-0.758505050542237 0.0047193136389477915 0.044735221468261 -0.010311253726484513 -0.04013090675010946 0.028000677904563946 0.03293224549578698 -0.007528392912709544
0.09964175055280967 0.2933809042297241 -0.09170698363742315 0.024103152988630024 0.03494167872914388 0.017226334667854077 -0.06010263558043593 -0.01556352895386395
-0.0424939365525636 -0.15126375837217543 -0.001447077757050064 0.01655514477682744 0.0026019286981239444 -0.02892817961954473 -0.017070443057647728 -0.003303239453001574
0.053521453166422706 -0.0936122945408335 -0.029115800381207122 0.14732163473927126 -0.015817672513373175 0.005493915301444674 -0.01813100928214369 0.009681064064620673
0.019734885211238423 -0.0070383971221451075 -0.020362137174205028 0.038249152596497867 0.026647806137036142 -0.01664984725904662 -0.010009455175746987 0.22630842591813016
-0.28452154440940286 -0.021026826071571695 0.5402201395268157 -0.5693147629745784 -0.02084759027536394 0.9776372792423146 -0.19145569442264404 0.2836731757695498
-0.15834878424333176 -0.1568860629745404 0.05219486740185467 0.15020627212643797 -0.21636419391289133 -0.11568163979509005 0.5124436326262644 0.0009772223410969697
-0.003811220278042345 -0.001324700336530156 -0.0003545200589714867 0.0005840935933159686 0.0017330839764532384 -0.002089446128457722 -0.004492152832255405 -0.00041051585850535515
0.0017857727099902187 -1.0834254190651007e-05 0.000605712374699345 -0.000628800980542072 0.000883994400618249 -0.0005171549004535372 0.00021418212830677066 0.0035943579028087686
0.0004408410015542996 -0.00011464128152563073 -8.626419246916223e-05 0.0003267819711579974 7.814567690105267e-05 -8.331758266502352e-05 -0.00048123807178258605 0.0004469698281552727
7.362105096987217e-05 -0.00043249626597256275 0.0001731574664461888 -4.525622766894292e-05 0.00016123140667628023 1.9768309088626626e-05 -0.00040832768385118173 0.00023754244092836314
0.00019940123995417403 -0.0006193356568340366 0.00041915868949073305 -0.0003831647215528991 -0.00015597556112311245 0.00020231715810334631 0.00034947322023163235 -5.165834766977099e-05
0.0001113567244965182 -0.0007272200185805212 0.0006734445294903974 0.00013772090844000855 -0.0018114558212756632 -0.002696999464647379 0.0060865556326237585 0.006651828122323866
-0.0007762216588234412 -0.01004911680475849 0.006534449800711613 0.01636522987366841 -0.03213395041440453
00000000: 64c0 3d62 ac45 e8bf c651 d21b 8f54 733f
00000010: 9bf9 5ef2 88e7 a63f 25bf 490c 111e 85bf
00000020: 23e1 19c8 098c a4bf deb6 76af 35ac 9c3f
00000030: 7ec8 c6ca 7edc a03f 63d9 9f95 17d6 7ebf
00000040: 19c5 f02b 1f82 b93f 3301 3cb3 c0c6 d23f
00000050: 319c 89df 1b7a b7bf 0f40 4437 7fae 983f
00000060: ff69 d12e e0e3 a13f c510 1dc0 c7a3 913f
00000070: 7f58 71cc c5c5 aebf ce03 f07e c5df 8fbf
00000080: de09 8be7 c3c1 a5bf 30a7 a35f 9c5c c3bf
00000090: 350b 0be9 7bb5 57bf 2b8c 96f5 d4f3 903f
000000a0: 3167 47d5 a350 653f 1b54 9845 599f 9dbf
000000b0: e5af a40a ea7a 91bf d2ea 7c2d 650f 6bbf
000000c0: 98e6 f7f5 2967 ab3f 2e70 8eaf f9f6 b7bf
000000d0: 8991 bc49 88d0 9dbf 1366 9971 6fdb c23f
000000e0: fe39 9308 8232 90bf 4d47 bfa8 c980 763f
000000f0: 5520 a46f ef90 92bf c85b 626c aad3 833f
00000100: 3853 4aba 6135 943f 4742 4b57 4bd4 7cbf
00000110: 2ca2 f5e4 cfd9 94bf 21db 0097 6495 a33f
00000120: 4c91 79ff 8f49 9b3f 8210 d855 a80c 91bf
00000130: e87d 0b55 d67f 84bf 7455 10ac acf7 cc3f
00000140: 23bb 0fda 9935 d2bf a1aa 4369 0e88 95bf
00000150: 3910 fdbe 7b49 e13f c362 0398 d337 e2bf
00000160: 747d bb19 1259 95bf f346 b6f9 cd48 ef3f
00000170: 1ad0 16c5 9e81 c8bf f7b0 2b89 b327 d23f
00000180: 40de d7e0 c544 c4bf a340 d6ae d714 c4bf
00000190: a421 0521 49b9 aa3f cbf3 3789 f539 c33f
000001a0: 79cd 7068 d2b1 cbbf 78e5 aadb 4f9d bdbf
000001b0: 378b 6530 f065 e03f bf59 bd7f c402 503f
000001c0: c424 774e b538 6fbf 205b d527 32b4 55bf
000001d0: a975 1e0f dc3b 37bf 52ba c770 bb23 433f
000001e0: 5472 01c0 1465 5c3f d839 3bd9 e21d 61bf
000001f0: c3fc 0c18 5d66 72bf 5926 d02f 50e7 3abf
00000200: 66c1 ccd8 1242 5d3f cbb4 bf8e 98b8 e6be
00000210: 59ed 886b 15d9 433f d3db d4d2 c39a 44bf
00000220: 9c2f 2f85 7bf7 4c3f 027b 34b1 35f2 40bf
00000230: 59f9 1179 c212 2c3f 89db 9034 ea71 6d3f
00000240: 4799 35af 15e4 3c3f d406 3e38 720d 1ebf
00000250: 4ae2 b88a 179d 16bf da28 09e1 7d6a 353f
00000260: 8b0c a781 447c 143f 11e7 c02b 59d7 15bf
00000270: cf48 a7c7 d589 3fbf 0d5f 52cb e84a 3d3f
00000280: 99a2 5c06 a04c 133f a212 6851 1558 3cbf
00000290: 346f 964f 33b2 263f d805 6924 30ba 07bf
000002a0: ee76 ce3c 0722 253f 9e48 45db 83ba f43e
000002b0: d653 560c 9ac2 3abf f034 c807 9a22 2f3f
000002c0: a85a d89b cb22 2a3f 3bb8 1732 5d4b 44bf
000002d0: 2279 fadc 5078 3b3f 8072 b3f2 6f1c 39bf
000002e0: 811e 35de ab71 24bf 6c9c aa27 a384 2a3f
000002f0: 59b2 3d0d 30e7 363f fd13 7a4f 7715 0bbf
00000300: f9ed a8f5 0531 1d3f cebc 3019 5dd4 47bf
00000310: 391d 6b1d 4311 463f 8f71 6f98 250d 223f
00000320: c57c ace0 cbad 5dbf ba88 ef8f 0418 66bf
00000330: 27ce 3256 37ee 783f 5966 e783 f23e 7b3f
00000340: 44d1 cd51 6b6f 49bf 76b0 3da0 a194 84bf
00000350: 0804 1003 dec3 7a3f 644d 65fc 0bc2 903f
00000360: c807 3e74 dc73 a0bf
