model_simple.npy (npy, 2728 bytes, 1 tensors)

array f8 [325]
00000000: 5ec0 043a 61d7 83bf 0af4 eae4 9358 653f
00000010: 61d7 019b 7eb2 643f 3d92 2c31 62df 783f
00000020: a78c 020a b052 723f 0753 3d7e af7f 803f
00000030: 7f29 b8d8 4d54 833f b48e d4b3 cc34 7f3f
00000040: 454a bd1e 0ecf 723f d7a0 10a2 0580 833f
00000050: f7e1 4dba 3e36 90bf f3e2 a6c6 4104 86bf
00000060: 71ac e3e9 a09f 7dbf 0c30 5fbf 7624 85bf
00000070: ee32 0848 1aba 76bf 7d50 e89b a2cd 753f
00000080: 8474 ca80 1867 783f 6d68 7c2d 3fe4 823f
00000090: f8c9 268d 228d 9c3f 4d37 823b 98b2 8d3f
000000a0: 991d c2c0 50f3 b33f 6f32 c115 96d7 a03f
000000b0: e215 fd9a 3411 ac3f e1a4 3f65 e04c 953f
000000c0: 9f12 ed9e 78fe 953f 1d07 8ac8 7fac a33f
000000d0: 5e2e e523 972f c03f 4245 f044 25cd d23f
000000e0: 161f 37fc c38f b0bf fe6a 60d0 f944 99bf
000000f0: 4d8e bf96 247c 83bf caf6 f2fb 2917 a23f
00000100: 1275 2210 b3b9 a53f 05f3 8a20 93d3 62bf
00000110: 25c9 117b a05b 9d3f d76f a78b 83e7 aa3f
00000120: 7a3d d665 f5f1 bf3f 9511 d060 8cae a4bf
00000130: ef3a 3a23 005a 91bf 3480 c2ba 7337 683f
00000140: 0df0 0399 1297 89bf 2437 9060 8cd6 a9bf
00000150: bfbd c189 0ea0 92bf c94c 36ce 8a41 713f
00000160: cf33 839d 9467 afbf a4f8 3777 b078 b1bf
00000170: 0681 e17c ea5f 87bf e87d d6ec 323f 3ebf
00000180: 956f cefb cf97 7d3f ab53 d979 0414 793f
00000190: 613d 5144 86cb 60bf 1f7c 0a23 fc4a 87bf
000001a0: 9aea 384f fa77 803f 2bf3 e08a 48f6 a33f
000001b0: f688 6ccf 4210 b73f a9d0 4198 61a5 8fbf
000001c0: 1bd3 9731 46d6 5abf b613 14f0 d644 803f
000001d0: 9b5a f629 9f50 833f 7872 5253 f8b2 72bf
000001e0: 2a5e 4970 606e 89bf 2df6 4d41 7c03 7b3f
000001f0: 8bc0 c6ab ffba 9b3f d0b2 d7f0 e6d2 b03f
00000200: 21a9 4e61 6734 7a3f c7c8 3ee6 43d0 80bf
00000210: 4100 5f0f 6944 87bf e979 578c 2aba 8bbf
00000220: fc5d d501 61ac 82bf 8dca 3db4 7f2a 6fbf
00000230: 4d39 ce93 7698 91bf 409d 0831 e303 973f
00000240: cf48 f665 8483 b63f 1157 133d 7d70 70bf
00000250: 3a9e 4a5d ba6e 7bbf 7e61 03bf d7c6 463f
00000260: 3c46 5d80 fa9d 823f dd6d dde2 221f 803f
00000270: f2d3 fb72 e5de 85bf 6d12 6bdc 58d6 87bf
00000280: dd89 9ca1 91f3 9b3f 4fdd b013 b865 b03f
00000290: 8a5a 9ce0 982b 943f 8823 e597 ccfc 513f
000002a0: 29da 07e7 19a2 953f d4b3 22b2 66f9 89bf
000002b0: 43b4 2eb0 05ff 983f 7b3a 159b 5bf8 ab3f
000002c0: 4600 74e0 cd04 b4bf 16ca cefe 691f c43f
000002d0: 4ae6 4293 f56f e03f ab55 0929 73aa b3bf
000002e0: b1ac bce7 7be3 b9bf 2321 92f5 cbb9 b7bf
000002f0: d8c6 0542 1222 a63f e81f 0dbe f727 b1bf
00000300: 7d4f 5a92 ffef aa3f f235 dfc1 a41a 9bbf
00000310: 43fe 3b2d d583 c4bf 9cd2 7b96 6e48 cabf
00000320: 0b1c 47c1 ebcc 48bf 166a f231 beae 5ebf
00000330: 6eae 3c19 4451 73bf f6a3 000b b4eb 80bf
00000340: 3a1e 0e94 8851 7bbf 723e 92cc c608 6fbf
00000350: 08e7 c37d a597 73bf dd25 d8fe b3f8 65bf
00000360: 556b 4b3c de7b 53bf 2b57 e63e 24cf a6bf
00000370: 50a2 9fe0 58c1 a03f 8244 beb8 59d9 90bf
00000380: ae87 d9d8 07ca 98bf 3909 21da 0336 92bf
00000390: 9da5 b499 8e86 71bf ad19 9f96 ff6c 76bf
000003a0: 63c9 c64f e9ed a73f 94a5 3c25 314e c03f
000003b0: 4b14 6fcc b67a 92bf 7fba 5b78 8e0e 90bf
000003c0: f6a3 d02b d6d7 87bf b88c f123 c744 89bf
000003d0: 1113 b557 d23b 49bf f537 2e28 2321 7e3f
000003e0: c9ad 8bfe bf42 793f e1bc fc67 5f92 7a3f
000003f0: 4c55 1b59 c516 a03f d9fd 8bc2 b5a7 76bf
00000400: 58cd 11b6 c1ea 833f 0385 d994 0a84 413f
00000410: 7cec f53c a2b5 67bf 26a8 1687 4078 79bf
00000420: 6d91 bb4d 5ef3 673f a08f b810 8e65 663f
00000430: 825a 37e0 f408 55bf 617b bf65 dd84 773f
00000440: 2a7f c087 1998 4b3f e1d2 e1de 1d6e 76bf
00000450: 02df 0038 81f4 763f fead eeef 319d 47bf
00000460: 455d fcbd 27a2 653f 6496 a852 e2dc 4fbf
00000470: 566e 133d 563f 843f adf4 40f6 bcf8 803f
00000480: 4f4c c84a 0429 843f 4250 dc2b fbd1 9abf
00000490: 67be a894 8f3f 98bf eb7a 98f2 8588 823f
000004a0: 914f 0add c7ff 87bf 94fc e0a5 09ef 90bf
000004b0: c798 803c ddc6 9cbf 2206 683f fdee 9dbf
000004c0: 2b15 1eb9 a954 a6bf 6327 be5e 5e6c a3bf
000004d0: fe52 d19a 35ed 6ebf f5ba ab49 03fd 913f
000004e0: 21c8 6cd9 0f8c 4bbf 18a5 47a9 29df 513f
000004f0: 2232 04e0 8425 613f 67fe bf7e abf7 853f
00000500: be55 63fb 66b8 a2bf c33e baad 50fb b1bf
00000510: 3af8 bf1b 7656 9ebf bf12 9c0f 1404 423f
00000520: 0ae8 5941 86d7 61bf 068b 9aa5 f0a8 653f
00000530: 748a 4ad5 211b 62bf 3eec 464b fb47 513f
00000540: 2a19 7926 d5f3 593f 8fff bf36 b77d 68bf
00000550: 8394 9131 9959 7fbf d800 31c5 6da6 7c3f
00000560: 2c28 ebee 120b 92bf 3c40 6cde cfe7 85bf
00000570: 9c0f 3ea4 58d4 6cbf 85ff 67b8 48a7 79bf
00000580: 4a53 0d83 6e0e 22bf b43e de2b 15f3 873f
00000590: b405 0ba8 532c 8f3f 80ad 8fe8 24af 9a3f
000005a0: 0ed7 d015 19ee ab3f 2e45 ea1c f207 a7bf
000005b0: c31d e7b6 324a bcbf 850d 8ef7 3e85 a23f
000005c0: 7e8e a13e d5b1 acbf 1d80 4bc8 5e49 b83f
000005d0: d703 fa47 32e5 83bf b763 f2b5 7ca3 aabf
000005e0: 7e45 bac6 b879 633f 4ae0 9ef3 e866 ac3f
000005f0: cd74 c48a 7b1d b1bf 46b0 e515 581a b5bf
00000600: 0939 0518 48f3 b7bf 2f13 8743 87dc c53f
00000610: 759d cfba e5b1 cd3f a3e2 a83d 89a3 babf
00000620: 79c9 ccfc d86e aabf 11df 046e 0d11 c4bf
00000630: cf6f 5f9a ee9b a3bf ccac 2e3b 558c 873f
00000640: c44b f61a 6547 4fbf ede3 d37c f69c 823f
00000650: 3f76 1c51 5c24 91bf d57d 9f8b 9922 893f
00000660: ca60 a615 b442 86bf e702 44d3 92a4 89bf
00000670: 202e 13b6 ce1e 81bf b532 6a5f 8a6f 8b3f
00000680: e07e b565 ef1d 773f 70f0 2d41 5e45 66bf
00000690: 770a 2a3a 5a7f 4a3f ce8b 8ebe 13d5 7bbf
000006a0: 656e 0130 eb6e 6d3f 56f6 038a 6d34 60bf
000006b0: 9818 a1bf d3e8 7abf b439 5dab 63af 84bf
000006c0: a513 8068 9143 803f 1ced 9885 f19c 67bf
000006d0: 7f6d 3492 1791 453f 88f5 96e0 db23 59bf
000006e0: c723 4763 fc11 723f 61c0 5aec 3a77 64bf
000006f0: 2b46 9fd5 3753 623f e172 aaad f3cb 6e3f
00000700: c7cb 47c7 3f65 773f 25e1 e39c 5221 70bf
00000710: b4cd ff94 2c93 1dbf d6e4 fa39 1feb 203f
00000720: d842 1958 6f3b 113f fbd6 52ef 55ba 07bf
00000730: 6151 9a93 9891 063f 03bc 000e 8e50 24bf
00000740: 2823 59fd 5abe 0c3f c25e c995 e17c 23bf
00000750: 0ded dcc9 c8d3 21bf 187c dfcc 9545 203f
00000760: 3c57 d72f 056c f63e 0c6a fccb dbf3 16bf
00000770: 0fe3 56f7 623c 2f3f 5231 3598 23f0 3cbf
00000780: c39d 53fb ba30 0a3f 5f9d e4d7 146a 3c3f
00000790: 6e4d d72e 59ec 40bf 587e 4ad4 1014 01bf
000007a0: 13be aeeb 9424 4abf 4fd3 dad2 ded5 2c3f
000007b0: f3fb 7bc5 16de 573f bc6b 17b8 e881 5fbf
000007c0: bf86 5e04 423d 053f 9017 b6e8 9258 703f
000007d0: cb45 d5ea 7dd1 75bf d33c 54de 5235 51bf
000007e0: 46f9 92f4 3964 743f 5310 adeb 04b4 613f
000007f0: 8051 faae 5e00 5d3f ac03 8212 3081 4c3f
-0.009688148100934931 0.0026057137068549218 0.002526519085274723 0.006072410166585271 0.004473388340701912 0.008056040802026055 0.009438141037226398 0.007618713015549328
0.004591994434877626 0.009521526344613935 -0.01583192836867117 -0.010750306963801281 -0.007232311791294342 -0.010323455538944891 -0.005548575078603275 0.005323062125644038
0.005957694735710398 0.009224408698674769 0.02788213717003349 0.014500798526821202 0.07793144899380024 0.03289479270515449 0.05481876747084492 0.020801073245739658
0.021478542995526536 0.03842543910015037 0.12645234348962026 0.29377109272271096 -0.06469368846512355 -0.02467718443231614 -0.009514127588722188 0.03533297730016967
0.042432399482303165 -0.0022981523109976165 0.028669841300549188 0.05254756049882275 0.12478574501277775 -0.040394198244061354 -0.0169448873044144 0.0029561291067494947
-0.012495179457339156 -0.05046499899627424 -0.018188693197257907 0.004212896546408725 -0.06133713171730159 -0.06824782286273262 -0.01141341394048868 -0.00046153062143080995
0.007224857746134368 0.006122605785624661 -0.002050173034639322 -0.011373491114964605 0.008041339438127171 0.038988367989509186 0.09009187282621042 -0.015452158411996502
-0.0016380010114264768 0.007943801118480791 0.009431117504204159 -0.0045652103628098725 -0.012417558123316647 0.006595120784252323 0.027080530986211698 0.06571811084695445
0.0063976324353609846 -0.008209734405543746 -0.011360951215351746 -0.013538677604569354 -0.009117849224522516 -0.003804444715507066 -0.0171831634248119 0.02247576700952192
0.08794429292018723 -0.004013528073490994 -0.006697395311369864 0.0006950906227088242 0.009090382616395158 0.007871887729996746 -0.010679047175907262 -0.011639303423529779
0.02729632901094613 0.06405210953459071 0.019697560032990093 0.0010978696805798733 0.021126179433816148 -0.012682726203218232 0.02441033256370796 0.05462919490911574
-0.07819830636799549 0.15720868055139253 0.5136669040868551 -0.07681960822932037 -0.10112738044397208 -0.09267878289586355 0.04322869354190367 -0.0670161093704561
0.05261229192288306 -0.02646882470417284 -0.16027321537693426 -0.20533544872127585 -0.0007568503520410953 -0.0018727166532587262 -0.004716173181616419 -0.008262068353433332
-0.00666955328859547 -0.0037883646769570284 -0.004783293199801759 -0.0026820674454526142 -0.0011892004269415575 -0.04454911487407139 0.03272512189852661 -0.01645412626345833
-0.02420818577809996 -0.017784176052608933 -0.004278714211332438 -0.005475042717029072 0.04673699473223072 0.1273862296887215 -0.01804624197736286 -0.015680528732384232
-0.011642144405486814 -0.012338214668665123 -0.0007700707496175204 0.007355820972305684 0.00616717336445611 0.006487248115987416 0.031423728110591215 -0.00553103446941302
0.009725106591054342 0.0005345393817145775 -0.0028942269051959717 -0.006218196927344299 0.0029236642711671285 0.0027339720452505684 -0.0012838736882848927 0.005741944154549512
0.0008421063098502425 -0.005476109201585117 0.005604271660608397 -0.0007206434091719391 0.002640798207618341 -0.0009723763553821205 0.00988643049134123 0.00828693033701663
0.00984385827272241 -0.026191639472998192 -0.0236799654468868 0.009049459901743847 -0.01171833175002471 -0.016536856412355208 -0.02810235673691677 -0.02923198413373574
-0.04361467728362308 -0.03793616205719166 -0.0037752196281338737 0.017566729899892903 -0.0008406712903250604 0.0010908037994517613 0.0020930857864469724 0.010726299100496562
-0.03656312769605162 -0.07024101487535987 -0.02962669891712031 0.0005498025850277573 -0.0021779653714562074 0.0026440334448393247 -0.0022102032474589587 0.0010547594111887239
0.0015840131326441778 -0.0029896334071963303 -0.007653807079894939 0.006994656362678785 -0.017620368797715155 -0.010696052527720316 -0.0035192233353331225 -0.006263050140205344
-0.00013775919935690224 0.011694112206697006 0.0152212653787299 0.02605874700013322 0.054550918496188414 -0.04498249628989935 -0.11050717320823993 0.03617283603582692
-0.05604425801791722 0.09486954107296737 -0.009714501210739286 -0.05202855797796906 0.0023773774062837974 0.05547264074215315 -0.06685611856342462 -0.08243322882270929
-0.09355593286929688 0.17079249188659548 0.23199149724608117 -0.10405786280979128 -0.05162695012986069 -0.1567703997804917 -0.03829904207643119 0.011498132580376817
-0.0009545558622668861 0.009088445362509712 -0.016740267229684355 0.012273025105911476 -0.010869414244368509 -0.012520930359188621 -0.008359541827665018 0.01339634040530178
0.0056437827546173824 -0.002718624201802959 0.0008086386263389107 -0.006795003057876904 0.0035929292207990565 -0.0019781245647425933 -0.006569697516232285 -0.010100153605574792
0.007941375733943998 -0.002882453653709439 0.0006581654637644456 -0.0015344283332149062 0.004411683931217553 -0.0024982596249501364 0.002236947108919881 0.0037593612044716095
0.005711793074158095 -0.003938029009298104 -0.00011281928641420394 0.0001290774935023611 6.573550310774322e-05 -4.525732757924662e-05 4.304644467115443e-05 -0.00015498861375948256
5.48240201792615e-05 -0.0001486802456322958 -0.00013601137191608 0.00012414411179315142 2.138324179220347e-05 -8.755711587264003e-05 0.00023831089099048865 -0.0004415594960007946
4.995413420677164e-05 0.00043356903906262805 -0.0005164561713918833 -3.2574428165729654e-05 -0.0007978179122484795 0.0002199968816306804 0.0014567587258509345 -0.001923062577012343
4.051072805501048e-05 0.003990720618622393 -0.005326740135687523 -0.0010503110182218847 0.004978395832209442 0.002161035166325967 0.0017701077121375641 0.0008698925712594583
