hw8/model.pt (torch_old, 229561 bytes, 88 tensors)

model.0.0.weight f2 [8, 1, 3, 3]
00000000: 0030 7eb4 4e34 1f29 a2b8 0a2c 0ca8 d331
00000010: 63b0 3633 f632 6930 4a32 c034 62b2 92b0
00000020: aaae 49b6 3834 73a3 ffb3 9c33 65b8 81a8
00000030: 402c 1533 ff2e 7536 7f2e 8daf bdb2 e934
00000040: 00ad 61b4 c530 b5ac 0630 7434 6d37 6ab1
00000050: ddab 93b2 a1b2 cb34 0531 aab0 0ab4 a334
00000060: a6b4 eab4 e531 1534 5b31 af2d 71af bbb4
00000070: 5231 b238 c431 84ac fdae ec2b 57aa 1322
00000080: 69af dc32 e231 53b9 ceb3 bf30 09b4 501e
0.125 -0.2808 0.269 0.04 -0.579 0.0631 -0.03162 0.182
-0.1371 0.2253 0.2175 0.1378 0.1965 0.2969 -0.1995 -0.1428
-0.1041 -0.3928 0.2637 -0.01455 -0.2499 0.2378 -0.5493 -0.0352
0.0664 0.2213 0.1093 0.4036 0.1015 -0.118 -0.2106 0.307
-0.0781 -0.2737 0.149 -0.07355 0.1257 0.2783 0.464 -0.1692
-0.06143 -0.2054 -0.2072 0.2996 0.1569 -0.1458 -0.2524 0.2898
-0.2905 -0.3071 0.1842 0.2551 0.1674 0.0888 -0.1163 -0.2957
0.1663 0.587 0.1802 -0.07056 -0.1092 0.0619 -0.04953 0.01186
-0.1158 0.2144 0.1838 -0.6655 -0.2439 0.1483 -0.2522 0.006165

model.0.1.weight f2 [8]
00000000: 053b fd39 7c35 f638 1231 6737 a22e 9f38
0.8774 0.7485 0.3428 0.62 0.1584 0.4626 0.10364 0.5776

model.0.1.bias f2 [8]
00000000: b39d fe2e b832 1aac 802f 0531 a9ae eb30
-0.005566 0.10925 0.21 -0.0641 0.1172 0.1569 -0.10406 0.1537

model.0.1.running_mean f2 [8]
00000000: 651e b49c 3697 139c 76a3 0c8f fe9e d222
0.006245 -0.004593 -0.0017605 -0.00398 -0.01457 -0.00043 -0.00683 0.01332

model.0.1.running_var f2 [8]
00000000: eb29 df2a 2c26 e326 922f 3927 5c29 c930
0.04623 0.05368 0.02411 0.0269 0.1183 0.02821 0.04187 0.1495

model.1.0.weight f2 [8, 1, 3, 3]
00000000: ff32 0415 09af 9a2f c5b1 9fa6 d4b3 d634
00000010: 5eb9 bfb2 d5ad 4531 c8aa dbb4 41ae 77b0
00000020: e7b1 8d34 ea2c 7cae d734 56b3 efb8 402c
00000030: e7b0 9c34 859d e12d 26b2 f2b7 64ac a634
00000040: 6e9e d329 8230 5534 6cb5 30a4 9fb2 c52c
00000050: e736 afb2 b134 e925 8a2d 2a32 62ae cf29
00000060: fda7 5c31 dc2e 7131 e4b8 d6b2 6129 be32
00000070: 99ad fdab 0c25 e134 8a9d 9235 7339 5bab
00000080: f9b4 c02c 62b3 981d f1b2 a636 da35 589f
0.2186 0.0012245 -0.1099 0.1188 -0.1803 -0.02586 -0.2446 0.3022
-0.671 -0.2108 -0.0911 0.1647 -0.05298 -0.3035 -0.0977 -0.1395
-0.1844 0.2844 0.0768 -0.1013 0.3025 -0.2292 -0.6167 0.0664
-0.1532 0.288 -0.00539 0.09186 -0.1921 -0.4966 -0.0686 0.2905
-0.00628 0.0455 0.1409 0.2708 -0.3389 -0.01636 -0.2069 0.0745
0.4314 -0.2089 0.2932 0.02309 0.08655 0.1926 -0.09973 0.04538
-0.0312 0.1675 0.1072 0.17 -0.6113 -0.2136 0.04202 0.2107
-0.08746 -0.0624 0.01971 0.305 -0.00541 0.3481 0.681 -0.05746
-0.3108 0.0742 -0.2307 0.005463 -0.2169 0.4155 0.3657 -0.00717

model.1.1.weight f2 [8]
00000000: f232 5b33 3838 e434 6e3a bf37 b831 4036
0.217 0.2299 0.5273 0.3057 0.8037 0.4841 0.1787 0.3906

model.1.1.bias f2 [8]
00000000: 5b31 bb36 2f35 9d31 35a6 f237 c2ae 1d36
0.1674 0.4207 0.324 0.1754 -0.02425 0.4966 -0.1056 0.382

model.1.1.running_mean f2 [8]
00000000: 37b2 83b2 49ae 1825 5025 66ac 4722 9a20
-0.1942 -0.2035 -0.0982 0.0199 0.02075 -0.0687 0.01226 0.00899

model.1.1.running_var f2 [8]
00000000: 152f 752e 3328 a129 2e19 e728 1f14 7c24
0.11066 0.1009 0.0328 0.04398 0.00253 0.0383 0.001006 0.01752

model.1.3.weight f2 [8, 8, 1, 1]
00000000: 04b1 d5ae e430 43b1 852c 0436 9e37 79b1
00000010: 7f2d 05b4 2d30 2834 7eaf 4e38 be2c 0931
00000020: 14b1 63b5 ca31 2337 6b32 23b4 c12d 6b2d
00000030: cb30 5faf e534 a531 1cb0 c2ad 6cb0 f436
00000040: daaf 0cb5 22b0 f5b6 5eb5 3931 1eb5 db37
00000050: d82c 9db0 a1b5 f133 bcaf 4434 2db1 22b2
00000060: 4d36 6032 6432 fcb2 bca3 2935 ac31 2da4
00000070: fa32 d236 00a2 8931 402e 0d32 0d34 1c2c
-0.1567 -0.10675 0.1528 -0.1644 0.0706 0.376 0.476 -0.171
0.0859 -0.2512 0.1305 0.2598 -0.11707 0.538 0.0741 0.1573
-0.1587 -0.3367 0.1809 0.446 0.2006 -0.2585 0.0899 0.08466
0.1498 -0.1152 0.306 0.1764 -0.1284 -0.08997 -0.1382 0.4346
-0.1227 -0.3154 -0.1292 -0.4348 -0.3354 0.1632 -0.3198 0.491
0.0757 -0.1442 -0.3518 0.2482 -0.12085 0.2666 -0.1617 -0.1917
0.3938 0.1992 0.1997 -0.2183 -0.01511 0.3225 0.1772 -0.01631
0.218 0.4263 -0.01172 0.173 0.09766 0.1891 0.2532 0.0642

model.1.4.weight f2 [8]
00000000: 4034 9233 e434 ec33 6534 7233 5c33 b931
0.2656 0.2366 0.3057 0.2476 0.2747 0.2327 0.23 0.1788

model.1.4.bias f2 [8]
00000000: 1e38 592f 8e30 0934 c51e f32c a1af 7037
0.5146 0.1148 0.1423 0.2522 0.00661 0.07733 -0.1192 0.4648

model.1.4.running_mean f2 [8]
00000000: c42f 9935 7fab 7933 60af f5ae f835 d936
0.12134 0.3499 -0.05856 0.2335 -0.11523 -0.1087 0.373 0.428

model.1.4.running_var f2 [8]
00000000: 0e28 052a 8d2a ef29 782d 5a28 a125 1925
0.03168 0.04703 0.05118 0.04636 0.08545 0.034 0.02199 0.01991

model.2.0.weight f2 [16, 8, 3, 3]
00000000: 142e 2828 9aa9 7db1 122e 97a6 6a2e 4732
00000010: 94af 922c 21b3 0230 69af 63b3 d02c f1a6
00000020: f52d 7fac a62f 672d f52f 14a9 a7ae bfae
00000030: 09b0 b3ac 14af 9931 9b26 19ab 13af 54b4
00000040: 4231 57b4 b4b0 99ae ea25 ffa7 b510 73b0
00000050: 77ad 5d32 28b0 b3b2 aea1 8a2a 9dae 2c23
00000060: 4b2f 49ac 07ad e030 d829 e0a9 d9af 3aa7
00000070: f028 07af df2b 152c f830 1031 a32c f729
00000080: 0aae eb26 5928 18b0 34ac 3734 7b31 5fb1
00000090: c12a ee33 90b1 1233 ff23 9db6 cf28 cea3
000000a0: 4eaf f0a2 82b0 79ae ea9f f029 56af 4d2e
000000b0: b32e ce30 fd28 01a8 322e aeac f1ae 9aad
000000c0: 4d2a d29d 96a6 89b1 1daf 4cae b7aa a224
000000d0: d322 c52f d42a 5f23 eb2f 6fac 472d be2c
000000e0: d4b0 30b0 ff24 1ba7 94a7 baad 0430 bdb1
000000f0: 6ead ca2d c82d d4ac 0f2f c231 77ae 3bb3
00000100: a02c 66b0 92ac e0ad 45b1 0db1 7eac 4431
00000110: 66af 49ab d71a 52b3 51b4 aaab cda9 c7b3
00000120: b7ab 93a0 9aa9 ca30 4934 9220 3bb3 47b1
00000130: 822d 8fb1 48b0 f4ac 6a28 df34 2c2e d5a8
00000140: b12d 26a5 d22e f22b 4fab 88b0 bfaf 9faf
00000150: 812c d931 b32d 55ac 89b3 55a5 4ea6 07ae
00000160: e030 9f30 7831 9e2a a5ae 95ad 1422 c92e
00000170: 662d 1331 b520 7220 c32a beb0 32ab 6ba2
00000180: 9223 5533 ea2e 30ad 90a8 2e2f ff2d 9729
00000190: a92e 5dae 8bb0 c6a3 d0ad c61f b31e 96b0
000001a0: 1fad 3cac c530 8430 7e2f 71ae c11f 302e
000001b0: 7328 6b2e 01b5 022e ad30 78aa 0e30 1727
000001c0: 7cad 6daf c22c 78b1 9331 ac34 65a8 a524
000001d0: 49ae b7ad a21f 622d 9e29 a629 4f30 6b96
000001e0: 0d2c 692c 91aa d8ae b62c f7ac b82c 2532
000001f0: 8a28 57aa fbaa 53aa 05ad d625 a6ad be24
0.095 0.03247 -0.04376 -0.1715 0.09485 -0.02574 0.1002 0.1962
-0.1184 0.0714 -0.2228 0.1252 -0.1158 -0.2308 0.0752 -0.02711
0.0931 -0.07025 0.1195 0.0844 0.1243 -0.03967 -0.10394 -0.1054
-0.1261 -0.0734 -0.1106 0.1749 0.0258 -0.05545 -0.11053 -0.2705
0.1643 -0.2712 -0.147 -0.1031 0.0231 -0.03123 0.0005746 -0.139
-0.0854 0.1989 -0.1299 -0.2094 -0.01109 0.0511 -0.10333 0.01401
0.11395 -0.06696 -0.07855 0.1523 0.04565 -0.0459 -0.1226 -0.02823
0.03857 -0.1098 0.0615 0.0638 0.1553 0.1582 0.07245 0.0466
-0.09436 0.02702 0.03397 -0.1279 -0.0657 0.2634 0.1713 -0.1678
0.05276 0.2478 -0.1738 0.221 0.01562 -0.4133 0.03757 -0.01524
-0.11414 -0.01355 -0.1409 -0.10114 -0.00773 0.0464 -0.1146 0.09845
0.1047 0.1501 0.03897 -0.03128 0.0968 -0.0731 -0.10846 -0.0875
0.04922 -0.005684 -0.02573 -0.173 -0.11115 -0.0984 -0.05246 0.0181
0.01333 0.1214 0.05334 0.0144 0.1237 -0.0693 0.08246 0.0741
-0.1509 -0.1309 0.01952 -0.02776 -0.0296 -0.0895 0.1255 -0.1793
-0.08484 0.09045 0.09033 -0.07544 0.1103 0.1799 -0.101 -0.226
0.07227 -0.1375 -0.0714 -0.0918 -0.1647 -0.1578 -0.0702 0.1646
-0.1156 -0.05692 0.00334 -0.2288 -0.2698 -0.05988 -0.04532 -0.243
-0.06027 -0.008934 -0.04376 0.1497 0.2678 0.00893 -0.226 -0.1649
0.08606 -0.1737 -0.1338 -0.0774 0.0345 0.3044 0.09644 -0.03775
0.0889 -0.02011 0.10657 0.06207 -0.0571 -0.1416 -0.12103 -0.1191
0.0704 0.1827 0.08905 -0.0677 -0.2355 -0.02083 -0.02463 -0.0942
0.1523 0.1444 0.1709 0.0517 -0.1038 -0.0872 0.01187 0.106
0.08435 0.1586 0.00919 0.00868 0.05283 -0.1482 -0.0562 -0.012535
0.014786 0.2291 0.10803 -0.08105 -0.03564 0.1122 0.0937 0.04367
0.10406 -0.0994 -0.142 -0.01518 -0.0908 0.00759 0.006542 -0.1433
-0.08 -0.06616 0.149 0.1411 0.11707 -0.10065 0.007572 0.0967
0.03476 0.1003 -0.3127 0.0939 0.1461 -0.05054 0.1267 0.0277
-0.0857 -0.116 0.07434 -0.1709 0.1742 0.292 -0.03433 0.01814
-0.0982 -0.0893 0.007454 0.0841 0.04388 0.04413 0.1346 -0.001567
0.0633 0.0689 -0.0513 -0.10693 0.0736 -0.0776 0.0737 0.192
0.03546 -0.04953 -0.05453 -0.0494 -0.0784 0.0228 -0.08826 0.01852

model.2.1.weight f2 [16]
00000000: dd38 f838 fb38 1938 b834 4738 f72d c530
00000010: 5b2c c437 1739 ec34 563c 1d35 742d b92e
0.608 0.621 0.6226 0.512 0.295 0.5347 0.0932 0.149
0.06805 0.4854 0.636 0.3076 1.084 0.3196 0.0852 0.10504

model.2.1.bias f2 [16]
00000000: ba2c d032 552a e92c b32c b62d ad2c 512e
00000010: 232f 32b0 4f35 f632 49a7 c234 4532 3d31
0.07385 0.2129 0.04947 0.0767 0.0734 0.08923 0.07306 0.0987
0.1115 -0.1311 0.3318 0.2175 -0.02846 0.2974 0.1959 0.1637

model.2.1.running_mean f2 [16]
00000000: 52b0 7bb8 cc30 243a e6b6 34b7 aeb5 aa38
00000010: ff36 d039 c9b6 a914 bdaf 1828 f32a 5234
-0.135 -0.56 0.1499 0.7676 -0.4312 -0.4502 -0.355 0.583
0.4373 0.7266 -0.424 0.001138 -0.1209 0.03198 0.0543 0.27

model.2.1.running_var f2 [16]
00000000: 112f 882e 8a2d ec2f b72f a730 002b ac2e
00000010: 722f 842e 8b2e 632b 1a30 cb30 8a2d 872e
0.1104 0.10205 0.08655 0.1238 0.12054 0.1454 0.0547 0.10425
0.11633 0.1018 0.10223 0.0577 0.1282 0.1498 0.08655 0.102

model.3.0.weight f2 [16, 1, 3, 3]
00000000: 9832 abb1 f7b3 ca2b fab7 8bb4 b89c e92e
00000010: e2ac 4fb3 8a35 8828 c9b2 e636 25b2 d228
00000020: 27ac e62d 1bb2 75b1 eb2b 43b2 31b5 ff30
00000030: 7cb0 9ab2 602e 2b2f 8d30 0eac aa32 3630
00000040: 6f34 f333 4932 4233 6d34 6434 aaae 0e27
00000050: 9234 37af 6435 54aa 232a a031 262e 58af
00000060: 4d37 072f 432d 2833 1f35 b921 68ac 0338
00000070: 2532 1533 4630 4bb1 9c98 dbb4 caa9 d3af
00000080: 44b4 cfb5 94b1 70b5 c9aa f42d ddb5 ee9e
00000090: feae 4834 6c33 e6ae b92d c335 3126 bdb4
000000a0: 5591 25a4 e3a9 9db1 44b1 c338 001e fb30
000000b0: f934 4f2b 76ac 20b2 1a26 5137 3930 bab2
000000c0: 2724 282c 8328 e72b bcad f40c 682e e62d
000000d0: bcb4 e7a3 ff33 3fb5 2434 2e2c eeb4 e827
000000e0: caa8 7336 16a8 6938 8834 9027 39b7 9eab
000000f0: 7730 04aa 9aa9 20af d4b7 6bad 35ad 9729
00000100: ba2f 3ea8 9137 252d 7030 4034 70b4 172f
00000110: 6d2f 40aa a32e bbb4 71b1 44b4 b2b0 28ad
0.206 -0.1771 -0.2489 0.06085 -0.4985 -0.284 -0.00461 0.108
-0.0763 -0.2284 0.3462 0.0354 -0.212 0.4312 -0.192 0.03766
-0.0649 0.09216 -0.1908 -0.1705 0.06186 -0.1957 -0.3245 0.1561
-0.1401 -0.2063 0.0996 0.112 0.1422 -0.06335 0.2083 0.1316
0.277 0.2484 0.1964 0.2268 0.2766 0.2744 -0.1041 0.02756
0.2856 -0.11273 0.337 -0.04944 0.04794 0.1758 0.09607 -0.11475
0.4563 0.1098 0.0822 0.2236 0.32 0.01118 -0.06885 0.5015
0.192 0.2213 0.1335 -0.1654 -0.00225 -0.3035 -0.04523 -0.12225
-0.2666 -0.363 -0.1743 -0.3398 -0.053 0.093 -0.3665 -0.006767
-0.10925 0.2676 0.2319 -0.1078 0.0894 0.36 0.02419 -0.2961
-0.000651 -0.01619 -0.046 -0.1754 -0.1646 0.595 0.00586 0.1556
0.3108 0.0571 -0.0697 -0.1914 0.02383 0.4573 0.132 -0.2102
0.01622 0.06494 0.03525 0.06174 -0.0896 0.0003023 0.1001 0.09216
-0.296 -0.015434 0.2499 -0.328 0.2588 0.0653 -0.308 0.03088
-0.0374 0.403 -0.03192 0.5513 0.2832 0.02954 -0.4514 -0.0595
0.1395 -0.047 -0.04376 -0.1113 -0.4893 -0.08466 -0.08136 0.04367
0.1207 -0.03314 0.473 0.0804 0.1387 0.2656 -0.2773 0.1108
0.116 -0.04883 0.1037 -0.2957 -0.17 -0.2666 -0.1467 -0.08057

model.3.1.weight f2 [16]
00000000: e035 5436 4039 773b 0938 0e38 073a 4d39
00000010: 7839 ba37 2a37 f437 3c36 1038 343b e338
0.3672 0.3955 0.6562 0.933 0.5044 0.507 0.7534 0.6626
0.6836 0.483 0.4478 0.497 0.3896 0.508 0.9004 0.611

model.3.1.bias f2 [16]
00000000: 8f2c 98ab 2034 4731 3b34 682e b92b 4b34
00000010: 3634 9434 0832 2b2a 2234 da2c 4424 5e32
0.0712 -0.05933 0.2578 0.1649 0.2644 0.1001 0.06033 0.2683
0.2632 0.2861 0.1885 0.0482 0.2583 0.0758 0.01666 0.199

model.3.1.running_mean f2 [16]
00000000: 58b3 5d2e 67b2 eb34 a730 3135 2a29 75b1
00000010: 9d2a 282e 462f 28aa ba36 d1b5 9530 46af
-0.2295 0.0994 -0.2001 0.3074 0.1454 0.3245 0.04034 -0.1705
0.05167 0.0962 0.11365 -0.0481 0.4204 -0.3635 0.1432 -0.11365

model.3.1.running_var f2 [16]
00000000: 832c 9b2a 5e2c c131 e524 ff2e a819 0c28
00000010: 0818 aa2a 8f2a 1524 6635 df2a 821c 301c
0.0705 0.0516 0.06824 0.1798 0.01912 0.1093 0.002762 0.03162
0.001968 0.05206 0.05124 0.01595 0.3374 0.05368 0.004402 0.00409

model.3.3.weight f2 [16, 16, 1, 1]
00000000: e632 4bad 5fb3 4db1 0aad 69b2 0732 bb2d
00000010: bf30 322f eeb0 1bac 7033 b731 daae 0aa1
00000020: d736 c2ad 7025 b72d 0eb1 7d26 6927 edb3
00000030: 1e38 a4b3 7628 042d 5828 3db3 2da8 65ae
00000040: 32b2 62b0 0b2b 502d d52d 14b1 8fae 5db0
00000050: e830 0b32 aca5 8ea6 55af dc2f 4237 9c26
00000060: 5bb2 2538 3eac da2b c6a4 7e30 3028 6b32
00000070: 9b2b e820 39af 9232 81b0 e4b0 f630 00b1
00000080: 31b4 1d2b 4433 99b0 4133 a7a6 2532 c524
00000090: 53af a9aa 0e18 ff9d 092c e2b2 7730 f331
000000a0: 03af 1430 392e bdae 20af fb32 eda1 86b6
000000b0: 99a7 4230 c923 1d36 e0ab 8f32 7bad 559d
000000c0: ca2b 29a7 84b1 7e33 6436 eeb0 362a 71b3
000000d0: 47a1 9235 fa32 7531 e4a9 fdb2 cbaf 1f2d
000000e0: 0daa b4b3 deb2 27b1 cdae fbb4 23a9 5499
000000f0: 71af 06ab ab35 5eb0 fb34 0325 fcaf 7e23
00000100: edac e131 2bb4 83a8 a2b2 e9a3 5931 6dac
00000110: 07b2 acb0 c534 1830 2232 6e32 4833 5fb2
00000120: 62ac deb5 c5ac 2c34 42b4 7db5 f42e 6fa6
00000130: 2b29 39b0 b8af 49a8 1733 b0b4 ca97 2c31
00000140: 06b0 48ae bfb2 23b2 70a9 ca2b eeb3 f3b4
00000150: 3e23 89af 7131 06b0 97b5 d3a2 fd30 af32
00000160: 0a32 8bb4 c633 d9a9 f3aa f834 20a6 ba31
00000170: b3b0 6e31 88ae 72b0 0434 9832 d6aa 63ae
00000180: 5731 119e 9822 d3b3 d4a9 7431 27b1 ccad
00000190: 3134 aca9 7538 5ba6 df2d 07a6 18aa 1cb2
000001a0: e936 8231 3230 d4af 9ab1 70b1 12b1 e6af
000001b0: 7faf b7af 6dac 9429 6db5 a532 2c31 05b5
000001c0: c4a4 db2c 9836 0331 9aad f034 3cad ff32
000001d0: 4ead 1eb6 6c30 121e d5a2 63b5 1d2d d92a
000001e0: 1cb1 cb2d 5e18 9d1f eeb1 86b2 e232 7ab0
000001f0: efb3 07b3 43a8 12a9 f89e f72b 7c1e ea31
0.2156 -0.0827 -0.2303 -0.1656 -0.07874 -0.2003 0.1884 0.08954
0.1483 0.1124 -0.154 -0.06415 0.2324 0.1786 -0.10706 -0.00984
0.4275 -0.08997 0.02124 0.0893 -0.158 0.02534 0.02895 -0.2477
0.5146 -0.2388 0.03485 0.07837 0.03394 -0.2262 -0.03262 -0.0999
-0.1936 -0.137 0.05502 0.083 0.0911 -0.1587 -0.1025 -0.1364
0.1533 0.1888 -0.02216 -0.0256 -0.11456 0.1228 0.4536 0.02582
-0.1986 0.518 -0.0663 0.06134 -0.01865 0.1404 0.0327 0.2006
0.05942 0.00958 -0.11285 0.2053 -0.1407 -0.1528 0.155 -0.1562
-0.262 0.05557 0.227 -0.1437 0.2267 -0.02599 0.192 0.01863
-0.11444 -0.05203 0.00198 -0.005856 0.06305 -0.2151 0.1395 0.1859
-0.10956 0.1274 0.0972 -0.1053 -0.1113 0.2181 -0.01157 -0.4077
-0.02968 0.133 0.015205 0.382 -0.06152 0.205 -0.08563 -0.005207
0.06085 -0.02797 -0.1724 0.2341 0.3994 -0.154 0.04852 -0.2325
-0.01031 0.3481 0.218 0.1705 -0.04602 -0.2184 -0.12177 0.08
-0.04727 -0.2407 -0.2146 -0.161 -0.10626 -0.3113 -0.04013 -0.002602
-0.1163 -0.05487 0.3542 -0.1365 0.3113 0.01958 -0.12476 0.01463
-0.07697 0.1837 -0.2605 -0.03525 -0.2073 -0.01545 0.1671 -0.06915
-0.1884 -0.146 0.298 0.1279 0.1917 0.2009 0.2275 -0.1991
-0.0685 -0.3667 -0.0745 0.2607 -0.266 -0.343 0.10864 -0.02513
0.04037 -0.132 -0.1206 -0.03348 0.2216 -0.293 -0.001902 0.1616
-0.1257 -0.09814 -0.2108 -0.1918 -0.04248 0.06085 -0.2478 -0.3093
0.014145 -0.11774 0.17 -0.1257 -0.3494 -0.01333 0.1559 0.2089
0.1887 -0.284 0.2429 -0.0457 -0.0543 0.3105 -0.02393 0.179
-0.1469 0.1697 -0.10205 -0.1389 0.251 0.206 -0.0534 -0.0998
0.1669 -0.005924 0.01288 -0.2445 -0.04553 0.1704 -0.161 -0.0906
0.262 -0.0443 0.557 -0.02483 0.09174 -0.02354 -0.0476 -0.1909
0.432 0.1721 0.1311 -0.1223 -0.175 -0.1699 -0.1584 -0.1234
-0.1171 -0.12054 -0.06915 0.04358 -0.339 0.2076 0.1616 -0.3137
-0.01862 0.07587 0.412 0.1566 -0.0875 0.3086 -0.0818 0.2186
-0.0829 -0.3823 0.1382 0.005928 -0.01334 -0.3367 0.0799 0.0535
-0.1597 0.0905 0.002132 0.007435 -0.1853 -0.2039 0.2151 -0.1399
-0.2479 -0.2196 -0.0333 -0.0396 -0.006805 0.06223 0.006332 0.1848

model.3.4.weight f2 [16]
00000000: 7139 7d38 3b3a 643a d73a ef35 333c cd3a
00000010: 2e38 6937 8a39 8839 d23a f73b 1b39 6839
0.68 0.561 0.779 0.799 0.855 0.3708 1.05 0.85
0.5225 0.4631 0.6924 0.6914 0.8525 0.9956 0.638 0.676

model.3.4.bias f2 [16]
00000000: 1632 5e31 642b 8e33 f434 8630 0937 3431
00000010: f735 91aa 082f fd9f f6b1 a234 c534 d6a7
0.1902 0.1677 0.05774 0.2361 0.3096 0.1414 0.4397 0.1626
0.3728 -0.0513 0.10986 -0.0078 -0.1863 0.2896 0.298 -0.03061

model.3.4.running_mean f2 [16]
00000000: 4d99 0829 7c31 492e ad30 37ab ea30 00b4
00000010: 67ac e8b0 31b6 da32 872b 88b4 7532 20b3
-0.002588 0.0393 0.1714 0.0982 0.1461 -0.05637 0.1536 -0.25
-0.0688 -0.1533 -0.387 0.2141 0.0588 -0.2832 0.2018 -0.2227

model.3.4.running_var f2 [16]
00000000: 792c 0930 8530 182c a82c 7a2a a934 182f
00000010: 912c 0c2e a62e d62d de30 962f c62d 232c
0.0699 0.1261 0.1412 0.06396 0.07275 0.0506 0.2913 0.11084
0.07135 0.0945 0.1039 0.0912 0.1521 0.1185 0.0902 0.06464

model.5.0.weight f2 [32, 16, 3, 3]
00000000: 4d2a e22e 472a cdb0 36a9 6a1f 07a8 302f
00000010: 0829 3eb2 37a7 39a6 aeb5 46b0 182e 20b1
00000020: c62b c82c 8dae acad e1ac 4fa1 0520 72ad
00000030: 5325 622b 132b 472d 4eaf cbaf 532b 721c
00000040: db2c 8ea9 f70f 2e30 2fb1 01a6 33aa b22e
00000050: 4135 862b fc30 6c2e 352c 11b3 e6ad 78ad
00000060: cf2c 73a8 15af af24 fd28 8c28 5bad fab1
00000070: a3a9 4bb0 4090 2426 c32d c9a0 e6a7 4331
00000080: 8231 a732 32ae 98b1 4ca6 6db3 0aaf 05a5
00000090: 312a adad 8da0 57b0 3799 34b2 85af 83b1
000000a0: 8ba6 c729 e5a9 0e20 67b0 10a7 e422 c129
000000b0: 5d29 d8a3 2cb4 55af 73a9 8c26 ab31 5c25
000000c0: 2830 08ab d5a4 7c2e da2e 3a2f f021 56b1
000000d0: 28ac 49aa 2e9e f7b0 93b0 d8a9 6225 b2b0
000000e0: 5cb1 cc28 a5b0 a5af 6428 0133 f42c 002e
000000f0: 55ab 62b1 fdb0 46b4 41ae ebab 4c29 8ba0
00000100: 9b27 5c31 3530 fa2f 4a21 ae14 1225 e6b1
00000110: 1fb1 bd2d 0faf a629 4d2f 1aad 13ac d332
00000120: f2b0 6c30 c3ac f6a6 ea9f afa5 3532 3531
00000130: bdaf 51ac 46ac 35a8 c832 4d29 1419 0b34
00000140: 6a2d fc2a b520 c7a2 4eb0 d19d 9d33 4e30
00000150: b5ad 042d 942e 262b 9926 9720 36a8 572c
00000160: 122e 6da7 37a8 892e d5ad d3a6 27b1 341d
00000170: d11e e19b 17a6 ceac cfac 13af e1ae e5a3
00000180: 62a1 d132 8031 6130 bd31 4c2b 0728 0da5
00000190: 6baf 4130 9b35 d528 ad2c 6232 be2e 5924
000001a0: 9a2f 852c 862d 7aa5 d02c f431 36af 18ae
000001b0: a2b2 7ead 691c 20b0 1926 2931 b922 982d
000001c0: 3c2d 24ac 65a7 ebac 9bae b9ac 01ac 882a
000001d0: 5b2f 5731 2ead fb30 f42e 62b0 08ae fe2f
000001e0: 67a6 f2b1 492e 43af b2ae 86ac 1d2c 0432
000001f0: 8b24 40ae 2a31 eaa4 82a4 5e9f b79b 4d2f
0.04922 0.10754 0.04904 -0.15 -0.0407 0.00724 -0.03146 0.1123
0.0393 -0.1951 -0.02818 -0.0243 -0.355 -0.1335 0.0952 -0.1602
0.06073 0.0747 -0.10236 -0.0886 -0.07623 -0.01037 0.00785 -0.0851
0.0208 0.05768 0.05527 0.08246 -0.11414 -0.12177 0.05722 0.00434
0.07587 -0.0434 0.0004861 0.1306 -0.162 -0.02345 -0.04843 0.1046
0.3284 0.05878 0.1558 0.10034 0.06573 -0.2208 -0.09216 -0.08545
0.07513 -0.03476 -0.11066 0.0183 0.03897 0.03552 -0.0837 -0.1868
-0.04404 -0.1342 -0.000519 0.02399 0.09 -0.009346 -0.03085 0.1644
0.1721 0.2079 -0.0968 -0.1748 -0.0246 -0.232 -0.11 -0.0196
0.04837 -0.0887 -0.00889 -0.1356 -0.002546 -0.1938 -0.1175 -0.1722
-0.02556 0.04514 -0.04605 0.00792 -0.1376 -0.02759 0.01346 0.04495
0.0419 -0.01532 -0.2607 -0.11456 -0.04257 0.02557 0.1771 0.02094
0.1299 -0.05493 -0.01888 0.1013 0.10706 0.1129 0.0116 -0.1667
-0.06494 -0.0491 -0.006035 -0.1552 -0.143 -0.04565 0.02103 -0.1467
-0.1675 0.03748 -0.1451 -0.11945 0.0343 0.2189 0.0774 0.09375
-0.05728 -0.1682 -0.1559 -0.267 -0.0977 -0.06186 0.04138 -0.00887
0.02971 0.1675 0.1315 0.12463 0.01033 0.0011425 0.0198 -0.1843
-0.16 0.08966 -0.1103 0.04413 0.1141 -0.0797 -0.06366 0.2133
-0.1545 0.1382 -0.0744 -0.02719 -0.00773 -0.0222 0.194 0.1627
-0.1209 -0.06744 -0.0668 -0.03287 0.2119 0.0414 0.00248 0.2527
0.0846 0.05457 0.00919 -0.01324 -0.1345 -0.00568 0.2379 0.1345
-0.0892 0.07837 0.1028 0.05585 0.02577 0.008965 -0.0329 0.0678
0.09485 -0.029 -0.03293 0.1021 -0.0911 -0.02666 -0.161 0.00508
0.006657 -0.003847 -0.02379 -0.0751 -0.07513 -0.11053 -0.1075 -0.01542
-0.01051 0.213 0.1719 0.1368 0.1793 0.057 0.03146 -0.01973
-0.1159 0.1329 0.3503 0.03775 0.07306 0.1995 0.10535 0.01698
0.1188 0.0706 0.0863 -0.0214 0.0752 0.186 -0.1127 -0.0952
-0.2073 -0.0858 0.004307 -0.1289 0.02382 0.1613 0.01313 0.0874
0.0818 -0.0647 -0.02888 -0.07684 -0.1032 -0.0738 -0.06256 0.05103
0.1149 0.1669 -0.08093 0.1556 0.10864 -0.137 -0.09424 0.1249
-0.02501 -0.1858 0.0982 -0.11346 -0.1046 -0.0707 0.0643 0.188
0.01775 -0.09766 0.1614 -0.0192 -0.01761 -0.007195 -0.003767 0.1141

model.5.1.weight f2 [32]
00000000: 4834 4339 2735 be32 6c3a 1c39 bc34 9c34
00000010: f23b cc33 d839 2a35 2638 6933 173c cf2b
00000020: ca34 f435 cd3b 5b37 5c39 d03c d338 c733
00000030: 6439 643d fa39 8939 5938 353b 6f2e 7e35
0.2676 0.6577 0.322 0.2107 0.8027 0.6387 0.296 0.288
0.993 0.2437 0.7305 0.3228 0.5186 0.2316 1.022 0.061
0.2993 0.372 0.975 0.4597 0.67 1.203 0.603 0.243
0.674 1.348 0.747 0.692 0.5435 0.901 0.1005 0.3433

model.5.1.bias f2 [32]
00000000: c5a8 3232 f520 582f 4ba1 372f f62c 032f
00000010: 7b26 b52d f8b1 5234 7cad 2430 ba9f 4b30
00000020: 2d32 0e28 d623 1e30 8c2e ae27 caaa 4031
00000030: 7730 2a22 3d31 e233 dfae 6daf 6b2d e027
-0.03726 0.1936 0.00968 0.11475 -0.01034 0.11273 0.0775 0.10956
0.02531 0.0892 -0.1865 0.27 -0.0857 0.1294 -0.007545 0.1342
0.193 0.03168 0.015305 0.1287 0.1023 0.03 -0.05304 0.1641
0.1395 0.01204 0.1637 0.2463 -0.10736 -0.116 0.08466 0.03076

model.5.1.running_mean f2 [32]
00000000: 64bd 3d3c 42c4 ddb6 0738 363d f139 40b2
00000010: 6638 b5a4 a5bc edc1 31b1 cdbf f239 55aa
00000020: 3db9 78b9 7b3f bdb1 a0b4 91b5 ccbd 30c0
00000030: d8be 1138 39bb c6be 4b3c 6a3f 9ebb 96c1
-1.348 1.06 -4.258 -0.429 0.5034 1.303 0.7427 -0.1953
0.55 -0.01839 -1.161 -2.963 -0.1622 -1.95 0.743 -0.04947
-0.655 -0.6836 1.87 -0.1793 -0.289 -0.348 -1.449 -2.094
-1.711 0.5083 -0.903 -1.693 1.073 1.854 -0.952 -2.793

model.5.1.running_var f2 [32]
00000000: 8f41 a440 6441 2340 4e40 5b41 8e3d d442
00000010: 2f3f 3040 d640 2440 eb3f 4e40 6240 523f
00000020: c942 4740 5a3e 703e 3f40 9040 1e40 2a3f
00000030: ba3f 5041 0244 843d e53c 323d db3c bf40
2.78 2.32 2.695 2.068 2.152 2.678 1.389 3.414
1.796 2.094 2.418 2.07 1.9795 2.152 2.191 1.83
3.393 2.139 1.588 1.609 2.123 2.281 2.059 1.791
1.932 2.656 4.008 1.379 1.224 1.299 1.214 2.373

model.6.0.weight f2 [32, 1, 3, 3]
00000000: 0a31 cd35 9435 1c35 fa34 0eb1 12b1 d6b3
00000010: 5527 7d36 b634 a3b3 55a4 5e35 e9ad 36ae
00000020: 08af ecb0 f52c 9328 9d2a 1b31 6937 7e35
00000030: 4cb3 6c2b e82c 17b5 83b1 3328 24b6 e7b5
00000040: b133 9ab3 55b6 3a2d 6826 e234 af34 32ac
00000050: 76a9 772e 11a8 daa7 adb4 72af fab0 e0b1
00000060: a8b4 8caf 1eb0 2634 91af 9eb5 a2b4 48b4
00000070: 4bad d5ad 1ba7 1db3 44b5 e0b1 a52d 4836
00000080: 87b3 dab2 dd35 30a6 8bb6 b5af 82ab dd2a
00000090: 2435 1032 d929 cd24 a7b4 e1b4 9fa9 bd2d
000000a0: 34b2 6c34 5b37 8532 8f34 37b4 9fb4 2eb0
000000b0: d9aa c230 f224 8a2c a9b0 4132 0532 37a5
000000c0: dd2e 6f34 2934 562b 3bb0 09b4 8f37 a72a
000000d0: 532c 852e b233 98b4 0ab3 ef31 cd32 9db1
000000e0: c731 8536 1fb0 bea8 32b2 ed2a c1b4 02b5
000000f0: 6cb4 32b5 53b2 7d2b feae 2630 4234 a52e
00000100: f2b3 4ab0 2cb4 c52c 33b4 fc2f 8924 79a6
00000110: ac30 8d34 5714 fab1 59a8 362e 60b1 53b6
00000120: 1cb4 4730 2235 c3ae 1cb1 f931 00af 1cb1
00000130: 2cb0 e132 492b 8734 399b 5036 9daf 8828
00000140: d134 8d2a e2af 10b0 5933 b334 6832 1334
00000150: 6b15 c434 f430 04af 422c f6ab 9c35 6d38
00000160: 9626 6630 7bb4 a61f 2d31 a433 9aa7 2231
00000170: 0e2f 03b4 0834 e421 adb1 7d2c b32c 1f32
00000180: c334 782c a930 7eaf ed35 7533 1531 e935
00000190: b734 8baf 3e31 3234 81ab a327 452f 4a29
000001a0: 9e32 86b2 afb6 7bb3 97b1 1132 78b1 61b7
000001b0: e1b1 88b4 752c b6b2 cab5 78a9 ecaa acb3
000001c0: 31b4 ecaf 68ae d4ad 67b4 05b8 45a5 c6b4
000001d0: e8ac b221 0131 49a8 14b5 a9ab a930 47b7
000001e0: 75b0 4db4 2eaf 45b7 07b8 d5b0 742e 0a25
000001f0: 0ca6 eb31 ffae 4336 55b0 6135 f2a0 ca33
0.1575 0.3625 0.3486 0.3193 0.311 -0.158 -0.1584 -0.2449
0.02864 0.4055 0.2944 -0.2386 -0.01692 0.3354 -0.09235 -0.09705
-0.10986 -0.1538 0.07745 0.03574 0.05167 0.1595 0.4631 0.3433
-0.228 0.05798 0.07666 -0.318 -0.1722 0.0328 -0.3838 -0.369
0.2404 -0.2375 -0.3958 0.08167 0.02502 0.3052 0.2927 -0.06555
-0.04266 0.101 -0.03177 -0.03067 -0.2922 -0.11633 -0.1555 -0.1836
-0.291 -0.1179 -0.1287 0.2593 -0.1182 -0.351 -0.2896 -0.2676
-0.0827 -0.0911 -0.02776 -0.2223 -0.329 -0.1836 0.0882 0.3926
-0.2352 -0.2141 0.3665 -0.02417 -0.409 -0.1204 -0.05865 0.05362
0.3213 0.1895 0.0457 0.01875 -0.2908 -0.305 -0.0439 0.08966
-0.1938 0.2764 0.4597 0.2037 0.285 -0.2634 -0.2888 -0.1306
-0.0535 0.1487 0.01932 0.0709 -0.1456 0.1954 0.1881 -0.02037
0.10724 0.277 0.26 0.0573 -0.1322 -0.2522 0.4724 0.05197
0.06757 0.10187 0.2405 -0.287 -0.22 0.1854 0.2125 -0.1754
0.1805 0.4075 -0.1288 -0.03705 -0.1936 0.0541 -0.297 -0.313
-0.2764 -0.3247 -0.1976 0.0585 -0.10925 0.1296 0.266 0.1038
-0.2483 -0.134 -0.2607 0.0745 -0.2625 0.12476 0.01772 -0.02528
0.146 0.2844 0.00106 -0.1868 -0.03397 0.09705 -0.168 -0.3953
-0.2568 0.1337 0.3208 -0.10565 -0.1597 0.1866 -0.1094 -0.1597
-0.1304 0.215 0.05692 0.283 -0.003527 0.3945 -0.11896 0.0354
0.301 0.05118 -0.12317 -0.127 0.2296 0.2937 0.2002 0.2546
0.001323 0.2979 0.1548 -0.1096 0.0665 -0.0622 0.3506 0.553
0.02573 0.1375 -0.28 0.00747 0.1617 0.2388 -0.0297 0.1604
0.1102 -0.2507 0.252 0.011505 -0.1774 0.0701 0.0734 0.1913
0.2976 0.0698 0.1456 -0.11707 0.3704 0.233 0.1588 0.3694
0.2947 -0.11786 0.1638 0.2622 -0.05862 0.02983 0.1136 0.04132
0.2068 -0.2039 -0.4177 -0.2338 -0.1747 0.1896 -0.1709 -0.4612
-0.1837 -0.2832 0.06964 -0.2097 -0.3618 -0.04272 -0.05408 -0.2397
-0.262 -0.1238 -0.1001 -0.09106 -0.2751 -0.5024 -0.02058 -0.2983
-0.07666 0.01112 0.1564 -0.03348 -0.3174 -0.05984 0.1456 -0.4548
-0.1393 -0.2688 -0.1122 -0.4543 -0.5034 -0.151 0.1008 0.01968
-0.02362 0.1849 -0.1093 0.3914 -0.1354 0.3362 -0.00966 0.2434

model.6.1.weight f2 [32]
00000000: 9d35 2637 b937 8c33 ef3a be39 ba38 4738
00000010: 3e36 8235 6f35 d135 b633 a939 f538 c937
00000020: e438 2337 d034 3231 2a35 4237 7534 3935
00000030: 3334 e836 c138 0931 ea31 6434 4a35 eb36
0.3508 0.4468 0.4827 0.2358 0.8667 0.718 0.591 0.5347
0.3901 0.3442 0.3396 0.3635 0.241 0.7075 0.6196 0.4866
0.6113 0.446 0.3008 0.1624 0.3228 0.4536 0.2786 0.3264
0.2625 0.4316 0.594 0.1573 0.1848 0.2744 0.3306 0.4324

model.6.1.bias f2 [32]
00000000: 1632 24aa 2832 4235 192a 142f af30 eb30
00000010: e931 1033 1931 a832 c530 e235 b8a8 0f2d
00000020: c533 7b33 bb2e 9f2b 9a2d a132 1035 0934
00000030: 5833 f332 812f aa32 502d 5023 81ae 492a
0.1902 -0.04797 0.1924 0.3286 0.04764 0.1106 0.1464 0.1537
0.1847 0.2207 0.1593 0.208 0.149 0.3677 -0.03687 0.07904
0.2428 0.2338 0.10516 0.05954 0.0875 0.2072 0.3164 0.2522
0.2295 0.2172 0.11725 0.2083 0.083 0.01428 -0.1016 0.0491

model.6.1.running_mean f2 [32]
00000000: 362d 0d30 7030 b4b2 2e2d 95b5 66b2 8da9
00000010: 05ad de2d 8c31 2f2e 0c29 fab2 c0af c2a8
00000020: e5aa 0632 0c37 4831 7a30 c938 6033 57b3
00000030: 2ab8 ceb9 97b6 c2b2 d42c a9af caa6 1623
0.0814 0.1266 0.1387 -0.2095 0.08093 -0.3489 -0.2 -0.04337
-0.0784 0.0917 0.1733 0.0966 0.03943 -0.218 -0.1211 -0.03717
-0.05386 0.1882 0.4404 0.165 0.1399 0.598 0.2305 -0.2294
-0.5205 -0.7256 -0.4119 -0.2112 0.07544 -0.1197 -0.02652 0.01384

model.6.1.running_var f2 [32]
00000000: ce24 a12f be25 9029 872e f131 4929 d824
00000010: 3b31 1824 572b 7926 a728 1226 812d 0118
00000020: 5e26 aa28 1e36 f42c 502c dd36 5a2d 7128
00000030: fb30 d537 d830 ae31 3327 ed2e 861d 2921
0.01877 0.1192 0.02243 0.04346 0.102 0.1857 0.0413 0.01892
0.1635 0.01599 0.05734 0.02528 0.03635 0.02371 0.086 0.001955
0.02487 0.03644 0.3823 0.0774 0.0674 0.429 0.0836 0.0347
0.1556 0.4895 0.1514 0.1775 0.02812 0.1082 0.005394 0.01008

model.6.3.weight f2 [32, 32, 1, 1]
00000000: 742d 96b3 9bac 4824 662d 5d31 9731 01b5
00000010: 6631 0722 8932 d0a5 dc29 fcab b9b1 2624
00000020: 772e a9b2 5bb3 d435 fa2d f8aa a62e 4d34
00000030: 02ae f5ab 1426 b227 18aa b72d 57b4 b7b2
00000040: 8d25 172e 2e2b f12f 3729 cbad 8c2f 0731
00000050: c630 d1a3 ea2a dca9 f934 3b2c f5a9 982a
00000060: 7f33 2eb2 582c 2ba6 2c24 7e2f 44a9 e92f
00000070: 0db1 bcac 2f34 c0b3 d4ab 092e deac 092f
00000080: 4f9d 3f30 1235 b3a3 f932 a9b1 cf28 b7ae
00000090: 1eb1 b1aa 8133 7935 9a20 89ac 2eac 4d94
000000a0: 4daf 0fa3 0e31 f0a7 532a 39ac 14ad 2faf
000000b0: 0bb3 1e32 7621 bd2d 14ad dd24 ffa8 f4aa
000000c0: d7ae c5a0 c2a9 9331 91b2 46a6 02b0 9e25
000000d0: 792d 9bb1 9a2e 0530 dab5 32ac 9aad d8ad
000000e0: 02a9 8f33 c6af d4b2 c3b0 dcb0 11b1 7b34
000000f0: 0a2c af20 2d28 99b0 a230 feac fe2e 24af
00000100: f430 7ca8 0fa7 0eb3 b589 ecaa 282c ce31
00000110: 0c36 e52b 1ea4 a92c 29ab 8eb2 172c 9dab
00000120: e2ae 9634 b12f a2a1 d8ac dbb3 17ae 572d
00000130: be26 ecb0 b0a0 50a6 3325 56a9 47ac f6ab
00000140: b327 36ab 0832 e01a 4a17 4eab 5eb0 11aa
00000150: 9931 e6b3 8c34 d032 06b5 d49e c229 cb1e
00000160: f9b4 cd2a 4db2 57b2 402b d4b0 f3b2 ba2f
00000170: 07b4 6532 3b30 29af d832 0731 112e 6ea9
00000180: a52a 5830 a72f fdb4 c0b3 08b0 c12c 6eb2
00000190: fd2e 29af 66ae f6a6 72b4 e2ae 9f27 c6b0
000001a0: f0b3 93ad 7db1 3db0 032c bd33 c5b4 0b2e
000001b0: 7532 83a8 1f2d 54ae 1daf 9ca8 7d2d 5fb0
000001c0: a729 852c 91b3 f423 6c2b 1db1 8f30 672d
000001d0: 612c cdb1 822d 06b4 90ae b22d d7b0 3534
000001e0: 1ba6 c6a8 d732 3b31 94af 62b0 ad33 1a34
000001f0: 9634 ffa7 1d2e 682b b4ad 5e2c d522 9132
0.0852 -0.237 -0.07196 0.01672 0.08435 0.1676 0.1747 -0.3127
0.1687 0.01177 0.2042 -0.0227 0.04578 -0.06238 -0.1788 0.0162
0.101 -0.2081 -0.2299 0.3643 0.0934 -0.05444 0.1039 0.2688
-0.0939 -0.06216 0.02374 0.03006 -0.0476 0.0893 -0.2712 -0.2098
0.02168 0.09515 0.0561 0.1241 0.04074 -0.0905 0.1179 0.1571
0.1492 -0.01527 0.05402 -0.04578 0.3108 0.0661 -0.04654 0.0515
0.2343 -0.1931 0.0679 -0.0241 0.0163 0.11707 -0.04114 0.1236
-0.1578 -0.074 0.2615 -0.2422 -0.06116 0.0943 -0.07605 0.1099
-0.005184 0.1327 0.317 -0.01504 0.2179 -0.1769 0.03757 -0.1049
-0.1599 -0.05228 0.2345 0.342 0.00899 -0.07086 -0.0653 -0.00105
-0.1141 -0.01379 0.158 -0.031 0.0494 -0.066 -0.07935 -0.11224
-0.2201 0.1912 0.010666 0.08966 -0.07935 0.019 -0.03903 -0.05432
-0.1069 -0.009315 -0.04498 0.1742 -0.2052 -0.0245 -0.1252 0.02194
0.0855 -0.1752 0.10315 0.1256 -0.3657 -0.06555 -0.0875 -0.0913
-0.03912 0.2362 -0.12146 -0.2134 -0.1488 -0.1519 -0.1583 0.28
0.0631 0.00915 0.03262 -0.1437 0.1448 -0.078 0.10925 -0.1116
0.1548 -0.03503 -0.02757 -0.2205 -0.0001742 -0.05408 0.06494 0.1814
0.378 0.06168 -0.01608 0.0728 -0.05594 -0.2048 0.0639 -0.05948
-0.10754 0.2866 0.1202 -0.011 -0.0757 -0.2455 -0.09515 0.08344
0.02634 -0.1538 -0.009155 -0.02466 0.02031 -0.0417 -0.06683 -0.0622
0.03008 -0.05634 0.1885 0.003357 0.00178 -0.05707 -0.1365 -0.0474
0.1749 -0.2468 0.2842 0.2129 -0.314 -0.006668 0.04498 0.006634
-0.3108 0.05313 -0.1969 -0.1981 0.05664 -0.1509 -0.2172 0.1207
-0.2517 0.1998 0.1322 -0.1119 0.2139 0.1571 0.0948 -0.04242
0.0519 0.1357 0.11957 -0.3118 -0.2422 -0.126 0.0743 -0.2009
0.1092 -0.1119 -0.1 -0.02719 -0.2778 -0.10754 0.02977 -0.1492
-0.248 -0.0871 -0.1715 -0.1324 0.0627 0.2418 -0.298 0.0944
0.2018 -0.03525 0.08 -0.0989 -0.11115 -0.036 0.08575 -0.1366
0.04416 0.0706 -0.2365 0.01553 0.05798 -0.1598 0.1425 0.0844
0.0684 -0.1813 0.08606 -0.2515 -0.10254 0.089 -0.1512 0.263
-0.02385 -0.0373 0.2137 0.1635 -0.1184 -0.137 0.2399 0.2563
0.2866 -0.03123 0.0955 0.05786 -0.0891 0.06824 0.01334 0.2052

model.6.4.weight f2 [32]
00000000: dd34 bb38 7238 d334 e22d 1c35 fa37 c936
00000010: dc34 5e2f 012b da30 0d38 b838 4836 2039
00000020: e139 a139 2535 0d35 2b3a db39 9738 5535
00000030: ce32 093b ad30 cc39 ca35 2539 d039 2211
0.304 0.5913 0.5557 0.3015 0.0919 0.3193 0.4985 0.424
0.3037 0.1151 0.05472 0.1516 0.5063 0.59 0.3926 0.6406
0.735 0.7036 0.3215 0.3157 0.771 0.732 0.5737 0.3333
0.2126 0.8794 0.1461 0.7246 0.3618 0.643 0.7266 0.0006266

model.6.4.bias f2 [32]
00000000: 0a30 88b1 c22d 4232 e92f fa30 5534 2333
00000010: d02e ba2b 2430 592c cf35 3233 2831 4935
00000020: 262f 8ea6 36b0 ec2f f326 b428 1c36 bd31
00000030: 6132 be15 3532 f825 912d 68ac cb32 4a9e
0.1262 -0.1729 0.08997 0.1956 0.1236 0.1555 0.2708 0.223
0.10645 0.06036 0.1294 0.06793 0.363 0.2249 0.1611 0.3303
0.1117 -0.0256 -0.1316 0.1238 0.02715 0.03674 0.3818 0.1793
0.1993 0.001402 0.194 0.02332 0.087 -0.06885 0.2123 -0.00614

model.6.4.running_mean f2 [32]
00000000: 5a2a 8c35 cf28 6bb2 e7ac 27b0 b9b7 7933
00000010: 672d d430 03b0 8e31 4a2c 1eb0 29b1 912f
00000020: 85b5 2133 e4af 8aae f5b4 69ad 67b3 2aab
00000030: 6829 1c2e e82d a0b4 e134 7234 97b4 bf23
0.04962 0.3467 0.03757 -0.2006 -0.0766 -0.1298 -0.4827 0.2335
0.0844 0.1509 -0.1254 0.1736 0.067 -0.1287 -0.1613 0.1182
-0.345 0.2228 -0.1233 -0.1022 -0.3098 -0.08453 -0.2313 -0.05597
0.04224 0.09546 0.0923 -0.289 0.305 0.2778 -0.2869 0.01513

model.6.4.running_var f2 [32]
00000000: 502d a92a 562c b42f 7a2e e12f df2d 0630
00000010: 492d d62e 4a29 a42f b52e a12e c92d 0b2e
00000020: e82a 382e 0a2e 502c 522c 4e2b 502c 0b2e
00000030: dc2e 7a2e 322b b131 ed2c 7e2c f82c a926
0.083 0.05203 0.06775 0.12036 0.1012 0.1231 0.09174 0.1257
0.0826 0.1068 0.04132 0.1194 0.1048 0.1036 0.0904 0.0944
0.05396 0.09717 0.09436 0.0674 0.0675 0.05707 0.0674 0.0944
0.1072 0.1012 0.0562 0.1779 0.07697 0.0702 0.07764 0.02602

model.7.0.weight f2 [32, 1, 3, 3]
00000000: 29ad afb1 73ac ccb3 7eb4 dab0 e5ab f7b1
00000010: 30b3 5134 db30 8f23 0535 5434 cf28 4a94
00000020: 80a1 2e29 7b2a 5c2c af30 dfab a729 4c37
00000030: d030 0835 9535 25b6 fdb5 cab4 b5a5 b224
00000040: 80b5 f12b 5eab bd2f 5c2a 5ca7 2f20 3332
00000050: c129 6ab4 1035 85b2 81b4 d42f 82ac 06b5
00000060: aeb3 a7a8 17b2 96b5 45b1 feb2 13ae 8eb1
00000070: bbb0 1cb2 4bb2 98b5 50b0 f1b3 57b3 2732
00000080: b0b1 84b4 deaf 20b4 45b4 12b7 3db2 e3ae
00000090: 15ac d7a2 f79c 42b3 8fb1 15b4 5db3 8fb0
000000a0: 3db5 8936 5936 6233 b933 7031 4ba9 1f20
000000b0: 6d34 40ac 5ca9 4427 5e30 b531 5434 ef33
000000c0: 4422 7633 4736 9ab4 42b3 ffb3 c2b2 42af
000000d0: 49af 02b1 69af 34b2 12b4 a52f d025 1ab5
000000e0: 15b6 bf2c f7b2 b9b1 2893 ebb4 e5b4 78b4
000000f0: 6ba8 0aaf 27b1 e9a0 aaa9 0f32 0d30 fc31
00000100: aa9b 8c36 fb34 ef2d df34 5e31 9f2e 9b32
00000110: dab2 66b5 9c32 c4a1 c3b4 432d e3b0 c6b2
00000120: 9131 982d 9f36 e030 1334 1336 fb2c 232d
00000130: e2ac 57b0 0d2a 75a2 c334 4330 492e 3132
00000140: 8a36 5532 6525 c8ad 7e2a 4833 8f2f df29
00000150: a834 bb33 1829 7ab3 ddb4 c6b3 9fae 88b2
00000160: 8fb3 62b2 019d 69b2 8f32 6fb2 cfb2 c22f
00000170: 19b4 b9aa 6934 50b4 33b7 0eb3 dd28 bb28
00000180: abb5 76b0 6ab6 66b1 fbb5 c4b1 4628 62af
00000190: b3a8 512a c931 9833 9735 2138 bd2e d6b0
000001a0: 1d2f 2a36 fcb0 7334 6034 942b f72b 242e
000001b0: 3fad ebb4 82b4 60a4 71b4 6cb4 aaa8 e7a6
000001c0: b5b0 8db0 60b5 3132 9434 15a7 6734 1734
000001d0: ad2e 6632 19b5 cdb4 032d 21b2 afb3 95b4
000001e0: 6832 abb2 33b2 0aac 1733 1e30 0d2d c634
000001f0: d430 e62e 8a35 5a2c 0d33 382f d8af 5630
-0.0806 -0.1776 -0.0695 -0.2437 -0.2808 -0.1516 -0.06168 -0.1864
-0.2246 0.2698 0.1517 0.01476 0.3137 0.2705 0.03757 -0.001047
-0.01074 0.04047 0.05063 0.0681 0.1464 -0.0615 0.04416 0.456
0.1504 0.3145 0.3489 -0.384 -0.3743 -0.2993 -0.0223 0.01834
-0.3438 0.06204 -0.05756 0.1209 0.04968 -0.02875 0.00817 0.1937
0.04495 -0.276 0.3164 -0.2037 -0.2815 0.1223 -0.07043 -0.314
-0.24 -0.03635 -0.1903 -0.349 -0.1647 -0.2185 -0.0949 -0.1736
-0.1478 -0.1909 -0.1967 -0.3496 -0.1348 -0.2482 -0.2294 0.1923
-0.1777 -0.2822 -0.1229 -0.2578 -0.2668 -0.442 -0.195 -0.1076
-0.0638 -0.01336 -0.00485 -0.2268 -0.1737 -0.2551 -0.2301 -0.1425
-0.3274 0.4084 0.3967 0.2307 0.2413 0.1699 -0.04135 0.00805
0.2766 -0.0664 -0.04187 0.02838 0.1365 0.1783 0.2705 0.2479
0.01224 0.2332 0.3923 -0.2876 -0.2268 -0.2499 -0.2112 -0.1134
-0.11383 -0.1565 -0.1158 -0.1938 -0.2544 0.11945 0.0227 -0.3188
-0.3801 0.07416 -0.2177 -0.1788 -0.0008736 -0.3074 -0.306 -0.2793
-0.03452 -0.11 -0.161 -0.00959 -0.04425 0.1893 0.1266 0.187
-0.003742 0.4092 0.3113 0.0927 0.3044 0.1677 0.10345 0.2064
-0.2141 -0.3374 0.2065 -0.01126 -0.2976 0.0822 -0.1527 -0.2117
0.174 0.0874 0.4138 0.1523 0.2546 0.3796 0.0778 0.08026
-0.0763 -0.1356 0.04727 -0.01261 0.2976 0.1332 0.0982 0.1935
0.4087 0.1979 0.02107 -0.09033 0.05072 0.2275 0.1181 0.04587
0.291 0.2416 0.0398 -0.2336 -0.304 -0.2429 -0.10345 -0.2041
-0.2362 -0.1995 -0.004887 -0.2003 0.205 -0.201 -0.2128 0.1212
-0.256 -0.05252 0.2756 -0.2695 -0.45 -0.2205 0.038 0.03696
-0.3542 -0.1394 -0.401 -0.1687 -0.3738 -0.1802 0.0334 -0.11536
-0.0367 0.04935 0.1808 0.2373 0.3494 0.516 0.1053 -0.1511
0.11115 0.3853 -0.1558 0.278 0.2734 0.0592 0.06223 0.09595
-0.082 -0.3074 -0.2817 -0.01709 -0.2776 -0.2764 -0.03644 -0.02696
-0.1471 -0.1422 -0.336 0.1935 0.2861 -0.02766 0.2751 0.2556
0.1043 0.2 -0.3186 -0.3 0.0783 -0.1915 -0.2401 -0.2864
0.2002 -0.2084 -0.1937 -0.0631 0.2216 0.1287 0.0789 0.2983
0.1509 0.1078 0.3462 0.068 0.2203 0.1128 -0.12256 0.1355

model.7.1.weight f2 [32]
00000000: 1737 fa36 d73a c437 143a da3a 3a34 473a
00000010: fe39 9337 ce39 f13a d734 0b37 3b39 f136
00000020: e133 b938 2d35 e238 5439 0734 e839 e739
00000030: ea39 4c34 f839 ee3a 093b 0b3a 2a38 0037
0.443 0.436 0.855 0.4854 0.76 0.8564 0.2642 0.7847
0.749 0.4734 0.7256 0.8677 0.3025 0.4402 0.654 0.4338
0.2462 0.5903 0.3235 0.6104 0.666 0.2517 0.7383 0.738
0.7393 0.2686 0.746 0.866 0.8794 0.7554 0.5205 0.4375

model.7.1.bias f2 [32]
00000000: 1734 7831 be31 0337 1930 0f33 0237 a133
00000010: 8334 0d32 a033 f435 7735 7333 2635 b932
00000020: 1932 b134 ad31 4e33 d333 2b36 3d38 d532
00000030: 8a37 6231 af37 6a36 8138 4831 acab 159f
0.2556 0.1709 0.1794 0.4382 0.128 0.2206 0.438 0.2384
0.282 0.1891 0.2383 0.372 0.3416 0.2328 0.3218 0.2101
0.1906 0.2932 0.1774 0.2283 0.2445 0.3855 0.53 0.2135
0.4712 0.1682 0.4802 0.401 0.563 0.165 -0.05994 -0.006916

model.7.1.running_mean f2 [32]
00000000: 6eb4 6d31 ec35 e6b4 baa5 e5b4 e4b8 a5b7
00000010: fcb3 2f30 ba31 bab0 92b7 d5b5 6c36 abb4
00000020: 0938 0835 222c fcb4 24b4 23b8 aa38 6b32
00000030: d6b4 4d34 90b4 e635 aa34 7034 591b 0000
-0.2769 0.1696 0.37 -0.3062 -0.02237 -0.306 -0.6113 -0.4778
-0.2495 0.1307 0.179 -0.1477 -0.4731 -0.3645 0.4014 -0.2917
0.5044 0.3145 0.0646 -0.3115 -0.2588 -0.517 0.583 0.2006
-0.3022 0.2688 -0.2852 0.3687 0.2915 0.2773 0.003588 0.0

model.7.1.running_var f2 [32]
00000000: 412b 242d f931 3f2a 4c1b 072b ab2f 1c32
00000010: d62a 8221 341c f324 e031 9a2e 4831 d332
00000020: 0c34 ab32 4221 6b2d 0731 c834 1135 d62b
00000030: 5129 b431 fb25 8431 7d2f 1e31 992e 0000
0.05667 0.0803 0.1866 0.0488 0.003563 0.0549 0.1198 0.1909
0.0534 0.01076 0.004105 0.01933 0.1836 0.10315 0.165 0.2133
0.253 0.2084 0.01027 0.08466 0.1571 0.2988 0.3167 0.06122
0.04153 0.1782 0.02336 0.1724 0.117 0.1599 0.1031 0.0

model.7.3.weight f2 [32, 32, 1, 1]
00000000: 8fa9 62ac 59b0 9e33 5aab 55b3 edb0 32a7
00000010: e7b0 a9a0 2eb3 08b2 0fb0 c0af 34b4 02b4
00000020: 25af 5729 45b0 a42d 5e2c 4eab c530 a32d
00000030: 2194 6034 6dad f7a8 582f d030 94ad 0a26
00000040: e030 f8b0 ebac 1435 382a 572e f632 d9a6
00000050: 9f28 2835 61b2 df2c e62f 3bb4 442a f634
00000060: 76ac 832f b3b4 3a29 b09f 0138 a5a5 40b0
00000070: 42ae aeb3 e531 1b2c e030 a321 5da5 c7ae
00000080: c6b4 4834 bba6 baac 6cb1 a59b 14b4 2c2e
00000090: 51b2 f4ad 4624 332f 1f30 aa2d 04b1 e830
000000a0: 02af f4aa 0234 1bb3 0cb1 49b4 ca31 24b0
000000b0: fbac 7722 dc9d 7230 d52c 5db0 4ab0 44b0
000000c0: a930 39b1 4631 0ab1 16b3 c6b3 4bb1 452a
000000d0: 2931 d528 982e 132c 38a5 1bb8 86b0 632e
000000e0: 79b1 8c30 e428 f3ab bcac 3335 3caa 842e
000000f0: 64b4 9932 4e2d 1bb0 12aa 1ba6 c632 8cad
00000100: b9ae a62d ad30 4234 8814 8732 d728 6b32
00000110: 8536 afae 6424 eaae e6ae 9bab 7b25 5cae
00000120: a7ae d7b0 1d35 e330 b62c 122b e1ac 7bb3
00000130: 7e23 16ad ce30 ec30 79ad 65aa 44ac 88ac
00000140: ca2f de31 f4ad 1331 1526 de31 c716 8eb1
00000150: 12a9 ceb1 b734 0f9f d9ab 5230 81ac 1ca1
00000160: 76a3 f8b0 5faa 68ad 07a9 80ae a7b1 e92e
00000170: 802e 182e e031 93aa 96b0 c42d 322d cb2c
00000180: 6334 fd30 1e2e e32d 222f 48a8 0a2c b2b1
00000190: 8fb0 af2f 8ead 24b3 19b4 87b3 7e8b 69a8
000001a0: 3630 2b34 af34 2917 6930 4fb0 392d a8ae
000001b0: 72b0 5e2d cda8 cb30 c3ad 97a0 9e30 4f9f
000001c0: e1ad 44b1 9da8 2532 6c2d 7fb1 1034 68b0
000001d0: 2330 e827 f3b0 9133 cd2e 502e 5ab4 c3ac
000001e0: e9b3 8822 06b0 a4b1 9c2e 14b7 9ab0 65af
000001f0: 1829 5aa1 c9ad 119e 4430 36aa 26b0 bbae
-0.04343 -0.0685 -0.1359 0.238 -0.05743 -0.2291 -0.1539 -0.0281
-0.1532 -0.0091 -0.2244 -0.1885 -0.1268 -0.1211 -0.2627 -0.2505
-0.11163 0.04172 -0.1334 0.08813 0.06824 -0.05707 0.149 0.0881
-0.001008 0.2734 -0.0848 -0.0388 0.11475 0.1504 -0.08716 0.02359
0.1523 -0.1553 -0.07684 0.3174 0.04858 0.09906 0.2175 -0.02675
0.0361 0.3223 -0.1993 0.0761 0.1234 -0.2644 0.04895 0.31
-0.0697 0.1174 -0.2937 0.04083 -0.007507 0.5005 -0.02205 -0.1328
-0.0978 -0.24 0.1842 0.06415 0.1523 0.01101 -0.02095 -0.1059
-0.2983 0.2676 -0.02629 -0.07385 -0.1694 -0.003733 -0.255 0.09644
-0.1974 -0.093 0.0167 0.1125 0.1288 0.0885 -0.1567 0.1533
-0.1095 -0.05432 0.2505 -0.222 -0.1577 -0.2678 0.1809 -0.1294
-0.0778 0.01263 -0.005722 0.1389 0.0755 -0.1364 -0.134 -0.1333
0.1456 -0.1632 0.1648 -0.1575 -0.2214 -0.2429 -0.1654 0.04898
0.1613 0.03775 0.103 0.06366 -0.02039 -0.513 -0.1414 0.0998
-0.171 0.1421 0.0382 -0.0621 -0.074 0.325 -0.0487 0.1018
-0.2744 0.2062 0.0829 -0.1283 -0.04742 -0.02385 0.2117 -0.0867
-0.10504 0.08826 0.1461 0.266 0.001106 0.204 0.0378 0.2006
0.4075 -0.10443 0.01715 -0.10803 -0.1078 -0.05942 0.02141 -0.09937
-0.10394 -0.1512 0.3196 0.1527 0.0736 0.05524 -0.07623 -0.2338
0.01463 -0.07947 0.1501 0.1538 -0.0855 -0.04996 -0.06665 -0.0708
0.1217 0.1833 -0.093 0.1586 0.02376 0.1833 0.001655 -0.1736
-0.0396 -0.1814 0.2947 -0.006893 -0.0613 0.135 -0.0704 -0.00998
-0.01457 -0.1553 -0.04977 -0.0845 -0.03928 -0.10156 -0.1766 0.108
0.10156 0.0952 0.1836 -0.05136 -0.1433 0.0901 0.0812 0.0749
0.2742 0.1559 0.0956 0.092 0.11145 -0.03345 0.0631 -0.178
-0.1425 0.12006 -0.0868 -0.2231 -0.256 -0.2352 -0.0002286 -0.03445
0.1316 0.2605 0.2927 0.001748 0.1378 -0.1346 0.0816 -0.104
-0.1389 0.08386 -0.0375 0.1498 -0.09 -0.008965 0.1443 -0.007137
-0.09186 -0.1646 -0.03604 0.192 0.0847 -0.1718 0.254 -0.1377
0.1293 0.03088 -0.1547 0.2365 0.10626 0.09863 -0.272 -0.0744
-0.2472 0.01276 -0.1257 -0.1763 0.1033 -0.4424 -0.1438 -0.11554
0.0398 -0.01045 -0.0904 -0.005924 0.1333 -0.04852 -0.1296 -0.10516

model.7.4.weight f2 [32]
00000000: 2938 9339 c037 b338 cc38 2a39 e238 0039
00000010: a138 8139 553a 6136 b138 5f36 1a3b d036
00000020: b939 4238 dc38 2939 ea37 1c38 f037 4a39
00000030: 3e39 6838 9f38 033a 4d39 9038 ff37 d338
0.52 0.697 0.4844 0.5874 0.5996 0.6455 0.6104 0.625
0.5786 0.688 0.7915 0.3987 0.5864 0.3982 0.8877 0.4258
0.7153 0.532 0.6074 0.645 0.4946 0.5137 0.496 0.661
0.6553 0.551 0.5776 0.7515 0.6626 0.5703 0.4998 0.603

model.7.4.bias f2 [32]
00000000: a72b 4730 8ba8 322c 38ab b6af 08b0 6827
00000010: 65ae 9eaf 8eb0 1433 5715 7fa3 ad29 082b
00000020: 52a8 24ab 4bb3 beb0 97ad 7da2 71b0 47b2
00000030: 2dae 8328 10a8 04a9 dbae 1c28 2131 3533
0.05978 0.1337 -0.0355 0.06555 -0.0564 -0.1205 -0.126 0.02893
-0.0999 -0.119 -0.1423 0.2212 0.001304 -0.01464 0.04434 0.05493
-0.03375 -0.0558 -0.2279 -0.1482 -0.08734 -0.01267 -0.1388 -0.1962
-0.0965 0.03525 -0.03174 -0.03918 -0.1071 0.0321 0.1603 0.2252

model.7.4.running_mean f2 [32]
00000000: 34b8 9a39 89b6 24b5 6d37 322d 70ac beb4
00000010: 82b5 fa34 b328 efb4 42b2 3aa9 4834 c324
00000020: e03a 30b7 7339 e930 0c35 0436 6ea4 1eb3
00000030: c235 4f21 1ab8 dc29 4e2e b0b6 a5b5 d5b4
-0.5254 0.7 -0.4084 -0.3213 0.464 0.0812 -0.06934 -0.2964
-0.3442 0.311 0.0367 -0.3083 -0.1956 -0.04083 0.2676 0.0186
0.8594 -0.4492 0.681 0.1534 0.3154 0.376 -0.0173 -0.2224
0.3599 0.01037 -0.5127 0.04578 0.0985 -0.418 -0.3528 -0.302

model.7.4.running_var f2 [32]
00000000: 202f a133 662e 9a34 3e30 d131 9930 e231
00000010: ec2f aa30 dc31 0a31 e22d ee2d 0235 5d2d
00000020: 4b34 d330 8031 9c33 4431 9a32 512e 3f31
00000030: 8a30 7731 2d32 5832 c632 ed2e 922e cf32
0.1113 0.2384 0.1 0.2876 0.1326 0.1818 0.1437 0.1838
0.1238 0.1458 0.1831 0.1575 0.0919 0.09265 0.313 0.0838
0.2683 0.1508 0.1719 0.2378 0.1646 0.2063 0.0987 0.164
0.1418 0.1708 0.193 0.1982 0.2117 0.1082 0.10266 0.2128

model.9.0.weight f2 [64, 32, 3, 3]
00000000: e325 82ab 5aaa ee27 38ad 18a6 212b 39ab
00000010: 822c a494 a62b 5326 6c2b ffa9 4fac 27a8
00000020: 6dac 21b4 acae 1cb2 152f 0b2c 8929 1431
00000030: 4527 a22c a7a4 1924 f32b 112a 0b29 be2b
00000040: 722b 862e f6a0 06a6 c39d aeb0 47ae a1a9
00000050: 2a30 b92e 21b0 80ac 082b 0caf a0b0 f2b1
00000060: 6226 812c b19f 6a29 ca2c ad30 c12f b729
00000070: 82ad 2aaa 4db1 89b1 45a7 da29 e72c bbaf
00000080: d129 7d2c 8134 552e 94a1 0a2c 6322 91ae
00000090: 22b0 3403 8227 a929 c7a4 ffa4 3729 482c
000000a0: 4da1 1433 4932 aea6 4532 b127 69a3 1da4
000000b0: 1e15 c529 0130 69a1 e6b0 60ae f0ae 4830
000000c0: 8fb0 6ead aaa8 1928 0b31 67ad e12e 4027
000000d0: 4cb0 c12a 11ae 4bad a02f 93a6 4a2d 2230
000000e0: a3ae fba8 e029 4630 2123 7ab0 8526 10b1
000000f0: cb31 4532 aaaf 07b0 822e 7a2a 33ad 7829
00000100: ff31 8ba4 f025 2da8 cc25 7599 2f9b 6a29
00000110: 54ab a621 b52f 56b0 151c 2c2a 74aa d02a
00000120: 2eb0 72b1 712d a12d 74b0 b4b0 17ad 0eaf
00000130: a3a7 fd2a 24b1 d1b4 052d 632d 35a8 ef32
00000140: b633 ce2b 22ad 762c 00ad b9a8 1a2e a81b
00000150: 43af a5a3 3e1f c72c 60af 3faa 0128 8a22
00000160: eab0 e323 f922 a62c db28 d52c 37ac c4af
00000170: 31a4 2b31 9722 6226 0830 87b4 1ba3 0fb0
00000180: e6ac 2527 7d25 36b0 852f fb33 cb1f 48b2
00000190: f1ab ab2b 8eaf 80b6 1ba8 0f30 721e 4930
000001a0: 9ca0 18a5 8c2d 5caf 97af d529 461f ba90
000001b0: e32c 96b2 9d2b 059a 02ac 6eb3 922e 6a23
000001c0: 25ab a132 cfa3 e6b4 3caf dcaf caaa 4523
000001d0: e831 1b31 a431 bbac 559c 4db1 0928 7b2a
000001e0: 5bb0 28a2 6b30 b62b f70a a528 6429 1723
000001f0: fd2e d4af 40b2 65a9 2027 2328 abb0 55ad
0.023 -0.05865 -0.04962 0.03098 -0.08154 -0.0238 0.0557 -0.05643
0.07043 -0.001133 0.05975 0.0247 0.05798 -0.04684 -0.0673 -0.03244
-0.06915 -0.258 -0.10425 -0.1909 0.11066 0.0632 0.04324 0.1587
0.0284 0.0724 -0.01817 0.016 0.0621 0.0474 0.0394 0.0605
0.05817 0.1019 -0.00969 -0.02353 -0.005627 -0.1462 -0.0981 -0.04398
0.1301 0.10504 -0.129 -0.0703 0.05493 -0.1101 -0.1445 -0.1858
0.02493 0.0704 -0.00751 0.0423 0.0748 0.1461 0.12115 0.04465
-0.08606 -0.04816 -0.1656 -0.173 -0.0284 0.04572 0.0766 -0.1208
0.04544 0.0701 0.2815 0.09894 -0.010895 0.0631 0.012474 -0.1026
-0.1292 4.89e-05 0.02933 0.04422 -0.01866 -0.01952 0.04074 0.0669
-0.01035 0.2212 0.1964 -0.0261 0.1959 0.03004 -0.01447 -0.01607
0.001249 0.04507 0.1251 -0.01057 -0.1531 -0.0996 -0.1084 0.1338
-0.1425 -0.08484 -0.03644 0.032 0.1576 -0.0844 0.1075 0.02832
-0.1343 0.05276 -0.0948 -0.0827 0.11914 -0.02568 0.08264 0.1292
-0.1037 -0.0389 0.0459 0.1335 0.01392 -0.1399 0.02547 -0.1582
0.181 0.1959 -0.11975 -0.1259 0.1017 0.0506 -0.08124 0.04272
0.1874 -0.01775 0.0232 -0.03262 0.02264 -0.002665 -0.003508 0.0423
-0.05725 0.01103 0.1204 -0.1355 0.003986 0.04822 -0.0504 0.05322
-0.1306 -0.1702 0.085 0.08795 -0.1392 -0.147 -0.0795 -0.1102
-0.02983 0.0546 -0.1606 -0.301 0.0784 0.08417 -0.03287 0.2167
0.241 0.06097 -0.0802 0.0697 -0.0781 -0.0369 0.09534 0.003738
-0.11346 -0.01493 0.007072 0.07465 -0.11523 -0.0488 0.03128 0.01277
-0.1536 0.0154 0.01362 0.07263 0.03793 0.0755 -0.06586 -0.12134
-0.01637 0.1615 0.01287 0.02493 0.126 -0.283 -0.01388 -0.1268
-0.07654 0.02791 0.02144 -0.1316 0.1175 0.2494 0.00761 -0.1963
-0.06204 0.0599 -0.11804 -0.4062 -0.03207 0.1268 0.006294 0.1339
-0.009 -0.0199 0.0867 -0.115 -0.1186 0.04556 0.007103 -0.000577
0.07635 -0.2058 0.05948 -0.00294 -0.0626 -0.2322 0.10266 0.01448
-0.05582 0.2072 -0.01525 -0.3062 -0.11304 -0.1228 -0.05304 0.0142
0.1846 0.1595 0.1763 -0.0739 -0.00423 -0.1656 0.03152 0.05063
-0.1361 -0.012024 0.1381 0.06024 0.0002126 0.0363 0.0421 0.01385
0.1092 -0.1223 -0.1953 -0.04214 0.02783 0.03232 -0.1459 -0.0833

model.9.1.weight f2 [64]
00000000: 6d35 aa36 743a d134 7232 683a ca39 803b
00000010: fd31 5736 2f38 612f f534 a439 e239 cf32
00000020: f52e d93a f035 0634 5f30 8e39 d52a a438
00000030: 343b 8b39 4038 db39 a833 b134 e530 b537
00000040: ee39 9c34 aa2e 8c3b c535 9538 6637 7739
00000050: 3531 1437 27b0 d63a 633a c637 b935 5334
00000060: b735 c333 df37 2437 403a 7e31 9b36 7e3b
00000070: 0738 9639 6938 2a38 6230 0e3c e639 4d39
0.339 0.4165 0.8066 0.301 0.2014 0.801 0.7236 0.9375
0.1871 0.3962 0.523 0.1153 0.3098 0.705 0.7354 0.2128
0.1087 0.856 0.371 0.2515 0.1366 0.6943 0.05338 0.58
0.9004 0.693 0.5312 0.732 0.2393 0.2932 0.153 0.4817
0.741 0.288 0.1041 0.9434 0.3606 0.5728 0.4624 0.683
0.1627 0.4424 -0.1298 0.8545 0.7983 0.4858 0.3577 0.2703
0.3572 0.2426 0.492 0.4463 0.7812 0.1716 0.4128 0.9365
0.5034 0.698 0.5513 0.5205 0.137 1.014 0.7373 0.6626

model.9.1.bias f2 [64]
00000000: 1532 5e27 132a cdac f8ac 1e30 9131 0f1d
00000010: d2ac d6af 112d 272c 4e30 18b1 2932 c198
00000020: 182d 8fab c8a6 6a2c dbaa ad9c ed2f 6eac
00000030: 90a8 c2a7 46ac dda9 e5b0 50ab 4eaf 3b2d
00000040: 4d31 a0b2 7d2c d99d 39b2 62a5 792c 87aa
00000050: 4dab ca30 da2a c4ab 39ac dc29 ee2e 8bb0
00000060: c1a7 4430 11b0 d0b2 0da9 0b2c 8f30 1130
00000070: 4430 c931 9dac d6ae 70ae ff2a 6ea3 442e
0.1901 0.02878 0.04745 -0.075 -0.07764 0.1287 0.174 0.00494
-0.0753 -0.12244 0.07916 0.0649 0.1345 -0.1592 0.1925 -0.002321
0.0796 -0.05905 -0.02649 0.069 -0.05356 -0.004566 0.12384 -0.0692
-0.03564 -0.0303 -0.0668 -0.0458 -0.153 -0.05713 -0.11414 0.0817
0.1656 -0.207 0.0701 -0.00571 -0.1945 -0.02103 0.0699 -0.051
-0.05704 0.1497 0.05353 -0.06067 -0.066 0.04578 0.1083 -0.142
-0.03029 0.1333 -0.1271 -0.2129 -0.03946 0.0632 0.1425 0.1271
0.1333 0.1808 -0.0721 -0.1068 -0.1006 0.05466 -0.01451 0.0979

model.9.1.running_mean f2 [64]
00000000: 3ab5 4632 ad35 0039 a932 3638 8ba2 d3bc
00000010: 68c0 abac 6d34 11b8 eebc 4cba 622b 02b4
00000020: 391e ddba a0bf 2cad c1be 903c 543b 97b8
00000030: 77b8 72b3 83b1 57bd 9536 7a3d 51bb e7b6
00000040: 7bbe 2b2f ad39 74c0 dea7 15a1 f7b2 0f94
00000050: 5cbb a837 753c 87ba e5b9 04bc 91b7 a1b7
00000060: 7dba be3a 0dbe 3237 67b8 7bba dbaf dabd
00000070: 0abf 493b 89b9 e9bd 70b3 20b7 2339 f93e
-0.3267 0.196 0.3547 0.625 0.2081 0.5264 -0.01278 -1.206
-2.203 -0.07294 0.2766 -0.5083 -1.232 -0.787 0.05768 -0.2505
0.006077 -0.858 -1.906 -0.0808 -1.688 1.141 0.916 -0.5737
-0.558 -0.2327 -0.1722 -1.335 0.4114 1.369 -0.9146 -0.4314
-1.62 0.112 0.7095 -2.227 -0.03073 -0.009926 -0.2177 -0.000991
-0.92 0.4785 1.114 -0.816 -0.737 -1.004 -0.473 -0.4768
-0.811 0.843 -1.513 0.4497 -0.5503 -0.81 -0.12274 -1.463
-1.76 0.9106 -0.692 -1.478 -0.2324 -0.4453 0.642 1.743

model.9.1.running_var f2 [64]
00000000: c63d ba3c 153d fe3c 513c ce3e 2e3e 153e
00000010: 1340 903d cb3f ff3e e73c 0b3d 1f3d bc2b
00000020: ef40 fd3e df3f 5c3d 5a3d 713d e33a 473d
00000030: 313d d93d ed3c 713f 803c 6e3e 9e3d 933a
00000040: 6d3f 673d 683e cd3e f33f de3a a53f 1d3c
00000050: ce3d 493d eb3e 813f 063f f73d bf3d 833c
00000060: f540 413e 993e 013c 1a3d e83e 1a3d 0540
00000070: 3840 e73e 063d e540 493e 6640 723f 333c
1.443 1.182 1.2705 1.248 1.079 1.701 1.545 1.5205
2.037 1.391 1.948 1.749 1.226 1.261 1.28 0.06042
2.467 1.747 1.968 1.34 1.338 1.36 0.861 1.319
1.298 1.462 1.231 1.86 1.125 1.607 1.404 0.822
1.856 1.351 1.602 1.7 1.987 0.8584 1.911 1.028
1.451 1.321 1.7295 1.876 1.756 1.491 1.437 1.128
2.479 1.563 1.649 1.001 1.275 1.727 1.275 2.01
2.11 1.726 1.256 2.447 1.571 2.2 1.861 1.05
